from_finrl-tutorials_git/data_1993_to_2024/train/v2_result/eiie_20250109_151543_reset_profit_ep10/checkpoint-10/policy_EIIE_10.pt (torch, 10958 bytes, 5 tensors)

sequential.0.weight f4 [2, 9, 1, 3]
000000 7c 7d 60 3d d6 e1 74 3e d5 01 4c 3e a4 bb 01 3e
       0.05480717 0.23914275 0.19922574 0.12669235
000010 b7 c5 15 bb 2a e5 7b bd 13 24 d0 3a 79 1e 9c 3d
       -0.0022853443 -0.061497845 0.0015879892 0.07623
000020 db 3f b2 3c 38 74 12 be 1a 55 ea bd 9f 37 b1 3e
       0.021758964 -0.14302146 -0.11442013 0.34612748
000030 05 9c 22 3e c9 19 ad 3e 11 d1 0e 3e ae 07 a3 3c
       0.15879829 0.33808735 0.1394694 0.019901123
000040 9a 0f c4 3c 43 21 d0 3c 51 66 80 3e 27 61 32 3d
       0.02393322 0.025406485 0.2507806 0.043549683
000050 e2 81 34 3c 2b 5f 7a b9 cd c2 5c 3d 78 40 31 bc
       0.011017295 -0.00023877311 0.053896714 -0.010818593
000060 f8 48 f6 3d b8 62 0a 3e 06 96 93 bc 4f 8e 89 3e
       0.120256364 0.1351422 -0.018015873 0.26866385
000070 41 d8 97 bd 0e 3e 93 3e c5 0a 0b 3c 29 14 5d 3e
       -0.07414294 0.2875828 0.008486454 0.21589722
000080 83 51 b6 bc e2 47 90 3e ae ee 57 3e c4 a5 ab 3e
       -0.022255665 0.28179842 0.21087143 0.33524907
000090 40 03 97 bc 52 f5 ba 3d a2 8a ea bd 00 22 49 be
       -0.018434167 0.091288224 -0.11452223 -0.19641876
0000a0 b8 5b df 3e 7f 81 9a be fc 1a e5 bc 6a b5 17 bd
       0.43624663 -0.30176923 -0.027966969 -0.037038244
0000b0 8e 07 2f 3e a8 c9 6b 3e 68 45 99 3d 14 a9 17 3e
       0.17092726 0.23026145 0.07483941 0.14810592
0000c0 74 90 5d bb 93 c3 55 3e 50 0c 17 bd c0 ae 9a 3e
       -0.0033808025 0.20875387 -0.036876976 0.3021145
0000d0 2f 40 ec 3d 26 25 f1 3d
       0.115356795 0.117746636

sequential.0.bias f4 [2]
000000 eb ad af ba d0 59 3e 3d
       -0.0013403272 0.04647237

sequential.2.weight f4 [20, 2, 1, 48]
000000 82 25 a2 be 38 3c e6 3d 1f fd 11 3c d3 67 3f be
       -0.3166924 0.112419546 0.008910446 -0.1869195
000010 3f 24 61 be a1 26 a9 bd 36 2d 4a 3d f0 84 8c bc
       -0.21986483 -0.08259321 0.049359523 -0.017153233
000020 22 84 f1 3d ed 96 70 bd a6 49 1b be 07 03 06 be
       0.117927805 -0.058737684 -0.15164813 -0.13087092
000030 c1 5c 73 3e 86 39 54 bc fe 86 1b be e9 f0 dc bd
       0.23765852 -0.012953168 -0.15188214 -0.107881375
000040 cd 04 02 be e5 2b 4a 3e 69 54 02 be c0 f1 d1 bd
       -0.12697144 0.19743307 -0.12727512 -0.10251188
000050 af 5f 40 be 59 b0 d7 bd 5d a5 c6 bc b4 f4 9f 3d
       -0.187865 -0.105316825 -0.024248773 0.07810345
000060 da ad 12 3e 93 6f 88 bd 73 9b 47 bd e5 a4 8f be
       0.14324132 -0.06661906 -0.048732232 -0.28055492
000070 d9 df 5c be 97 b0 75 3d 20 a0 6d bd 24 77 2a 3e
       -0.21569766 0.059982862 -0.058014035 0.16647011
000080 ba 7d e4 bd 24 f5 c4 bd b4 a6 4f 3d d0 99 b1 bd
       -0.11156793 -0.09617069 0.05069609 -0.086719155
000090 b3 b3 e4 3d b8 96 bd bd 07 70 93 be f9 c8 1b bc
       0.111670874 -0.09257263 -0.28796408 -0.009508365
0000a0 d2 d3 4d 3c de fd 59 3d 31 72 77 be 94 54 c3 bd
       0.012562709 0.053220622 -0.24164654 -0.09537616
0000b0 13 66 79 3d 66 8d ee bd c7 94 96 3d bc c6 79 3e
       0.06088836 -0.11648063 0.07352596 0.24392217
0000c0 db 7b 41 be 48 65 b6 be f2 70 8a 3d 1f eb 81 3e
       -0.18894903 -0.35624146 0.06759824 0.25374696
0000d0 d5 38 1f be 20 66 84 be 39 48 24 be 93 0c 10 3c
       -0.15549023 -0.25859165 -0.16043176 0.00879206
0000e0 68 1b 27 3d 18 54 5a be 68 c9 28 be 11 8d 66 be
       0.04079762 -0.21321142 -0.1648308 -0.2251475
0000f0 6b 8f a6 bd 8d e4 31 3e 72 ec 07 be e3 ec 11 be
       -0.081328236 0.17372341 -0.1327379 -0.14250521
000100 ad 6c bd bd f7 b6 8d bd 62 65 96 3d 2b b5 47 be
       -0.09249244 -0.069196634 0.07343556 -0.19502704
000110 70 fe 8c 3c c4 f7 7b be a9 be 2e be 71 63 c6 be
       0.017211169 -0.24606234 -0.17064919 -0.38747743
000120 6f 43 f2 3d e9 b0 69 3e 8e 1d 95 bd 62 d5 01 be
       0.11829268 0.22821392 -0.07281028 -0.12679055
000130 73 ee 23 be 30 e3 84 be ce de 27 3e 2d 6d bc bc
       -0.1600893 -0.2595458 0.16393587 -0.023001278
000140 18 89 2d 3e c6 99 76 bc 36 b4 98 3d a6 bf 04 be
       0.16946828 -0.015051311 0.074562475 -0.12963733
000150 b1 04 95 3c 01 fe 08 bd 26 5c ab bd 02 c3 99 be
       0.018190714 -0.033445362 -0.08367185 -0.30031592
000160 8a 5d b8 bd ab 53 66 3c ee 31 fb 3d 96 ba 23 be
       -0.09002216 0.014058034 0.12265383 -0.15989146
000170 4a 5d dd 3d 5d c1 d9 bd f2 8a 4b be 34 82 a1 bd
       0.10808809 -0.10632584 -0.19877222 -0.078861624
000180 e6 9c fa bd 76 fd 52 3d 1e d7 30 3d 30 67 77 3d
       -0.12236957 0.05151125 0.0431739 0.06040114
000190 6b 3d a2 3d c3 08 ae ba d5 e0 66 be 7e 6c b1 bd
       0.07921871 -0.0013277758 -0.22546704 -0.08663271
0001a0 b7 b6 4a 3e 79 b9 36 3e 4b 54 28 3e c3 2d 3a 3e
       0.19796263 0.1784419 0.16438405 0.18181519
0001b0 7e 09 07 3e f6 c6 5a 3d df 98 5b 3d 9f 81 06 be
       0.13187215 0.0534124 0.053612586 -0.13135384
0001c0 5d 15 6f 3e c8 bd 59 3e 8e 2c 2c 3e ae be 5f 3d
       0.23347993 0.21263802 0.16813871 0.054625206
0001d0 72 66 69 bc 27 93 87 bd 92 b4 9f 3d 10 6d b9 3d
       -0.014245616 -0.06619864 0.07798113 0.09054005
0001e0 64 68 d7 3d ae 56 0e bf ec 71 38 3d 69 e6 1b 3e
       0.10517958 -0.5560101 0.04503052 0.15224613
0001f0 d2 3c 4f 3e f4 89 65 3d 32 16 b4 3d 89 71 63 bd
       0.20238045 0.056039765 0.08793296 -0.055528197
000200 0b 23 09 3e c4 9e 13 3e 65 06 c3 bd 4f f5 19 bc
       0.13392274 0.14416033 -0.09522704 -0.009396865
000210 e0 1c 1d bd 76 18 64 be 90 2b 24 be 4a 20 b4 bc
       -0.038357615 -0.22274956 -0.16032243 -0.021988053
000220 bf a1 63 bd ea 04 19 be 1e 57 63 3e 4b 1f b4 bd
       -0.055574175 -0.14943281 0.22201201 -0.08795031
000230 13 fe b6 3d 5d ee 5a 3e 91 af 6b be e6 61 34 3e
       0.089351796 0.21379991 -0.23016192 0.1761547
000240 d8 96 5d 3e df 48 69 be 0d 8a 93 bd 43 c7 8f bd
       0.21639574 -0.22781704 -0.072040655 -0.07020428
000250 bf 59 fa bd 74 5c c5 3d 7c bf dc bd c6 b0 f0 bc
       -0.12224149 0.09636775 -0.1077871 -0.029381167
000260 34 ea 04 be c3 a6 f0 bd 8a 55 6e 3e 23 5d 5a bd
       -0.12979966 -0.11750557 0.23274818 -0.05331148
000270 79 0b 17 3e cf 73 32 bb 3a ae 42 bd 6a cd 93 bd
       0.1475047 -0.0027229672 -0.047529437 -0.07216914
000280 2c 56 e7 3c 42 25 8d bd a3 f7 65 3e 11 4a ca 3e
       0.028239332 -0.06891872 0.22457747 0.39509633
000290 1d 28 db bd e0 ea 56 bd e5 b7 fe 3d 25 a1 25 be
       -0.107010104 -0.052470088 0.12437419 -0.16174753
0002a0 10 61 f7 3d 86 99 fe 3d 2a 41 9a 3d 95 c1 e7 3d
       0.1207906 0.12431626 0.0753196 0.1131622
0002b0 3b 6d bc bb 62 31 0c 3d 66 4b 2c be 3b 61 a1 3d
       -0.005750326 0.034226783 -0.16825637 0.07879873
0002c0 0b 76 82 3d 2f 1f dc 3c 9d 1f 3c 3d 4f ef bb 3d
       0.06370171 0.026870338 0.045928586 0.09176504
0002d0 74 e8 5c be 17 69 a6 bd 60 d9 a7 3c 92 4e 71 bd
       -0.21573049 -0.08125513 0.020489395 -0.05891282
0002e0 36 bd 70 be cf d7 2c be d7 3f 9a bd cb 29 f1 bd
       -0.23509678 -0.168792 -0.07531708 -0.117755495
0002f0 ea af 65 3e 6b ca fb bd 52 61 3a 3e 05 b0 86 be
       0.22430387 -0.122944675 0.18201187 -0.26306167
000300 fe f5 0a bd 05 8f a5 3d 20 50 2f 3e 94 d4 08 3e
       -0.033926003 0.080839194 0.17120409 0.13362342
000310 9f 7e 1c 3e d7 a3 7a 3d a9 a3 d3 bd f1 3e 7f bd
       0.15282677 0.061191406 -0.1033395 -0.062315885
000320 35 80 82 3e c3 9b 35 3e 4f c1 bc 3c d8 6a 32 3e
       0.2548844 0.177352 0.023041395 0.1742357
000330 57 e6 6d be 13 4a 98 3d 80 65 1c be 04 06 62 3e
       -0.23232399 0.074360035 -0.15273094 0.22072607
000340 d9 d1 d4 3d f6 58 ea bd 4f 2b ed bc 16 64 1f bd
       0.10391588 -0.11442749 -0.028951315 -0.03891381
000350 75 61 9d 3c 92 be 52 3e d4 9b 26 bd f1 b7 f9 3b
       0.01921151 0.2058051 -0.040675953 0.0076208045
000360 7a 11 81 bd 6a 72 a5 be cf 7b 1c be 9e 35 9c 3d
       -0.063021615 -0.32313854 -0.15281604 0.07627414
000370 0b 74 bc bb 3a b6 74 3e 0b cb 6a bd ae c3 cc be
       -0.005751138 0.23897639 -0.057322543 -0.39993042
000380 1b 86 d1 bb a3 a0 13 bd e2 94 e3 3d 9f 78 0b 3e
       -0.0063941604 -0.036041867 0.111123815 0.13620232
000390 6e fb 21 3e a4 06 92 3c 7d 28 1f be 90 a8 1f 3d
       0.15818569 0.017825432 -0.15542789 0.038979113
0003a0 e6 25 7d bc bd d0 1e be 84 dc 35 bd e2 7b 82 bc
       -0.01545093 -0.15509315 -0.044399753 -0.015928213
0003b0 c3 39 95 bb 32 3b 53 3e f0 8a a7 3d f8 b2 63 be
       -0.004554005 0.2062805 0.08180797 -0.2223624
0003c0 db 81 4b be c9 af f9 bd 85 c6 40 be 5f 12 1c bd
       -0.19873755 -0.121917315 -0.18825729 -0.038103458
0003d0 f0 d8 d8 bd e9 6c 35 bc c3 e7 d8 3d ec 16 0d be
       -0.105882525 -0.0110733295 0.1059108 -0.13778275
0003e0 b7 5f fa bd d3 64 2c 3d 1f 0c dc 3c cb 5b 40 bd
       -0.122252874 0.04208834 0.026861249 -0.04696254
0003f0 2f 9f e0 3d 7d 3d d8 3b 76 6a 12 bd 74 74 8a bd
       0.10967862 0.006599127 -0.03574606 -0.06760493

sequential.2.bias f4 [20]
000000 4e f8 ae 3c 56 66 eb bd 5e 1e 32 3d ce 59 5b 3e
       0.021358635 -0.114941284 0.04348599 0.21420977
000010 a9 3e 31 3e 7c db 40 3e 2d 78 f4 3e 27 70 4a 3e
       0.17309059 0.18833727 0.47747937 0.19769345
000020 00 87 6f 3e 62 5a 14 3e f7 f7 d6 3d 25 77 f4 3d
       0.23391342 0.14487603 0.10496514 0.119367875
000030 5f 46 a0 3e 08 0e 08 3e 30 af 5a 3d 04 e3 a3 3d
       0.3130369 0.13286602 0.053389728 0.08002284
000040 9d 38 82 3e 22 ea 5e be 5c 88 06 bc cc a8 e5 bd
       0.25433818 -0.21769002 -0.008211222 -0.11213836

final_convolution.weight f4 [1, 21, 1, 1]
000000 61 67 37 bb 63 7b a2 bd 3b 14 9e be 28 5d 1e be
       -0.0027985203 -0.079336904 -0.3087481 -0.15465224
000010 8e 86 8e be fd 11 79 bb 25 b3 61 3e 29 3f 3d be
       -0.27837032 -0.0038005107 0.22040994 -0.18481125
000020 95 6f 70 be 0f 86 d4 bd f2 3b c6 bd b1 17 31 3e
       -0.23480065 -0.10377132 -0.096794024 0.17294194
000030 df b7 68 3e 68 be 8b 3d 77 60 6f be d4 c1 2c be
       0.22726391 0.068234265 -0.23376642 -0.16870815
000040 f4 df 04 be e6 50 b2 3d 9c 8e 39 bd e9 9e 03 bd
       -0.12976056 0.087068364 -0.04530202 -0.03213397
000050 ee 86 99 bd
       -0.07496439
