from_finrl-tutorials_git/data_1993_to_2024/train/v2_result/eiie_20250103_092947_turbulence_ep500_deficit/checkpoint-365/policy_EIIE_365.pt (torch, 10968 bytes, 5 tensors)

sequential.0.weight f4 [2, 9, 1, 3]
0.03745817 -0.07208314 0.0019030392 -0.09703725 0.11013023 -0.028895577 0.0097460225 0.15120655
-0.043765116 0.12654836 0.16625391 -0.04144072 -0.06893782 0.026138214 0.041947477 -0.075602
-0.062113114 0.007052687 -0.010484432 -0.035109356 -0.075614065 -0.048604544 -0.06567197 -0.06421958
0.02879066 0.047565438 -0.012262643 -0.0068255872 -0.076754756 0.006085001 -0.007331719 0.030024324
-0.07722039 -0.04083702 -0.062642865 -0.045032054 -0.006087697 -0.07646198 -0.022524422 -0.067951165
0.043580603 -0.005458873 0.029017225 -0.037749022 -0.0034209217 -0.043439858 0.028168121 -0.057040434
0.02685853 -0.086766906 0.0340053 -0.028127749 0.037496597 -0.08497714
00000000: bd6d 193d 53a0 93bd 666f f93a 77bb c6bd
00000010: f58b e13d 6bb6 ecbc c8ad 1f3c e4d5 1a3e
00000020: 0d43 33bd e595 013e 773e 2a3e bfbd 29bd
00000030: 462f 8dbd cf1f d63c 1ed1 2b3d 39d5 9abd
00000040: 526a 7ebd 3a1a e73b e5c6 2bbc d4ce 0fbd
00000050: 8cdb 9abd 8f15 47bd 077f 86bd 8e85 83bd
00000060: 64da eb3c fad3 423d 41e9 48bc 2da9 dfbb
00000070: 9931 9dbd b064 c73b eb3e f0bb 92f5 f53c
00000080: b925 9ebd b844 27bd e74a 80bd 8873 38bd
00000090: 4e7b c7bb 1998 9cbd 2385 b8bc fb29 8bbd
000000a0: 9381 323d 59e0 b2bb 88b5 ed3c b89e 1abd
000000b0: 8b31 60bb feed 31bd d5c0 e63c 3ba3 69bd
000000c0: 6b06 dc3c d9b2 b1bd 2449 0b3d 2a6c e6bc
000000d0: 0896 193d 7f08 aebd

sequential.0.bias f4 [2]
-0.02759749 0.017017638
00000000: 2214 e2bc 9368 8b3c

sequential.2.weight f4 [20, 2, 1, 48]
-0.08015049 -0.0932654 -0.08200432 -0.060866125 -0.06071843 -0.027147291 -0.025140105 -0.061129987
0.047341324 -0.04729261 -0.060547527 -0.0061979895 -0.019973982 -0.030251399 0.05817581 -0.06946898
0.09452402 -0.057935122 -0.050261334 -0.033935405 -0.084518805 -0.06783754 -0.06074479 -0.027521413
-0.028797382 -0.09189423 -0.03352603 0.06167095 -0.050693102 -0.048583064 -0.04823616 -0.04960314
-0.083049625 -0.057096697 0.07808896 0.062430702 -0.07482909 -0.019037453 -0.06969541 -0.056333687
0.053273182 -0.07510524 -0.07272574 -0.026471592 -0.07370421 -0.023608137 -0.047274254 -0.06346694
-0.02885585 0.031276237 0.04483409 -0.044189684 -0.00016185427 -0.06334452 -0.02911109 -0.032596465
-0.009780312 0.007360682 -0.04848264 0.006891467 -0.007452534 -0.040168066 0.013736109 0.029526044
0.076239586 -0.04375646 0.0557131 -0.0048479033 0.033382602 -0.0054446817 0.04872523 0.018519074
0.013757829 0.033288214 0.039327525 0.029544665 -0.0120971715 -0.048337657 0.012785355 0.0050134812
0.0022516241 -0.0059381146 -0.051371835 0.05391629 -0.0033727875 0.04041539 -0.021660492 0.047330216
-0.0072954725 0.027784882 0.0043702535 -0.031304386 -0.01608584 0.054761533 -0.047069535 -0.009007075
0.01947818 0.016535344 -0.023655705 0.06390634 0.02214356 0.04126389 -0.022711122 -0.03798409
-0.011262439 0.058271736 0.06533612 0.08459049 0.051544923 0.105264276 -0.023333032 0.034661293
-0.045196764 -0.030684143 0.054170147 0.073770955 0.047111873 0.040251058 0.08209508 0.07487341
0.06714995 0.051282223 -0.022600487 -0.01677328 0.08040913 0.032927442 -0.009924211 0.06499586
-0.03305453 -0.036461502 -0.045713056 -0.05596799 -0.08427297 0.0020620876 0.010669651 -0.004590475
-0.045552302 -0.081497 0.0937827 0.11381689 -0.030124642 -0.02826808 0.09083646 0.041063998
0.006242295 0.0032550604 -0.062734455 0.021375434 0.00013371989 0.016677862 0.016656686 0.036691856
0.010220438 0.0060357926 0.055324014 -0.0018568471 -0.0048724907 0.0918069 0.01110777 -0.023344066
-0.047039233 0.0351567 -0.015226227 0.05097196 0.012136128 -0.0017064728 -0.05022548 -0.0120191295
0.0010745933 -0.022218922 0.036824383 -0.004091371 -0.010210916 -0.012998794 0.05407485 0.054067425
-0.01241431 -0.019988963 0.04188232 -0.09730122 0.056276657 0.022481285 0.052465793 -0.018085277
-0.03387906 0.037542973 0.055587728 0.024383202 -0.0032450387 -0.03939548 0.07742626 0.002357087
-0.06142262 -0.060644846 -0.06459423 -0.032414086 -0.04007767 -0.07741677 -0.051804595 0.06363519
-0.06080873 -0.0673989 -0.02046146 0.013409794 0.00677675 -0.05968775 0.015660407 -0.05435063
-0.04055849 0.013333917 0.05778823 0.006790276 0.004774915 -0.026324205 -0.07654918 -0.027911657
-0.018735467 -0.06573546 -0.022940489 -0.038405858 -0.07501645 -0.031123215 -0.06786023 -0.03378044
-0.064397626 -0.028334815 -0.0922908 -0.06799912 -0.069647945 -0.026795078 -0.0437635 -0.040256392
0.06316621 -0.049841426 -0.06845878 0.053638145 0.03596323 -0.015238944 -0.0660746 0.0112531325
0.026069188 0.030604936 0.009554152 -0.0036701006 -0.02904307 -0.021362053 0.014460564 0.084598355
0.04978245 -0.06143407 -0.032287072 0.00662358 0.016271234 -0.071774095 0.039892968 0.025964001
00000000: f125 a4bd ee01 bfbd e2f1 a7bd c24e 79bd
00000010: e3b3 78bd ff63 debc 9ff2 cdbc 7063 7abd
00000020: fae8 413d e5b5 41bd af00 78bd 8118 cbbb
00000030: 7aa0 a3bc c8d1 f7bc c249 6e3d c145 8ebd
00000040: cf95 c13d 614d 6dbd d4de 4dbd daff 0abd
00000050: 3218 adbd 68ee 8abd 87cf 78bd 9674 e1bc
00000060: 7de8 ebbc 0b33 bcbd 9752 09bd ae9a 7c3d
00000070: 92a3 4fbd 09ff 46bd 4893 45bd aa2c 4bbd
00000080: ec15 aabd 3ade 69bd 1bed 9f3d 56b7 7f3d
00000090: fe3f 99bd 6ff4 9bbc 78bc 8ebd 27be 66bd
000000a0: fb34 5a3d c7d0 99bd 3cf1 94bd f4da d8bc
000000b0: 3cf2 96bd da65 c1bc a6a2 41bd f4fa 81bd
000000c0: 1b63 ecbc 831b 003d f3a3 373d 3e00 35bd
000000d0: 6db7 29b9 c6ba 81bd 617a eebc df83 05bd
000000e0: 9a3d 20bc e031 f13b bc95 46bd d1d1 e13b
000000f0: 6334 f4bb 4587 24bd 6b0d 613c 9ae0 f13c
00000100: 8023 9c3d f939 33bd 6b33 643d 29db 9ebb
00000110: 32bc 083d 4d69 b2bb 1b94 473d 50b5 973c
00000120: 8468 613c 3959 083d e615 213d a707 f23c
00000130: 3733 46bc b5fd 45bd aa79 513c 2148 a43b
00000140: fc8f 133b 8494 c2bb 466b 52bd 54d7 5c3d
00000150: fc09 5dbb 9c8a 253d 5871 b1bc 54dd 413d
00000160: dc0e efbb 1f9d e33c 5834 8f3b 0739 00bd
00000170: 74c6 83bc a14d 603d fccb 40bd 6992 13bc
00000180: b490 9f3c 2175 873c 9cc9 c1bc 54e1 823d
00000190: 6966 b53c 5304 293d ad0c babc 3595 1bbd
000001a0: 1886 38bc 58ae 6e3d f2ce 853d c73d ad3d
000001b0: c520 533d cc94 d73d ea24 bfbc 00f9 0d3d
000001c0: 3e20 39bd 505d fbbc 84e1 5d3d 3a15 973d
000001d0: 61f8 403d 4bde 243d 7721 a83d 3b57 993d
000001e0: ea85 893d 4f0d 523d a824 b9bc 1e68 89bc
000001f0: 8bad a43d edde 063d 2899 22bc 8d1c 853d
00000200: 3064 07bd a858 15bd 9d3d 3bbd b13e 65bd
00000210: 4f97 acbd 1724 073b c3cf 2e3c b26b 96bb
00000220: 0d95 3abd e6e7 a6bd 2511 c03d d418 e93d
00000230: f4c7 f6bc 7692 e7bc 7708 ba3d b932 283d
00000240: 2a8c cc3b da52 553b ec7a 80bd 891b af3c
00000250: 2937 0c39 03a0 883c 9a73 883c 334a 163d
00000260: a073 273c e6c7 c53b 6f9b 623d 7361 f3ba
00000270: 6aa9 9fbb 4205 bc3d 5dfd 353c 0e3c bfbc
00000280: 36ac 40bd 7900 103d 6d77 79bc f9c7 503d
00000290: 9cd6 463c baab dfba 3cb9 4dbd e2eb 44bc
000002a0: 5ed9 8c3a 7504 b6bc 2ad5 163d e810 86bb
000002b0: b04b 27bc e5f8 54bc 977d 5d3d ce75 5d3d
000002c0: 6465 4bbc e5bf a3bc cc8c 2b3d dd45 c7bd
000002d0: 5a82 663d ac2a b83c 5fe6 563d 9327 94bc
000002e0: c5c4 0abd a9c6 193d f5af 633d 48bf c73c
000002f0: b7aa 54bb 285d 21bd a991 9e3d 5c79 1a3b
00000300: 4996 7bbd bb66 78bd fb49 84bd a2c4 04bd
00000310: 7c28 24bd af8c 9ebd 0e31 54bd 2b53 823d
00000320: 9312 79bd 6f08 8abd cb9e a7bc c1b4 5b3c
00000330: 800f de3b 247b 74bd 414a 803c c49e 5ebd
00000340: a920 26bd 8076 5a3c 5ab3 6c3d f780 de3b
00000350: e476 9c3b dca5 d7bc d1c5 9cbd fda6 e4bc
00000360: 1f7b 99bc 50a0 86bd b1ed bbbc 764f 1dbd
00000370: 39a2 99bd 1df6 febc 4efa 8abd 5c5d 0abd
00000380: e7e2 83bd 6a1e e8bc f502 bdbd 1f43 8bbd
00000390: 95a3 8ebd 5a81 dbbc 5b41 33bd e3e3 24bd
000003a0: 495d 813d 8626 4cbd 1e34 8cbd acb3 5b3d
000003b0: 2e4e 133d c4ac 79bc 1f52 87bd 0f5f 383c
000003c0: 0d8f d53c 34b7 fa3c 0589 1c3c 1286 70bb
000003d0: bbeb edbc 79ff aebc 00ec 6c3c e741 ad3d
000003e0: afe8 4b3d 4ba2 7bbd 733f 04bd 9e0a d93b
000003f0: 404b 853c 4cfe 92bd cf66 233d 75b2 d43c

sequential.2.bias f4 [20]
0.022101048 0.053549744 0.01131167 0.0011056177 0.0056915036 -0.00096978876 0.07181475 -0.0064490815
0.07422405 0.046184145 0.011733742 -0.004275614 0.04141614 -0.026878702 0.011015308 0.0057655782
0.01760436 -0.04116782 0.010415282 0.009359268
00000000: 420d b53c fa56 5b3d 9554 393c 60ea 903a
00000010: cb7f ba3b 6c39 7eba 9d13 933d d152 d3bb
00000020: c702 983d 962b 3d3d e23e 403c 731a 8cbb
00000030: f8a3 293d b930 dcbc 8d79 343c 2ded bc3b
00000040: 0537 903c 979f 28bd dca4 2a3c 9d57 193c

final_convolution.weight f4 [1, 21, 1, 1]
0.044153027 -0.05816171 0.04968509 -0.050392702 0.010548852 0.05364918 -0.055479113 0.033509172
-0.11582533 0.0232456 -0.076275386 -0.06961001 -0.075175665 0.09588654 0.053297125 -0.07650119
-0.039560065 0.020033536 0.0029484 -0.022600036 -0.00096332777
00000000: ced9 343d f93a 6ebd 9882 4b3d 9468 4ebd
00000010: 18d5 2c3c 3ebf 5b3d 113e 63bd ea40 093d
00000020: d535 edbd 8e6d be3c 4536 9cbd b18f 8ebd
00000030: b3f5 99bd 2a60 c43d 164e 5a3d a8ac 9cbd
00000040: bc09 22bd 5f1d a43c f239 413b b623 b9bc
00000050: d587 7cba
