from_finrl-tutorials_git/data_1993_to_2024/train/v2_result/eiie_20250103_092835_turbulence_ep100_deficit/checkpoint-71/policy_EIIE_71.pt (torch, 10958 bytes, 5 tensors)

sequential.0.weight f4 [2, 9, 1, 3]
000000 0f 5c c2 3d ff 29 af 3c f5 7e a8 bb 19 c2 77 bb
       0.09490215 0.02138233 -0.0051420876 -0.00378049
000010 90 4b b7 3b 40 60 11 3b e8 f9 c5 3d 81 25 d8 bb
       0.0055937245 0.0022182614 0.096668065 -0.0065962677
000020 c4 ba 5f 3d 1a 22 e3 3d 04 f3 f6 bd da 4d 2d bd
       0.054621473 0.11090489 -0.1205807 -0.042310573
000030 d0 2b e9 bc 74 c0 bd 3d 99 72 a7 bb 86 63 12 be
       -0.028463274 0.09265223 -0.0051100967 -0.14295778
000040 16 31 ba 3d 5c c0 a3 bd 6b 3d db bd 20 5f 6b bd
       0.09091394 -0.07995674 -0.10705074 -0.057463765
000050 e9 45 cc 3d 7b 1c 3b 3d 80 bb 95 3d 6f 4e 0b be
       0.09974272 0.045681458 0.073111534 -0.13604139
000060 a0 7f fb bb 9f 81 99 3d 67 b8 d1 bd ee 3c 8c 3d
       -0.007675126 0.074954264 -0.1024025 0.06847559
000070 ef cd 37 3e 9a a0 f8 3d 6a 39 ab 3d 25 93 61 3d
       0.17949651 0.12140007 0.0836056 0.05507197
000080 bb ad e1 bd e8 e5 15 3e bc cf a5 3d 95 ce 33 3e
       -0.110194646 0.14638484 0.08096263 0.17559274
000090 a7 20 3e 3e b4 3c 0d be a0 18 a4 3e bc 28 e7 bd
       0.18567143 -0.13792688 0.32050037 -0.11287066
0000a0 27 a3 c7 bd 83 1d 05 be ab f8 f0 3d 8b 88 bd bd
       -0.09747916 -0.12999539 0.1176618 -0.09254559
0000b0 d2 02 cf bd 19 f5 03 3e 5f bd f6 3c a3 67 c3 3c
       -0.1010796 0.12886466 0.030119596 0.023853129
0000c0 91 a2 85 3d 45 59 17 bd fd 6d 2f 3e 36 2f 01 3e
       0.06525148 -0.03695037 0.17131801 0.12615666
0000d0 92 ba 0d 3e b4 0f 69 3b
       0.13840702 0.0035562338

sequential.0.bias f4 [2]
000000 6b 4c 12 be 7f 24 1e 3e
       -0.14286964 0.1544361

sequential.2.weight f4 [20, 2, 1, 48]
000000 8b f7 01 bd 6a 1b 60 3e f5 f5 7e 3d f0 a7 8f bc
       -0.031730216 0.21885458 0.06224628 -0.017536134
000010 8e 6d 39 3e 5e d7 93 3d 83 b0 1b 3c 7f 96 48 bd
       0.18108198 0.072188124 0.009502533 -0.04897165
000020 12 a3 97 bc 5c 55 93 bc 52 ea 82 be 7e ff 84 3c
       -0.018510375 -0.017985038 -0.25569397 0.01623511
000030 ad c5 90 bd a2 f0 5d be a0 f4 6b 3d 54 5b 25 3e
       -0.07068954 -0.21673825 0.05760634 0.1614812
000040 55 0e 96 3c d8 f8 78 3e 34 e7 0c 3d ca e0 1c be
       0.01831738 0.24313676 0.03440018 -0.15320125
000050 2b b5 92 bd 5f 6f 8e 3a 01 61 da 3c 4c d2 22 3c
       -0.07163461 0.0010866931 0.026657583 0.009937834
000060 f1 4c a8 bd bb a1 0f bd 1a 38 59 3e dd ed 8b bd
       -0.082178004 -0.035066348 0.21212807 -0.06832478
000070 7d fb b3 bc 84 69 8b bd 6a fc c0 3a 05 4e 8d 3d
       -0.021970505 -0.06807235 0.0014723663 0.06899647
000080 9c eb 86 3e bc a5 a3 bd 9f 14 95 3d 96 48 05 3e
       0.2635163 -0.07990596 0.07279324 0.1301597
000090 d0 5e 97 bc 91 96 92 bd c0 f7 31 bd 5d 60 85 3e
       -0.018477827 -0.071576245 -0.043449163 0.26050082
0000a0 e8 2b 82 bc 52 9e 5f 3e 7d 07 80 3d 2d c8 f3 3c
       -0.015890077 0.21837738 0.06251428 0.029758537
0000b0 b1 7d 35 3e 91 d7 3e bd f0 00 36 bd 68 70 e8 3c
       0.17723729 -0.0465923 -0.044434488 0.028373912
0000c0 d7 0c 99 bd a3 af 26 3e ae c1 42 3e 17 90 03 3a
       -0.07473152 0.16277938 0.19019195 0.00050187245
0000d0 68 c6 8a 3e bb d7 5c 3e 3a b7 fb 3c 42 78 57 3d
       0.27104497 0.2156667 0.030727018 0.05260492
0000e0 70 27 9e ba 31 5e d7 bb a8 4a 28 be ab 8a 79 be
       -0.0012066197 -0.006572508 -0.16434729 -0.24369304
0000f0 af 47 a3 bd 40 2f 3f be 5c 22 91 be 4d 6c 55 3e
       -0.07972657 -0.18670368 -0.28346527 0.20842095
000100 54 d3 38 3e 22 60 6a 3e 0c f4 4e 3e c9 33 62 be
       0.18049365 0.22888234 0.20210284 -0.22090067
000110 09 ac 10 be 6d 05 28 bd 79 f3 e8 bc 8f f9 80 bd
       -0.14128126 -0.0410208 -0.02843641 -0.062975995
000120 24 5a 09 bd ac eb b9 3d 1d dc 27 3e 59 58 78 3e
       -0.03353323 0.09078154 0.1639256 0.24252452
000130 e6 ce d3 bc f7 43 8d bc a4 3d f1 bc c0 ad b2 3d
       -0.025855493 -0.017244322 -0.029448338 0.087245464
000140 88 da 14 3e 6e d2 28 3e e8 d3 46 bd 1e e1 2e 3e
       0.14536488 0.16486523 -0.048541933 0.17078063
000150 07 95 88 3e 0b d1 52 bd 11 e8 5b bd b1 78 53 3e
       0.266762 -0.05146889 -0.053688113 0.20651509
000160 fc 55 3d 3e 86 44 59 3e 02 4d 83 3e de b7 b7 bd
       0.18489832 0.21217546 0.2564469 -0.08970617
000170 d4 6b 35 3e df 05 6e 3e 4d 2b d7 bc 12 bc d7 3d
       0.17716914 0.23244427 -0.026265765 0.105339184
000180 08 98 a1 bd 55 fe f8 3d 29 c3 6c bd b8 c9 a5 bd
       -0.07890326 0.12157885 -0.057803307 -0.080951154
000190 e0 78 cd 3d ac aa e5 3c 94 d9 45 bd 1b b2 91 bc
       0.10032821 0.028035484 -0.0483032 -0.017785123
0001a0 8c 79 56 bd 62 76 d7 3b 17 6c 6a 3e 62 b3 10 bd
       -0.05236201 0.0065753916 0.22892796 -0.035327323
0001b0 6c b1 95 bd d7 ea 3b bd 97 64 df bb 78 36 7e 3e
       -0.07309231 -0.045878258 -0.006817411 0.24825466
0001c0 a9 70 77 bd d9 b5 2e 3e 1b 4d 88 bd d5 8e b5 3b
       -0.060410175 0.17061557 -0.06655332 0.0055407085
0001d0 b6 15 94 bc 95 2f b5 bc 10 9a 9e 3d 5a b5 c6 bc
       -0.018076759 -0.022117415 0.07744229 -0.024256397
0001e0 04 95 8d bc fd f3 13 bd fb 54 6c 3e 19 da 83 3c
       -0.01728297 -0.036121357 0.23079292 0.016095208
0001f0 a5 ae 67 3d 8c 56 25 bd 84 4e 5c 3d bf 83 1d 3d
       0.05656304 -0.04036574 0.053785816 0.03845572
000200 61 22 0b 3e 66 4a 34 bc f0 da 43 bd 0b 4e 83 3e
       0.13587333 -0.011004066 -0.047816217 0.2564548
000210 03 53 68 3b 83 12 3f bd 98 e5 e0 bc ac a3 ab 3d
       0.003544987 -0.046648514 -0.027453229 0.08380827
000220 30 c3 7f bd 54 80 f9 3d c7 43 00 bd 9d 19 6c 3c
       -0.062442005 0.1218268 -0.031314638 0.014410404
000230 17 57 18 3e 24 ce 2e 3d ae 72 85 3d 37 91 24 bd
       0.14876972 0.04267706 0.06516014 -0.04017755
000240 de 81 55 3d 92 b1 84 3d 1d c9 70 3d 2f 2d 5f bc
       0.052125804 0.06479181 0.058785547 -0.013621612
000250 cd 4c 11 3e 21 82 d0 3d 40 63 e7 bc 22 ba 74 3d
       0.14189453 0.1018107 -0.028245568 0.059747823
000260 ea 14 98 bd 09 40 8d 3d 69 16 61 3e 19 dd 17 3e
       -0.07425864 0.06896979 0.21981205 0.14830436
000270 41 db 02 3d 74 6d 05 3e 28 fe 94 bd 32 7f 3a 3e
       0.031947378 0.13030034 -0.07275039 0.18212584
000280 55 8a 53 3e 4a 1b 74 3e 9e 1a 7c 3e 16 cc 3b 3c
       0.20658238 0.23838535 0.24619529 0.011462232
000290 33 6b 84 bd 49 70 50 bd c0 5a 74 bc fc d8 f8 bc
       -0.06465759 -0.050888333 -0.014914215 -0.030376904
0002a0 c6 04 78 3d d3 73 25 3c b1 d1 19 3e ae d9 e8 3d
       0.060551427 0.010098415 0.15021397 0.11369644
0002b0 a4 fa af 3d f0 6e 4e 3d 59 a4 0b 39 05 23 93 bd
       0.08592728 0.050398767 0.00013317297 -0.07184414
0002c0 f4 2b 6b 3e 02 4a 69 3e 39 c9 84 bd dc 2e 84 3e
       0.22965986 0.22782138 -0.06483693 0.25817
0002d0 e0 d8 79 3e d3 53 91 3d 0a 93 97 3d 13 59 19 3e
       0.24399137 0.07096066 0.07401092 0.14975385
0002e0 7e cb 0d 3e a7 67 81 3e f9 11 27 3e 16 cd fc 3c
       0.13847157 0.25274393 0.1631545 0.030859511
0002f0 b4 90 16 3e c5 c4 2b 3e 8a 7c 2a bd 75 73 34 3e
       0.14703637 0.1677428 -0.041622676 0.17622168
000300 73 18 7d bd 82 bc 56 3d 4f 84 77 3d 73 d7 e5 bc
       -0.061790895 0.05242587 0.060428914 -0.028056836
000310 3a 57 96 3d be ca f5 bb 1c 7c 60 bd 96 91 48 3d
       0.07340856 -0.0075009754 -0.05480586 0.048966967
000320 33 53 43 bc fa 0d df 3b f3 2c 8a 3d 58 05 98 bd
       -0.011921692 0.006807086 0.06746855 -0.07422894
000330 37 e7 4d 3d 07 c5 12 bb e9 b9 8b bd 95 9f 62 bd
       0.05026933 -0.002239527 -0.06822569 -0.05532797
000340 2d a4 23 3d 8f be 70 bc 7f db a5 3d c0 12 3b bd
       0.039951492 -0.01469387 0.08098506 -0.04567218
000350 66 31 24 bc f0 13 85 bd fa eb f9 bb dd 1e f4 bb
       -0.010021543 -0.064979434 -0.0076270076 -0.0074499683
000360 60 04 c2 3c f3 7d 48 3d 18 c4 a6 3d 74 e6 a5 3d
       0.023683727 0.04894824 0.08142871 0.08100596
000370 87 cc 81 bd 4d ba 9d 3d 0e 06 35 3d de 02 8b 3d
       -0.063378386 0.0770155 0.044195227 0.06787656
000380 1e 19 60 bd a9 73 4d 3d b7 d0 a5 bd 03 ec 4f bd
       -0.054711454 0.05015913 -0.0809645 -0.050762188
000390 74 03 82 bd d3 4a e1 3c 49 eb a7 3d 98 d9 d1 bc
       -0.06348315 0.0275015 0.08199174 -0.025616452
0003a0 c4 3d 16 bd f7 09 81 3d bb 84 d3 3c 8d 53 7d 3d
       -0.036679998 0.06300729 0.025820127 0.06184726
0003b0 cc 16 ff bc 99 ab 3b bc f3 76 0f bd bb 22 1d 3b
       -0.0311388 -0.011454486 -0.03502555 0.0023977
0003c0 25 60 95 3d 8c 85 b3 bc 42 3d 87 bd f9 68 40 3d
       0.07293729 -0.021914266 -0.06603481 0.04697511
0003d0 3f 67 5d bc 20 a7 90 3c c5 57 28 3d 13 d2 e2 3c
       -0.013513385 0.017657816 0.04109933 0.027688062
0003e0 0a f3 27 3d 61 17 33 bd a4 53 7e bd bf 2c 46 3d
       0.041003264 -0.043723468 -0.062091485 0.048382517
0003f0 3b d7 ff 3b 4d c1 91 bc d0 6f c2 3c a1 68 9d 3c
       0.00780764 -0.017792368 0.023734957 0.01921493

sequential.2.bias f4 [20]
000000 2e 6a 37 3c f6 b2 17 3d 65 c6 4e 3d da 44 d2 bd
       0.011194749 0.037035905 0.050482173 -0.10267039
000010 cf 65 a0 bd d0 ec 1f 3b 9f 25 10 bd e1 1d 41 bd
       -0.078319184 0.0024402626 -0.03519213 -0.047147635
000020 61 8c 2d bd fc d5 1a bc ac 2a 9c 3c a7 fe 17 3d
       -0.042370204 -0.009450432 0.019063316 0.03710809
000030 95 fe dd bc a7 35 92 3c 0e cf 09 3d 15 c8 0d bc
       -0.027098933 0.017847849 0.03364473 -0.00865366
000040 41 99 e7 3b 79 17 c3 bc 93 ff 77 bd 40 fc 93 bd
       0.00706783 -0.023814904 -0.06054647 -0.07225847

final_convolution.weight f4 [1, 21, 1, 1]
000000 06 bb 87 be 24 87 af 3e 94 65 5a 3e 74 d9 38 3c
       -0.26509875 0.34282792 0.21327811 0.011282314
000010 15 7c 92 3d 6f 9e f8 bd 11 62 63 bd 5e 73 e0 3d
       0.07152573 -0.12139594 -0.055513445 0.109595045
000020 ae f8 7b 3e b3 60 92 3e 55 72 95 3e da 9e a3 3d
       0.24606583 0.285894 0.2918879 0.07989283
000030 f7 08 5c 3e 5b 01 32 be a8 0c b5 bd ed 95 9c 3e
       0.21487795 -0.1738333 -0.088403046 0.30583134
000040 69 0b 5f be 3a 76 b5 3e 27 82 90 3e de 25 86 bd
       -0.21781696 0.35441762 0.28224298 -0.06550191
000050 87 41 d2 3d
       0.102664046
