from_finrl-tutorials_git/data_1993_to_2024/train/v2_result/eiie_20241220_184459_ep400/checkpoint-66/policy_EIIE_66.pt (torch, 10958 bytes, 5 tensors)

sequential.0.weight f4 [2, 9, 1, 3]
00000000: 252c 933e 7527 773e 0753 3a3e 9b83 bf3e
00000010: 66a4 c43e 3596 273e b958 5f3e ccb6 003f
00000020: 5226 d13e 061b ddbd 418f 1c3f 4dab bb3e
00000030: 0bce 40be 829e ad3e 9eb4 c0be ca5d c13e
00000040: 7fa0 a93e c12a d83e bed5 9a3e 7bdd bc3e
00000050: 77a5 a03e 2d10 f73e 8e9b 933e 0356 0bbd
00000060: a352 b53e 1eaa 273e b286 f13e 1750 9bbe
00000070: c193 b8be 511b 45be 07ac a2bd e508 f7bd
00000080: 9e61 18bd f598 47be 63cf b3be 6375 95be
00000090: cafe 49bc f2b4 083e 9403 1cbd df42 debe
000000a0: 9c07 19be 7d46 8cbe 97e8 8bbe 6223 acbe
000000b0: 4075 37bd 1d3a 8dbe fdc7 3dbd 0403 9bbe
000000c0: 9f85 a3be 948d 0dbf 6ca5 8bbe fc13 c8bd
000000d0: d54c 78bd 702f 33be
0.28744617 0.24136145 0.18195735 0.37405095 0.38406676 0.16365893 0.21811189 0.50278926
0.4084955 -0.1079617 0.6115609 0.3665413 -0.18828599 0.33909994 -0.376378 0.37766868
0.3313026 0.4222012 0.30241197 0.36887726 0.3137624 0.4825453 0.28829616 -0.034017574
0.3541461 0.16373488 0.47173077 -0.3033454 -0.36050227 -0.19248702 -0.07942968 -0.12062243
-0.03720247 -0.19491942 -0.3511916 -0.2919112 -0.012328813 0.13350275 -0.03808935 -0.43410394
-0.14944309 -0.27397528 -0.2732589 -0.33620745 -0.044789553 -0.275834 -0.0463333 -0.30275738
-0.31937882 -0.55294156 -0.27274644 -0.09769437 -0.060620148 -0.17498565

sequential.0.bias f4 [2]
00000000: 6fcb ce3e dd24 88be
0.40389583 -0.26590624

sequential.2.weight f4 [20, 2, 1, 48]
00000000: 06b3 19bd b2e9 13be 5bb0 83bd 6636 abbc
00000010: af13 7abd 30b2 43be 5259 9fbd d01b cdbc
00000020: 8f50 4fbe 9eae b4bc 67c9 0ebe 66fb 9ebb
00000030: 060d 74bd 315c 7abe b40e 0f3b b28b 85bd
00000040: 13eb b7bc 9da1 24bc faf2 27bd 5a5d efbd
00000050: e7b5 c6bd a977 cdbd 05c2 29be 2d89 67be
00000060: 1fac 06bf 0cc4 31bc 4d8c 66be 34ad c6bd
00000070: d501 06be c77d f2bb 5b78 8bbd e73f 66be
00000080: 0529 02be daa0 0bbe 10cd b9bd b268 8ebd
00000090: e01a ddbd 0222 e0bd bbe2 67bd e9ec d3bd
000000a0: bacf a3be 5a75 58be db1a 033e 7e1f bbbb
000000b0: 043b e73d 533d 6cbe b7b4 0ebe 9b5d c9bd
000000c0: 6698 1abe 542a 36be 9cfc 1fbe 6837 89bd
000000d0: d504 e8bd 7a2a 07be 0cf0 f8bd 525c 0cbe
000000e0: eee8 16be a08d a63c af1d 143b 5eaf 14bd
000000f0: e0d1 2ebe 6d01 f4bd d9b2 76bd da23 14be
00000100: 65e1 88bd 60c9 5cbd 7311 38b8 b783 c2bc
00000110: 090d a0bd b48a 0bbe 3ffc e7bd 7afe 37bd
00000120: 50e0 1bbe 9652 3bbe c18c b4ba f7b7 92bd
00000130: 91b6 dbbd 24da 3abe 9ae9 a6bd 44a6 b4bd
00000140: d85d 24be 5d12 08bd d98e 07bd 2035 94bd
00000150: 8d41 04bd 98ee 20bd 7acb 7abd 41dd 09be
00000160: 3fea 71bb c26b 183e a62a d7bd a001 f0bd
00000170: dae6 33be 5061 5cbe fce9 5c3b 4fff 29bd
00000180: b724 41be 0392 973d 3c5e a23e ebc9 a1bd
00000190: d998 373f 4314 583d 03a2 083f 879a abbe
000001a0: f558 f83e 1582 073f 0d38 633f b6d1 30be
000001b0: 5f1e 313e 61e4 27bd 98d9 89be 4c73 db3e
000001c0: 3dab d33c e9ad 23bd f40a 823c 25df 9cbe
000001d0: 7ea4 e7be 0fd7 193e 5a3d 70be c66d f43e
000001e0: 1416 67be 10b8 90bd 48fc c73d 3d18 f93d
000001f0: cc93 f63e e264 893e 42eb 493d 34e1 00be
00000200: 2abf 593e e666 84be e2de 87be 3311 c43c
00000210: 1e5a 97be b0cf ec3e 2451 5bbd 066b cb3d
00000220: 9d07 c83d 7f31 1cbf 44e9 dc3c c606 553f
00000230: 9eee d63d 1e50 c23e a140 1abf 78de 0fbe
00000240: 38f3 e43c aec2 74bd a467 6ebe 07e8 f0bd
00000250: 1a48 0a3e f78d c53e a961 343e d6c8 73be
00000260: c392 79bd 333d e93e ff3a 173e a3c2 9b3e
00000270: 2490 3cbe 6c36 31bd 8630 93bb 70a4 e23d
00000280: e56a 853e 9262 02bc 5862 e1bd f872 813d
00000290: 621b f7bd 0760 b4bc ea34 fb3d ef63 573d
000002a0: 47ca 5a3e c4de 00be 38c2 f9bc ad65 af3c
000002b0: 1cf8 68bd 925c ddbd e6b2 083e 081a c3bc
000002c0: f0c2 56be ce44 183e c069 bdbd dc14 de3b
000002d0: cdc9 a4bb d369 94bd cdda 283e 3f07 debd
000002e0: f7f8 99bd d385 d43e 2474 c3bd 9dec f9bd
000002f0: ee6c 0f3f 9b94 053e 38cd 7d3d c52b 583c
00000300: dd4f ba3e 3df3 5f3e 1733 bbbe cd99 06bf
00000310: 1f78 053f ce35 c43d ad36 013b efc2 0b3e
00000320: a095 04be 6d24 afbe c70f 1c3f d963 ffbe
00000330: c355 8c3e a7f0 193f 27a5 fe3e ab3c c83e
00000340: 568c 143e f173 303f dc8c 7c3e 4f66 1c3d
00000350: 0e18 3b3f efa5 0a3f 9659 163f 085d 1dbe
00000360: 1ba4 b6bd 9b15 27bd 4022 40bc 6801 7c3e
00000370: a092 023f a3f2 79be 9775 633f 36ad 31bb
00000380: 794c 84be 6cf3 d7bd b822 743e a7f9 a03f
00000390: d395 d33e 279d be3c 65d9 00be e15d 7b3d
000003a0: 7ed5 623e 30ca c03e 82c1 82be 63be c9be
000003b0: 6481 b9be 4956 80be 4197 b6bd 918e 343f
000003c0: 9a80 093d 4477 09bd e568 bfbd f959 5abe
000003d0: fede 61be ebcf e43e 92b6 d73e 91f1 853b
000003e0: bf74 fbbe ad79 2fbe 53a7 c539 00a3 833e
000003f0: 80a8 24be 2189 9a3e f062 123f 187d e23e
-0.037524246 -0.14444616 -0.064301215 -0.020899963 -0.061053928 -0.19110942 -0.077807084 -0.025037676
-0.20245574 -0.02205592 -0.13944016 -0.0048517464 -0.059582733 -0.2444923 0.0021828832 -0.065207854
-0.02245096 -0.010048297 -0.041003205 -0.11687727 -0.09702664 -0.10032589 -0.16577919 -0.22610922
-0.52606386 -0.010849964 -0.22514458 -0.097010046 -0.13086636 -0.0074002477 -0.06810065 -0.22485314
-0.1271096 -0.13635579 -0.09072316 -0.06953563 -0.107961416 -0.109439865 -0.05661271 -0.103479214
-0.3199442 -0.21138516 0.12803213 -0.0057105413 0.11290553 -0.23070268 -0.13936125 -0.09832307
-0.15097198 -0.17789584 -0.15623707 -0.06700021 -0.11329047 -0.13199797 -0.1215516 -0.13707092
-0.14737293 0.020331204 0.00226007 -0.036300056 -0.17072248 -0.119143344 -0.060229156 -0.14466801
-0.066836156 -0.053902984 -4.388527e-05 -0.023744447 -0.07814986 -0.1362713 -0.11327409 -0.044920422
-0.15222287 -0.18293223 -0.0013774858 -0.07163995 -0.10728181 -0.18247277 -0.08150025 -0.08820775
-0.16051424 -0.033220638 -0.033095215 -0.07236695 -0.032289077 -0.03929004 -0.061229207 -0.13463308
-0.0036913303 0.14884856 -0.105061814 -0.1171906 -0.17568532 -0.21521497 0.0033708801 -0.041503247
-0.18861662 0.074008964 0.3171252 -0.07899841 0.717176 0.052753698 0.5337221 -0.33516333
0.4850537 0.52932864 0.887574 -0.17267498 0.17296742 -0.040989283 -0.26923823 0.42861402
0.025838489 -0.039960776 0.015874363 -0.30638996 -0.45242685 0.15023445 -0.23460904 0.4774
-0.22567016 -0.07066357 0.09764916 0.12162826 0.48159635 0.2683478 0.049296625 -0.12585908
0.2126433 -0.25859755 -0.26537234 0.023933982 -0.2956094 0.46252203 -0.05354418 0.099325225
0.09767077 -0.61013025 0.026966698 0.8321346 0.10494731 0.3795175 -0.60254866 -0.14049709
0.027948007 -0.059755974 -0.23281723 -0.11763006 0.13504067 0.38584873 0.1761538 -0.23807082
-0.06093098 0.45554504 0.14768599 0.30421934 -0.1841436 -0.04326479 -0.0044918684 0.1106652
0.26058117 -0.007958071 -0.11005086 0.06320757 -0.1206577 -0.022018446 0.12265952 0.05258554
0.21366225 -0.12584978 -0.030488119 0.021410787 -0.05687724 -0.10808672 0.13349494 -0.023816124
-0.209728 0.14869997 -0.09248686 0.006777389 -0.0050289393 -0.07246747 0.16489716 -0.10841226
-0.075181894 0.4150835 -0.095436364 -0.122033335 0.5602559 0.1304497 0.06196329 0.013194029
0.36389056 0.21870132 -0.36562416 -0.5257843 0.52136415 0.09580575 0.0019716427 0.1364858
-0.12947702 -0.34207478 0.60961574 -0.49880865 0.2740918 0.6013283 0.49735376 0.39108786
0.14506659 0.6892691 0.24663109 0.038183507 0.7308358 0.54159445 0.5873045 -0.1536752
-0.089180194 -0.04079209 -0.011726916 0.24609911 0.5100498 -0.24408965 0.888513 -0.0027111298
-0.25839594 -0.10544476 0.23841369 1.2576188 0.41325244 0.023268295 -0.1258293 0.061368827
0.22151753 0.37654257 -0.2553826 -0.39403066 -0.3623153 -0.2506583 -0.08915568 0.7053004
0.03356991 -0.033561006 -0.09346179 -0.21323384 -0.22057721 0.4468988 0.42131478 0.004087635
-0.49112508 -0.1713626 0.00037699434 0.25710297 -0.16079903 0.30182746 0.57182217 0.44236064

sequential.2.bias f4 [20]
00000000: 5351 55bd 5292 76bf f924 723f 3f84 1bbe
00000010: 618f 82bf dc08 023f 0c59 be3d b804 98bd
00000020: 7852 2ebf dbbe 99be dbb9 313f f2be fe3e
00000030: 7f9e 033f 508a 5cbd 6007 a9be 30b7 2a3f
00000040: 77ca 413e 88c7 513f 70eb b5be 9532 c9be
-0.05207951 -0.9631702 0.94587666 -0.15187167 -1.0200006 0.5079477 0.09294328 -0.07422775
-0.6809459 -0.30028424 0.6942422 0.49755055 0.5141372 -0.053842843 -0.3301344 0.6668577
0.1892489 0.81945086 -0.35531187 -0.39296404

final_convolution.weight f4 [1, 21, 1, 1]
00000000: b20b 15bf 4b77 963d 14be 25be 72db 793e
00000010: c996 3bbb c932 14be 8a38 d7be 5e37 ffbe
00000020: 66ce 893e de83 7a3d 297a c6bd ad1c b0be
00000030: b27e c73d aca2 733e 4a93 b53c b333 1e3d
00000040: b131 96be dd0f 113e 6954 6f3e 8b73 963b
00000050: d09a d0bd
-0.5822097 0.07346972 -0.1618579 0.24400118 -0.002862381 -0.14472498 -0.42035323 -0.4984693
0.26915282 0.061160915 -0.09691269 -0.34396878 0.09740962 0.23792523 0.02216496 0.038623523
-0.29334787 0.14166208 0.23372044 0.0045914105 -0.10185778
