from_finrl-tutorials_git/data_1993_to_2024/train/v2_result/eiie_20250103_092947_turbulence_ep500_deficit/checkpoint-436/policy_EIIE_436.pt (torch, 10968 bytes, 5 tensors)

sequential.0.weight f4 [2, 9, 1, 3]
0.030486396 -0.05866689 0.0015488423 -0.07897652 0.089632615 -0.023517482 0.007932076 0.12306381
-0.03561949 0.10299502 0.13531047 -0.033727705 -0.05610702 0.021273315 0.034140147 -0.061530836
-0.050552517 0.005740024 -0.008533047 -0.028574735 -0.061540633 -0.039558154 -0.053449027 -0.05226691
0.0234321 0.03871246 -0.0099802995 -0.005555198 -0.06246898 0.0049524526 -0.005967129 0.024436148
-0.06284801 -0.03323636 -0.050983682 -0.036650628 -0.004954643 -0.062230766 -0.018332146 -0.05530398
0.03546928 -0.0044428585 0.023616485 -0.030723127 -0.002784213 -0.03535476 0.022925429 -0.046423964
0.021859583 -0.07061772 0.027676165 -0.022892555 0.030517682 -0.06916107
00000000: 9bbe f93c b14c 70bd 8602 cb3a 71be a1bd
00000010: 4e91 b73d bca7 c0bc 8af5 013c e108 fc3d
00000020: bee5 11bd 0eef d23d d48e 0a3e 1026 0abd
00000030: 79d0 65bd 6045 ae3c 8ad6 0b3d c207 7cbd
00000040: 2810 4fbd d016 bc3b 31ce 0bbc 9015 eabc
00000050: 0812 7cbd bb07 22bd 5eed 5abd d415 56bd
00000060: adf4 bf3c f590 1e3d 6984 23bc 6108 b6bb
00000070: 79df 7fbd 2f48 a23b e887 c3bb 512e c83c
00000080: 75b6 80bd d922 08bd 44d4 50bd f81e 16bd
00000090: 8f5a a2bb b0e5 7ebd 4c2d 96bc 6d86 62bd
000000a0: 3c48 113d 6695 91bb 5c77 c13c 11af fbbc
000000b0: 5877 36bb 27d0 10bd 1cce bb3c 0e27 3ebd
000000c0: de12 b33c 06a0 90bd 20b9 e23c 2b89 bbbc
000000d0: 3800 fa3c 52a4 8dbd

sequential.0.bias f4 [2]
-0.022461 0.013850284
00000000: 2200 b8bc 4dec 623c

sequential.2.weight f4 [20, 2, 1, 48]
-0.06523274 -0.075906664 -0.06674158 -0.04953764 -0.049417403 -0.02209459 -0.020460991 -0.049752377
0.03853008 -0.038490444 -0.049278297 -0.0050444095 -0.016256385 -0.024620958 0.047348056 -0.056539305
0.07693102 -0.047152128 -0.04090658 -0.027619284 -0.068788014 -0.055211496 -0.04943887 -0.022399079
-0.023437561 -0.07479073 -0.02728611 0.050192658 -0.04125802 -0.03954073 -0.039258353 -0.040370926
-0.067592226 -0.04646978 0.063554935 0.050810996 -0.06090178 -0.015494181 -0.05672358 -0.045848776
0.043357894 -0.06112656 -0.059189934 -0.021544661 -0.059986252 -0.019214151 -0.038475513 -0.051654357
-0.02348515 0.02545505 0.03648951 -0.03596502 -0.00013172974 -0.051554754 -0.023692893 -0.02652955
-0.007959986 0.0059907003 -0.03945896 0.0056088166 -0.0060654576 -0.032691933 0.0111795245 0.024030594
0.062049754 -0.035612445 0.045343682 -0.0039456026 0.027169386 -0.0044313087 0.039656423 0.015072277
0.0111971935 0.027092565 0.032007817 0.024045764 -0.0098456275 -0.03934095 0.010405723 0.004080365
0.0018325478 -0.0048329006 -0.04181043 0.043881312 -0.0027450393 0.03289322 -0.01762901 0.03852105
-0.005937629 0.022613518 0.0035568548 -0.02547796 -0.013091911 0.04456923 -0.038308848 -0.007330663
0.015852867 0.013457761 -0.019252868 0.052011993 0.01802216 0.033583757 -0.018484086 -0.030914417
-0.009166259 0.04742608 0.053175658 0.06884636 0.041951284 0.08567233 -0.018990232 0.028210076
-0.036784653 -0.024973156 0.044087928 0.060040563 0.0383433 0.032759454 0.06681541 0.060937893
0.054651886 0.041737482 -0.01839403 -0.013651414 0.06544321 0.02679893 -0.008077098 0.052898727
-0.026902357 -0.029675217 -0.03720488 -0.045551147 -0.06858796 0.0016782884 0.0086837895 -0.0037360878
-0.037074048 -0.066328645 0.07632766 0.09263311 -0.024517793 -0.023006784 0.073929764 0.033421103
0.0050804703 0.0026492234 -0.05105821 0.017396992 0.00010883172 0.013573757 0.013556506 0.029862707
0.00831819 0.004912402 0.045027006 -0.0015112465 -0.0039656144 0.074719675 0.009040376 -0.018999232
-0.03828422 0.028613267 -0.012392295 0.04148498 0.009877335 -0.0013888612 -0.040877406 -0.009782112
0.00087458815 -0.018083498 0.02997056 -0.003329879 -0.008310442 -0.010579434 0.044010356 0.044004314
-0.010103732 -0.016268587 0.034087136 -0.07919137 0.045802366 0.01829703 0.042700768 -0.014719222
-0.027573427 0.03055541 0.045241658 0.019844951 -0.0026410671 -0.032063127 0.06301553 0.0019183825
-0.049990565 -0.049357507 -0.05257183 -0.026381114 -0.03261837 -0.063007824 -0.042162642 0.051791314
-0.049490895 -0.054854494 -0.016653135 0.01091394 0.0055154483 -0.048578545 0.012745661 -0.04423481
-0.033009667 0.010852182 0.047032602 0.0055264607 0.0038862005 -0.02142468 -0.06230171 -0.022716697
-0.01524838 -0.053500663 -0.018670771 -0.031257704 -0.06105426 -0.02533051 -0.055229973 -0.027493166
-0.052411865 -0.023061095 -0.07511346 -0.055343024 -0.056684945 -0.021807939 -0.03561813 -0.032763816
0.05140963 -0.04056484 -0.05571712 0.043654922 0.029269703 -0.012402643 -0.05377668 0.009158682
0.021217149 0.024908701 0.00777591 -0.0029870146 -0.023637518 -0.01738612 0.011769134 0.06885279
0.040516865 -0.04999987 -0.026277743 0.0053907875 0.013242808 -0.058415394 0.032468032 0.021131538
00000000: be98 85bd f474 9bbd cfaf 88bd fbe7 4abd
00000010: e769 4abd b7ff b4bc cf9d a7bc 26c9 4bbd
00000020: b8d1 1d3d 28a8 1dbd 0ad8 49bd 934b a5bb
00000030: 1c2c 85bc e4b1 c9bc 09f0 413d c295 67bd
00000040: 038e 9d3d 9722 41bd a88d 27bd d641 e2bc
00000050: bbe0 8cbd 7325 62bd 6a80 4abd 467e b7bc
00000060: 2100 c0bc e22b 99bd 1f87 dfbc d196 4d3d
00000070: 2bfe 28bd 76f5 21bd 5ecd 20bd fc5b 25bd
00000080: cb6d 8abd 1957 3ebd 1729 823d 311f 503d
00000090: 2574 79bd 4edb 7dbc fc56 68bd edcb 3bbd
000000a0: 0c98 313d d85f 7abd 2571 72bd 6e7e b0bc
000000b0: 25b4 75bd ff66 9dbc 8098 1dbd 8593 53bd
000000c0: ee63 c0bc 1c87 d03c 0676 153d 0f50 13bd
000000d0: ef20 0ab9 142b 53bd 9917 c2bc 8054 d9bc
000000e0: 9a6a 02bc a34d c43b b89f 21bd 2aca b73b
000000f0: bfc0 c6bb fae7 05bd 532a 373c cfdb c43c
00000100: e227 7e3d 5bde 11bd 4cba 393d 1d4a 81bb
00000110: 5592 de3c 8334 91bb c66e 223d b6f1 763c
00000120: 6f74 373c 3af1 dd3c a11a 033d 9ffb c43c
00000130: 8e4f 21bc fa23 21bd c47c 2a3c 95b4 853b
00000140: 1a32 f03a 4f5d 9ebb 6a41 2bbd e4bc 333d
00000150: 1ee6 33bb 0bbb 063d b76a 90bc 40c8 1d3d
00000160: 7190 c2bb fc3f b93c 1f1a 693b 28b7 d0bc
00000170: 747f 56bc 3a8e 363d bde9 1cbd 0f36 f0bb
00000180: dfdd 813c f17d 5c3c 31b8 9dbc 870a 553d
00000190: 35a3 933c 1f8f 093d f06b 97bc 3b40 fdbc
000001a0: 142e 16bc d941 423d b8ce 593d 52ff 8c3d
000001b0: 1cd5 2b3d f974 af3d 6791 9bbc d118 e73c
000001c0: 81ab 16bd 8194 ccbc 8b95 343d 18ed 753d
000001d0: dd0d 1d3d c72e 063d 85d6 883d 039a 793d
000001e0: a8da 5f3d ecf4 2a3d 14af 96bc 2eaa 5fbc
000001f0: 1707 863d 6e89 db3c ce55 04bc 56ac 583d
00000200: 5562 dcbc 7119 f3bc 2564 18bd d793 3abd
00000210: d877 8cbd 04fa db3a 7446 0e3c 27d9 74bb
00000220: f5da 17bd 50d7 87bd ad51 9c3d 6eb6 bd3d
00000230: 8ad9 c8bc b978 bcbc 7d68 973d 91e4 083d
00000240: 137a a63b 989e 2d3b 6a22 51bd 2384 8e3c
00000250: 963c e438 7764 5e3c 1b1c 5e3c a3a2 f43c
00000260: 0549 083c 37f8 a03b 3d6e 383d 0515 c6ba
00000270: fcf1 81bb a106 993d 161e 143c 47a4 9bbc
00000280: eacf 1cbd 5f66 ea3c 0d09 4bbc 28ec 293d
00000290: 8cd4 213c 730a b6ba 116f 27bd 2745 20bc
000002a0: 9e44 653a d823 94bc d284 f53c 193a 5abb
000002b0: 8528 08bc 5d55 2dbc 3444 343d de3d 343d
000002c0: 208a 25bc b345 85bc f49e 0b3d 162f a2bd
000002d0: 439b 3b3d a7e3 953c 00e7 2e3d e428 71bc
000002e0: abe1 e1bc 574f fa3c 514f 393d e191 a23c
000002f0: c115 2dbb a054 03bd 490e 813d 3c72 fb3a
00000300: e8c2 4cbd 192b 4abd 8f55 57bd 351d d8bc
00000310: d79a 05bd 3f0a 81bd bcb2 2cbd 2123 543d
00000320: f7b6 4abd 1baf 60bd 286c 88bc 62d0 323c
00000330: efba b43b 4cfa 46bd 2dd3 503c 8f2f 35bd
00000340: 2535 07bd 5acd 313c 42a5 403d 5017 b53b
00000350: a0af 7e3b cf82 afbc 1430 7fbd 5e18 babc
00000360: 57d4 79bc 8323 5bbd 72f3 98bc 1408 00bd
00000370: 0814 7abd ee81 cfbc d338 62bd 5939 e1bc
00000380: d3ad 56bd 9fea bcbc 16d5 99bd 5eaf 62bd
00000390: 792e 68bd 90a6 b2bc 51e4 11bd 5a33 06bd
000003a0: e792 523d 5127 26bd a337 64bd 81cf 323d
000003b0: 04c7 ef3c 7534 4bbc f044 5cbd 4c0e 163c
000003c0: 96cf ad3c 550d cc3c 10cd fe3b cac1 43bb
000003d0: 78a3 c1bc 566d 8ebc 53d3 403c b102 8d3d
000003e0: 03f5 253d aacc 4cbd 6c44 d7bc 34a5 b03b
000003f0: 5df8 583c fb44 6fbd 33fd 043d 0c1c ad3c

sequential.2.bias f4 [20]
0.017987564 0.04358298 0.009206322 0.00089983863 0.004632187 -0.00078929006 0.058448493 -0.0052487683
0.06040936 0.037588283 0.009549844 -0.00347983 0.033707693 -0.021875996 0.008965121 0.0046924804
0.014327807 -0.033505578 0.008476771 0.007617303
00000000: a85a 933c 1184 323d 1dd6 163c 26e3 6b3a
00000010: 9ac9 973b 5ce8 4eba b067 6f3d dcfd abbb
00000020: ce6f 773d 2cf6 193d f376 1c3c dc0d 64bb
00000030: 1411 0a3d 4a35 b3bc 71e2 123c 61c3 993b
00000040: 2ebf 6a3c 253d 09bd 28e2 0a3c 929a f93b

final_convolution.weight f4 [1, 21, 1, 1]
0.035935212 -0.047336545 0.040437624 -0.041013513 0.008585482 0.04366391 -0.045153234 0.0272724
-0.0942677 0.018919097 -0.06207887 -0.056654084 -0.061183825 0.07803992 0.04337739 -0.062262684
-0.032197077 0.016304856 0.0023996392 -0.018393677 -0.00078403106
00000000: cd30 133d f7e3 41bd eca1 253d c9fd 27bd
00000010: 1faa 0c3c eed8 323d 99f2 38bd 5e6a df3c
00000020: 6d0f c1bd 39fc 9a3c 6a46 7ebd 1d0e 68bd
00000030: e49b 7abd 65d3 9f3d 7dac 313d 2807 7fbd
00000040: 15e1 03bd c391 853c 4443 1d3b 56ae 96bc
00000050: 6f87 4dba
