from_finrl-tutorials_git/data_1993_to_2024/train/v2_result/eiie_20250103_092947_turbulence_ep500_deficit/checkpoint-479/policy_EIIE_479.pt (torch, 10968 bytes, 5 tensors)

sequential.0.weight f4 [2, 9, 1, 3]
0.0269115 -0.05178749 0.0013672215 -0.069715574 0.07912211 -0.020759773 0.0070019444 0.10863307
-0.03144268 0.09091755 0.11944364 -0.029772742 -0.04952781 0.018778753 0.0301368 -0.054315593
-0.044624638 0.005066935 -0.0075324452 -0.025224004 -0.054324254 -0.034919478 -0.04718149 -0.046137985
0.020684402 0.034172963 -0.008809989 -0.004903785 -0.055143762 0.0043717185 -0.0052674115 0.02157072
-0.055478316 -0.029338995 -0.045005243 -0.032352883 -0.0043736524 -0.054933455 -0.016182482 -0.048818916
0.03131008 -0.0039218795 0.020847168 -0.027120471 -0.0024577312 -0.03120898 0.020237142 -0.04098017
0.019296274 -0.06233693 0.024430798 -0.020208133 0.02693911 -0.0610511
00000000: 8275 dc3c 1e1f 54bd 5734 b33a 0ac7 8ebd
00000010: c60a a23d 6610 aabc 9170 e53b 047b de3d
00000020: 0aca 00bd fb32 ba3d de9e f43d f7e5 f3bc
00000030: acdd 4abd e6d5 993c 73e1 f63c 077a 5ebd
00000040: 53c8 36bd 8808 a63b bbd2 f6bb 92a2 cebc
00000050: 1c83 5ebd ba07 0fbd 6141 41bd 2ffb 3cbd
00000060: 5672 a93c f3f8 0b3d c657 10bc eeaf a0bb
00000070: 6dde 61bd a240 8f3b 409a acbb 14b5 b03c
00000080: 3b3d 63bd 5558 f0bc 6b57 38bd 7584 04bd
00000090: db50 8fbb e701 61bd 2091 84bc 58f6 47bd
000000a0: 003f 003d 1c83 80bb aec7 aa3c c02b debc
000000b0: e311 21bb faa9 ffbc 5dc8 a53c d3da 27bd
000000c0: 3813 9e3c 0255 7fbd 1923 c83c 878b a5bc
000000d0: 69af dc3c b810 7abd

sequential.0.bias f4 [2]
-0.019827181 0.012226163
00000000: 9d6c a2bc 3f50 483c

sequential.2.weight f4 [20, 2, 1, 48]
-0.057583433 -0.067005694 -0.058915317 -0.043728743 -0.04362262 -0.019503737 -0.018061696 -0.04391831
0.034011975 -0.03397698 -0.04349982 -0.004452893 -0.014350128 -0.021733848 0.04179591 -0.04990938
0.067909956 -0.041622974 -0.03610977 -0.024380598 -0.060721785 -0.04873729 -0.04364156 -0.01977252
-0.020689232 -0.06602061 -0.024086487 0.044306964 -0.036420025 -0.034904104 -0.03465485 -0.035636947
-0.059666235 -0.041020613 0.05610233 0.04485281 -0.053760316 -0.013677303 -0.050072066 -0.040472455
0.038273644 -0.053958725 -0.052249208 -0.019018287 -0.052952114 -0.016961064 -0.03396379 -0.045597266
-0.020731218 0.022470137 0.032210663 -0.031747695 -0.000116282805 -0.045509327 -0.020914603 -0.023418639
-0.0070265844 0.0052882186 -0.034831937 0.004951115 -0.0053542107 -0.028858412 0.009868593 0.021212725
0.054773685 -0.031436466 0.040026598 -0.0034829322 0.02398345 -0.0039116833 0.035006236 0.01330487
0.009884192 0.023915624 0.02825452 0.021226114 -0.008691109 -0.034727763 0.009185531 0.0036018935
0.0016176596 -0.004266183 -0.03690767 0.038735684 -0.00242315 0.029036082 -0.015561801 0.03400399
-0.0052413717 0.019961804 0.0031397718 -0.02249036 -0.011556727 0.03934296 -0.03381666 -0.006471053
0.013993926 0.011879681 -0.016995234 0.045912966 0.015908845 0.029645657 -0.016316604 -0.027289325
-0.008091402 0.041864812 0.046940148 0.0607733 0.03703198 0.07562617 -0.016763391 0.024902102
-0.032471225 -0.02204475 0.038918078 0.05300007 0.033847068 0.028918015 0.05898049 0.053792186
0.048243295 0.03684323 -0.01623711 -0.012050623 0.05776921 0.023656426 -0.0071299635 0.046695717
-0.023747738 -0.02619545 -0.032842148 -0.04020973 -0.060545206 0.0014814887 0.0076655126 -0.0032979855
-0.03272666 -0.058550797 0.06737732 0.081770726 -0.021642784 -0.020308962 0.06526063 0.029502075
0.0044847247 0.0023385705 -0.045071032 0.015356988 9.6069896e-05 0.011982071 0.011966846 0.026360948
0.007342782 0.004336363 0.039747056 -0.0013340353 -0.0035005985 0.065957904 0.007980284 -0.016771343
-0.03379493 0.025258008 -0.01093915 0.036620375 0.008719101 -0.0012259999 -0.03608404 -0.008635043
0.00077203225 -0.015962994 0.026456153 -0.002939411 -0.0073359446 -0.009338864 0.038849622 0.038844265
-0.008918945 -0.014360898 0.03009001 -0.06990524 0.04043149 0.01615149 0.03769359 -0.012993216
-0.024340095 0.026972413 0.039936516 0.01751789 -0.0023313698 -0.028303342 0.055626217 0.0016934288
-0.04412855 -0.04356975 -0.04640716 -0.023287611 -0.028793471 -0.055619404 -0.03721857 0.04571816
-0.043687493 -0.048422147 -0.014700355 0.009634151 0.004868695 -0.042882126 0.011251079 -0.039047725
-0.029138895 0.009579637 0.041517466 0.004878414 0.003430496 -0.018912373 -0.05499606 -0.020052891
-0.013460322 -0.047227036 -0.016481403 -0.02759236 -0.053894922 -0.022360202 -0.048753567 -0.024269262
-0.046265915 -0.020356905 -0.06630552 -0.04885338 -0.050037917 -0.019250697 -0.03144147 -0.02892188
0.045381222 -0.035808116 -0.049183622 0.03853584 0.02583748 -0.0109482845 -0.047470707 0.008084717
0.018729186 0.021987855 0.0068640923 -0.0026367519 -0.02086573 -0.015347386 0.010389063 0.06077898
0.035765775 -0.044136785 -0.023196358 0.004758654 0.011689929 -0.051565483 0.028660756 0.018653613
00000000: 9bdc 6bbd 483a 89bd 3051 71bd e91c 33bd
00000010: a2ad 32bd 4dc6 9fbc 1ff6 93bc b0e3 33bd
00000020: 2450 0b3d 722b 0bbd de2c 32bd 93e9 91bb
00000030: cd1c 6bbc 2f0b b2bc 3032 2b3d c76d 4cbd
00000040: 6014 8b3d da7c 2abd d7e7 13bd d2b9 c7bc
00000050: 68b7 78bd c1a0 47bd 7ec1 32bd fbf9 a1bc
00000060: 777c a9bc d035 87bd 0651 c5bc 387b 353d
00000070: 2a2d 15bd 9bf7 0ebd 3ef2 0dbd 0cf8 11bd
00000080: 9564 74bd 3b05 28bd 8fcb 653d 95b7 373d
00000090: c733 5cbd c416 60bc 5e18 4dbd 72c6 25bd
000000a0: d3c4 1c3d d303 5dbd 4403 56bd 3dcc 9bbc
000000b0: 51e4 58bd eef1 8abc 9d1d 0bbd 33c4 3abd
000000c0: 84d4 a9bc 4b13 b83c 54ef 033d df09 02bd
000000d0: dbdc f3b8 fd67 3abd 1a55 abbc 72d8 bfbc
000000e0: 433f e6bb cb48 ad3b efab 0ebd f73c a23b
000000f0: 6072 afbb 7a68 ecbc e1af 213c 4fc6 ad3c
00000100: 5f5a 603d 86c3 00bd eef2 233d e841 64bb
00000110: f178 c43c 942d 80bb b362 0f3d abfc 593c
00000120: 4ef1 213c b3ea c33c 0676 e73c 63e2 ad3c
00000130: 2765 0ebc b33e 0ebd e97e 163c bf0d 6c3b
00000140: a607 d43a 56cb 8bbb 7f2c 17bd 4fa9 1e3d
00000150: b6cd 1ebb 14dd ed3c edf6 7ebc c547 0b3d
00000160: d0bf abbb f086 a33c a1c4 4d3b b43d b8bc
00000170: 6d58 3dbc 1526 213d 5783 0abd 210b d4bb
00000180: c846 653c fea2 423c 9739 8bbc 3c0f 3c3d
00000190: 4453 823c 73db f23c 66aa 85bc dd8d dfbc
000001a0: cd91 04bc 707a 2b3d 5044 403d 6ced 783d
000001b0: d8ae 173d e5e1 9a3d 6153 89bc 7eff cb3c
000001c0: 8c00 05bd 3197 b4bc 9068 1f3d 9a16 593d
000001d0: 39a3 0a3d 79e5 ec3c 8795 713d 3255 5c3d
000001e0: c39a 453d ede8 163d b003 85bc fa6f 45bc
000001f0: 689f 6c3d 1fcb c13c 78a2 e9bb 0244 3f3d
00000200: 9e8a c2bc d797 d6bc 7d85 06bd f5b2 24bd
00000210: 40fe 77bd 832e c23a fb2e fb3b 0423 58bb
00000220: 640c 06bd f6d2 6fbd 1ffd 893d 6977 a73d
00000230: 354c b1bc fb5e a6bc 5da7 853d 56ae f13c
00000240: 99f4 923b b442 193b 679c 38bd e09b 7b3c
00000250: 2279 c938 7350 443c 9710 443c eaf2 d73c
00000260: b89b f03b 0d18 8e3b cfcd 223d ccda aeba
00000270: 4c6a 65bb f014 873d bdbf 023c 0e64 89bc
00000280: 8d6c 0abd e2e9 ce3c 1f3a 33bc 3fff 153d
00000290: 8fda 0e3c bbb1 a0ba dccc 13bd ff79 0dbc
000002a0: 3562 4a3a d3c4 82bc 93ba d83c 22a3 40bb
000002b0: 5d62 f0bb 0902 19bc c820 1f3d 2a1b 1f3d
000002c0: c420 12bc f949 6bbc 537f f63c 7a2a 8fbd
000002d0: 7d9b 253d 2150 843c 9864 1a3d 7fe1 54bc
000002e0: e164 c7bc 40f5 dc3c 7994 233d ae81 8f3c
000002f0: e5c9 18bb 69dc e7bc 51d8 633d 0bf6 dd3a
00000300: 23c0 34bd 3276 32bd 6f15 3ebd a9c5 bebc
00000310: 49e0 ebbc 2cd1 63bd 8072 18bd f742 3b3d
00000320: a8f1 32bd 4d56 46bd c2d9 70bc 8fd8 1d3c
00000330: 9389 9f3b 2ba5 2fbd 7256 383c 82f0 1fbd
00000340: b1b4 eebc e9f3 1c3c 380e 2a3d 1adb 9f3b
00000350: 2cd2 603b 1fee 9abc 8c43 61bd f645 a4bc
00000360: af88 5cbc 2371 41bd 0204 87bc 5f09 e2bc
00000370: ecc0 5cbd be2c b7bc d2b1 47bd 55d0 c6bc
00000380: 5481 3dbd 86c3 a6bc 30cb 87bd 7b1a 48bd
00000390: 8ff4 4cbd a3b3 9dbc c5c8 00bd 94ed ecbc
000003a0: a9e1 393d 88ab 12bd c474 49bd c2d7 1d3d
000003b0: 1fa9 d33c 6f60 33bc a570 42bd c375 043c
000003c0: f36d 993c e01f b43c 2eec e03b 5bcd 2cbb
000003d0: 9bee aabc 9a73 7bbc e336 2a3c 61f3 783d
000003e0: 227f 123d c6c8 34bd 4a06 bebc 7cee 9b3b
000003f0: 1e87 3f3c 5436 53bd f6c9 ea3c 76cf 983c

sequential.2.bias f4 [20]
0.015878296 0.03847236 0.008126776 0.0007943217 0.004089006 -0.0006967363 0.051594704 -0.0046332874
0.053325627 0.033180613 0.00843001 -0.0030717782 0.029755065 -0.019310778 0.007913851 0.004142231
0.0126477005 -0.02957665 0.0074827694 0.0067240833
00000000: 3313 823c 3195 1d3d 2b26 053c 073a 503a
00000010: 12fd 853b 2ea5 36ba f854 533d d5d2 97bb
00000020: f96b 5a3d 65e8 073d 061e 0a3c e34f 49bb
00000030: e5c0 f33c a331 9ebc 19a9 013c 8dbb 873b
00000040: 4d38 4f3c bb4a f2bc 0532 f53b b355 dc3b

final_convolution.weight f4 [1, 21, 1, 1]
0.03172136 -0.041785758 0.035695825 -0.03620417 0.0075787306 0.038543798 -0.039858483 0.024074383
-0.08321369 0.016700607 -0.054799367 -0.050010733 -0.054009277 0.06888877 0.038290873 -0.054961644
-0.028421585 0.014392921 0.0021182527 -0.0162368 -0.00069209404
00000000: 42ee 013d 8b27 2bbd c935 123d d34a 14bd
00000010: 0057 f83b 1ae0 1d3d a642 23bd a437 c53c
00000020: f06b aabd b6cf 883c 4d75 60bd 0ed8 4cbd
00000030: d538 5dbd 8e15 8d3d e4d6 1c3d 761f 61bd
00000040: 62d4 e8bc 49d0 6b3c 62d2 0a3b 0a03 85bc
00000050: a56d 35ba
