from_finrl-tutorials_git/data_1993_to_2024/train/v2_result/eiie_20250107_162317_portfolio_freeze/checkpoint-2/policy_EIIE_2.pt (torch, 10948 bytes, 5 tensors)

sequential.0.weight f4 [2, 9, 1, 3]
0.2584263 0.22956932 0.07902948 0.093483366 0.10011231 0.12834089 0.034896452 0.069126286
-0.026520686 -0.047770336 0.2957723 -0.019095799 0.17304216 0.29116458 0.09677798 0.12764294
0.22695093 -0.1127369 -0.044450898 0.2421493 -0.028506598 0.22464155 -0.08808615 0.09754444
0.092638485 0.16241634 0.08841855 -0.26220435 -0.10271849 -0.14801976 0.1224926 -0.10171576
-0.19890562 0.18805793 -0.06653225 -0.05906383 -0.20974526 -0.2584804 -0.21376407 -0.011821499
0.051470987 0.09688973 -0.13385202 -0.045049563 -0.16865759 0.16666517 -0.2052432 -0.0103215845
0.032109067 -0.007412749 -0.059515577 0.085817516 0.06185259 -0.18254007
00000000: 7450 843e 3814 6b3e 35da a13d 3574 bf3d
00000010: af07 cd3d cb6b 033e 95ef 0e3d 1592 8d3d
00000020: e941 d9bc d4aa 43bd 786f 973e cb6e 9cbc
00000030: f731 313e 8613 953e 8933 c63d d5b4 023e
00000040: d365 683e 9be2 e6bd 2512 36bd fcf5 773e
00000050: ab86 e9bc 6f08 663e 8366 b4bd 61c5 c73d
00000060: 3fb9 bd3d 7850 263e c914 b53d a63f 86be
00000070: 125e d2bd 7e92 17be 66dd fa3d 5a50 d0bd
00000080: eaad 4bbe 4292 403e 0f42 88bd eaec 71bd
00000090: 76c7 56be 8b57 84be f8e4 5abe f6ae 41bc
000000a0: 3ed3 523d 1f6e c63d 8110 09be e485 38bd
000000b0: 93b4 2cbe 46aa 2a3e 462b 52be dd1b 29bc
000000c0: cc84 033d a5e6 f2bb 9bc6 73bd 18c1 af3d
000000d0: 2459 7d3d c9eb 3abe

sequential.0.bias f4 [2]
0.18428263 0.091153495
00000000: 96b4 3c3e afae ba3d

sequential.2.weight f4 [20, 2, 1, 48]
-0.1918036 0.013806306 -0.087677434 -0.08415105 -0.0032794804 -0.085119665 0.15259537 -0.06296643
-0.01623017 -0.1437482 -0.0026023851 0.048878185 -0.16692148 0.104287975 -0.16723469 -0.12953198
-0.06900887 -0.034903236 0.07334514 -0.16944648 0.04838068 0.11365151 -0.13757336 -0.051911008
-0.07073952 0.10019919 -0.17736025 -0.04053713 0.059331603 0.08425793 -0.020677295 -0.017957827
-0.0866839 -0.06614939 -0.17167829 -0.15766202 -0.105327785 -0.21349882 0.049841173 -0.101931766
-0.04376446 -0.0056703617 0.0027462046 0.018742269 -0.038194697 0.023818966 -0.027751178 0.092647016
-0.052992485 -0.07491573 -0.014600082 0.095298715 -0.009074063 -0.09601705 -0.018176464 -0.017429758
0.027292315 0.07141631 0.04662126 -0.06353765 -0.06322972 -0.002062177 -0.11853392 0.03471861
0.015718672 -0.062637076 -0.062041454 -0.0073470683 -0.11678101 -0.074433915 -0.025146069 -0.021637313
0.11302239 0.058041215 -0.10216064 0.049016286 -0.118056215 -0.0749608 -0.05164895 -0.11548222
0.027463194 -0.10149164 0.012266134 -0.13637377 0.007395449 0.046983514 -0.16835266 -0.09614454
-0.043131296 0.06474257 0.05349529 -0.039736737 -0.08151547 -0.15792084 -0.05962121 -0.030100353
-0.10949587 0.07792509 0.054681968 -0.15589944 -0.042965695 0.14832076 0.09204863 0.11418187
0.012620588 -0.15600996 -0.049272332 -0.18070902 0.10963413 -0.09624546 -0.045209177 -0.011114505
0.17334415 -0.0614324 -0.16938837 -0.01513826 0.054900277 -0.19577229 0.03683081 0.039478377
-0.027791103 -0.11599729 0.12774265 -0.0508123 -0.15458347 -0.0023952697 -0.035825603 -0.09470025
0.101813644 -0.09482604 -0.15456152 0.08040291 0.011730194 -0.064967155 -0.17515634 -0.09799587
0.025136845 -0.05598324 0.032384872 -0.07484873 0.013561134 -0.18786687 -0.13923243 -0.20816158
-0.13281119 -0.02431525 -0.103606895 0.03152864 0.063352875 0.05823606 -0.08024227 -0.03783664
-0.19015044 0.09540067 -0.035823733 -0.059009235 -0.06256008 -0.019432163 -0.07764824 -0.04101972
-0.009655681 0.09822971 0.0408502 -0.063292496 -0.12501065 0.092260145 0.12478116 0.052194312
0.1361154 -0.06766266 0.059713274 0.078331836 0.022167357 -0.031627856 0.010670698 0.00416385
-0.07972332 -0.012032794 0.048860345 -0.0012194079 -0.10261386 -0.013286518 -0.09585756 -0.12536256
-0.07952849 -0.038671855 -0.047159243 -0.02083089 -0.09333049 -0.068282835 -0.056775875 0.050989777
-0.005672049 0.015416634 -0.13620926 0.10927199 0.095262 -0.0414913 -0.100743964 0.1957416
0.04252401 0.07435301 0.034628987 0.01747086 -0.06272489 0.020998808 0.067608334 -0.002347781
0.088495545 -0.011299871 -0.021076517 -0.11534146 -0.056349654 -0.053543765 0.06618232 0.12693033
0.042890657 0.03991997 0.10511506 -0.029454922 -0.036517374 -0.028037062 -0.05033519 0.07162347
-0.074052855 0.08280911 -0.043130394 -0.049047068 -0.03813681 0.036363937 0.050858714 -0.12100459
0.13142702 0.015336855 0.1192262 -0.20454064 0.067543715 0.0081273075 -0.109686546 0.039119523
0.13804467 -0.027750507 0.12995745 -0.024518287 0.025002796 0.12487147 0.024652204 0.20231916
0.13717738 -0.004811068 -0.022435898 0.07656502 -0.105220534 0.057307392 0.09174833 0.025982445
00000000: 2a68 44be d833 623c 3a90 b3bd 6357 acbd
00000010: 8dec 56bb 3853 aebd f641 1c3e 8bf4 80bd
00000020: 22f5 84bc ba32 13be c78c 2abb 7e34 483d
00000030: 77ed 2abe ef94 d53d 923f 2bbe 08a4 04be
00000040: 8654 8dbd b2f6 0ebd fa35 963d 6183 2dbe
00000050: d22a 463d 1fc2 e83d 08e0 0cbe a3a0 54bd
00000060: e2df 90bd 3c35 cd3d ed9d 35be 430a 26bd
00000070: b205 733d 6c8f ac3d 6e63 a9bc 4b1c 93bc
00000080: 5487 b1bd 5579 87bd 6fcc 2fbe 2772 21be
00000090: 18b6 d7bd 6f9f 5abe 4226 4c3d 9ac1 d0bd
000000a0: 5d42 33bd 71ce b9bb abf9 333b 6389 993c
000000b0: 0b72 1cbd fe1f c33c 7056 e3bc b8bd bd3d
000000c0: a60e 59bd 6b6d 99bd 2f35 6fbc f92b c33d
000000d0: 61ab 14bc 96a4 c4bd cfe6 94bc dac8 8ebc
000000e0: 2294 df3c b742 923d eff5 3e3d 0720 82bd
000000f0: 957e 81bd 9725 07bb e9c1 f2bd 1a35 0e3d
00000100: 72c4 803c de47 80bd 2e1f 7ebd adbf f0bb
00000110: e22a efbd cf70 98bd 21ff cdbc bc40 b1bc
00000120: 4878 e73d a0bc 6d3d 9939 d1bd 4dc5 483d
00000130: 75c7 f1bd 0c85 99bd d98d 53bd f181 ecbd
00000140: 7efa e03c d9da cfbd e5f7 483c 91a5 0bbe
00000150: 8655 f23b c971 403d a464 2cbe 6ee7 c4bd
00000160: 71aa 30bd c197 843d e11d 5b3d fdc2 22bd
00000170: 95f1 a6bd 00b6 21be 5f35 74bd 0495 f6bc
00000180: 5f3f e0bd 3197 9f3d 33fa 5f3d 1aa4 1fbe
00000190: ccfc 2fbd 66e1 173e fe83 bc3d 2fd8 e93d
000001a0: 95c6 4e3c 13c1 1fbe c9d1 49bd c90b 39be
000001b0: dc87 e03d 571c c5bd 422d 39bd 9d19 36bc
000001c0: 2181 313e 8aa0 7bbd 2574 2dbe 7706 78bc
000001d0: 1ddf 603d 8878 48be e7db 163d 14b4 213d
000001e0: 2baa e3bc fd8f edbd f8ce 023e 8f20 50bd
000001f0: 214b 1ebe f5f9 1cbb debd 12bd 34f2 c1bd
00000200: ac83 d03d 2834 c2bd 6045 1ebe 48aa a43d
00000210: 0030 403c 800d 85bd 2f5c 33be 0fb2 c8bd
00000220: c9eb cd3c af4e 65bd 00a6 043d 4a4a 99bd
00000230: 852f 5e3c 2c60 40be f292 0ebe 4f28 55be
00000240: a8ff 07be c630 c7bc da2f d4bd 2d24 013d
00000250: 27bf 813d ef88 6e3d 0f56 a4bd 98fa 1abd
00000260: ccb6 42be 6d61 c33d e8bb 12bd abb3 71bd
00000270: 801f 80bd 3330 9fbc 0a06 9fbd 4b04 28bd
00000280: dd32 1ebc a82c c93d 8a52 273d 7f9f 81bd
00000290: cb02 00be e3f2 bc3d 448d ff3d b4c9 553d
000002a0: d661 0b3e b892 8abd e895 743d 716c a03d
000002b0: 5198 b53c 368c 01bd 27d4 2e3c e870 883b
000002c0: fb45 a3bd 3225 45bc c921 483d 8ad4 9fba
000002d0: 3727 d2bd b2af 59bc f850 c4bd 0b5f 00be
000002e0: d5df a2bd 6166 1ebd 0d2a 41bd 8ba5 aabc
000002f0: 0e24 bfbd dfd7 8bbd d28d 68bd a8da 503d
00000300: 98dc b9bb 0d96 7c3c 717a 0bbe fec9 df3d
00000310: b918 c33d c8f2 29bd da52 cebd 7c70 483e
00000320: a82d 2e3d 6446 983d 20d7 0d3d 0d1f 8f3c
00000330: e875 80bd b105 ac3c 3d76 8a3d 3bdd 19bb
00000340: 273d b53d 1823 39bc a9a8 acbc 2538 ecbd
00000350: e5ce 66bd b550 5bbd 998a 873d 06fa 013e
00000360: 1dae 2f3d 1f83 233d 9146 d73d 734b f1bc
00000370: 3e93 15bd fbad e5bc 462c 4ebd 53af 923d
00000380: 06a9 97bd d397 a93d 7fa9 30bd 94e5 48bd
00000390: 5835 1cbd 5af2 143d 3a51 503d 41d1 f7bd
000003a0: ce94 063e 6f47 7b3c de2c f43d 1a73 51be
000003b0: 5c54 8a3d 6628 053c 57a3 e0bd cb3b 203d
000003c0: 955b 0d3e 0855 e3bc 9113 053e 93da c8bc
000003d0: aad2 cc3c 9dbc ff3d 6bf3 c93c c12c 4f3e
000003e0: 3a78 0c3e 2aa6 9dbb 7dcb b7bc 1fce 9c3d
000003f0: dd7d d7bd 28bb 6a3d 8ce6 bb3d 23d9 d43c

sequential.2.bias f4 [20]
-0.13975924 -0.0621824 0.0573646 0.005028298 -0.009971634 0.07446558 0.09648497 0.07313701
0.22544345 0.15828535 0.016082682 0.09201749 0.026848925 0.06787368 -0.021074167 0.22660731
0.07076539 0.09032773 -0.06791854 0.1007891
00000000: 0c1d 0fbe f9b2 7ebd 25f7 6a3d 6cc4 a43b
00000010: 1060 23bc 6981 983d e999 c53d dbc8 953d
00000020: a6da 663e 8e15 223e d4bf 833c aa73 bc3d
00000030: 47f2 db3c 5b01 8b3d bba3 acbc bf0b 683e
00000040: 72ed 903d bffd b83d e018 8bbd 846a ce3d

final_convolution.weight f4 [1, 21, 1, 1]
0.15200754 -0.24073903 -0.24010251 -0.029416194 -0.056106642 -0.07649266 -0.018371927 -0.07625781
0.008462568 -0.2026996 -0.20496157 -0.1540642 -0.14002812 -0.09402054 -0.23030303 0.036271937
-0.29215112 0.036633596 -0.15646552 -0.22973786 -0.1132426
00000000: dda7 1b3e 4b84 76be 6fdd 75be 3bfa f0bc
00000010: 14d0 65bd 2fa8 9cbd b980 96bc 0e2d 9cbd
00000020: 95a6 0a3c 7c90 4fbe 72e1 51be 01c3 1dbe
00000030: 8863 0fbe d78d c0bd 8fd4 6bbe e291 143d
00000040: d594 95be 1c0d 163d 7f38 20be 6740 6bbe
00000050: bceb e7bd
