from_finrl-tutorials_git/data_1993_to_2024/train/v2_result/scribed/eiie_20241218_142031_trf_v2/policy_EIIE.pt (torch, 10800 bytes, 5 tensors)

sequential.0.weight f4 [2, 4, 1, 3]
00000000: f969 563e 5c7f 123e 4285 443e 82cc 8d3e
00000010: 2b5c 333e aa32 4d3e 884e 39be 7798 443e
00000020: 850e 9a3e 10df be3e b055 28bc a9c9 953c
00000030: ccf1 a5be da44 6dbe 7600 ca3d 8fdc 213e
00000040: 8727 d2bc b940 06bc e705 97be f4de 3fbe
00000050: b659 88be edf1 d0bc e92a a4be 1971 92be
0.20938863 0.14306396 0.19191459 0.2769509 0.17515628 0.20038858 -0.18096364 0.19198786
0.30089203 0.37279558 -0.010274336 0.018284636 -0.3241104 -0.23170796 0.09863369 0.15806793
-0.025653614 -0.008194142 -0.2949669 -0.18737394 -0.26630944 -0.025505984 -0.32063988 -0.28601912

sequential.0.bias f4 [2]
00000000: 0553 133e 78b8 97be
0.14387138 -0.29632926

sequential.2.weight f4 [20, 2, 1, 48]
00000000: 7b6e ffbd c18b 8b3b 8e1a d4bd 8f3f dcbd
00000010: 3023 2b3d 954c 48bc 6f1b aebd 52d2 d83b
00000020: c261 613e ebe4 7a3d fb9d 023e 1684 1c3e
00000030: 4fc0 183e 84e2 21bd a6c0 fe3c b40b 033e
00000040: c4a6 b4bc a9fe 613e b2aa 2e3e 5877 973d
00000050: 30d4 b0bc e57e 283e ceb7 afbd e76c 58bd
00000060: 914c 9e3e c565 a4bd 9c1c f9bd 6b78 25be
00000070: 3d5e 963d ff61 6dbd 1479 533e 6aa7 703e
00000080: f7e3 e33d 22a9 88bb b481 843d 4294 533e
00000090: 0920 e13c d873 103b 8ebe 8d3d 1004 82bc
000000a0: 3980 113d 44bd fdbb 47b5 b23d ddfc 25bd
000000b0: de23 373e 99f7 263d 0aa5 9d3c 46d2 8dbd
000000c0: fa4d ad3a 0e19 b43d 0ee8 1bbe 1cc8 8bbd
000000d0: 8de1 b63d f852 723d 0359 a3bd 58c3 ea3c
000000e0: d76d a93b 2a3c a5bc ee1c b73d f4e6 87bb
000000f0: 1208 f8bd 022b 20be 4a77 053e d9ef 4cbd
00000100: 2e8c 20be d237 d0bc 0261 cd3d 48d3 043e
00000110: d377 a5bd 840f f73d 163e ebbd 3e1a 783c
00000120: 1b67 213d b31d 4a3e bcd3 f9bd 3135 9a3b
00000130: 2ddd af3d fa0d 523c 41c1 0f3e 4375 3f3b
00000140: 382a d23d a373 0e3b c9f5 cd3c c03d 5d3d
00000150: 1787 df3d 7cc7 18bd 1474 c3bc be96 b6bd
00000160: 27fc 03bd b883 883d 61df 2d3d 2789 26bd
00000170: 3e94 c93d 72f6 553d 97ba 99bd 8e2a b43d
00000180: d941 c53c 146b 5abb 36a3 1fbe 3c02 02bc
00000190: dc06 fabd b0b1 12be d57d 953d 8f00 27be
000001a0: 4ec1 8fbd c942 6abe cb6a 30be 2c7e ecbc
000001b0: 7476 b4bd a6b8 c83d 4d1c 3f3e 0cbc e53d
000001c0: a0ab 8dbd 465b 4ebe 162b 9bbe 8de8 88be
000001d0: 65e5 45bd 1142 17be ab9a fabe f300 853d
000001e0: 86a9 37bd ec86 19be 840b 32be 016b 9fbd
000001f0: 8c52 93bc 8f8e cb3c 086d f7bc e63a 2fbe
00000200: d8f8 87be 1f23 503c 3607 f83d 2be4 cf3d
00000210: 4f75 3cbe 9378 efbd 1802 2cbe ad40 7ebd
00000220: 0b33 abbd 5cf0 97bd 4ec0 b6bc dc4e a33e
00000230: 6f05 3dbe 97fe 4d3e 6c63 613e b5c7 0cbc
00000240: 0e56 a33d c5e8 a9bc aedf c2bc 2d4c 203d
00000250: e0cf 7fbd 4a14 9ebc 79e2 d1bd 2f86 34bd
00000260: 471a 56bc e50c 863c 1786 6fbd d809 d13b
00000270: 2731 bbbd 6d3a 9c3d 183b 863d 7564 ab3e
00000280: dac0 bf3d 1cc8 20bc ab5b 91bc eda3 abbc
00000290: 97a6 0f3e a21d e33d 50fa 4cbd 83f1 9dbd
000002a0: 508d a1bd 61b2 70bd efca 21bc 7e1f 6ebd
000002b0: 7337 d3bd c2f2 043e 0ee6 883d b4dc edbc
000002c0: 2b07 df3c 332f 25bd ad69 763d f3c4 8ebd
000002d0: aa31 ce3d 5730 8dbd efcd 47bc 0224 043e
000002e0: 28ae 663d 8f52 07be a0c5 52bd a1f5 113e
000002f0: 14bf b93c 0518 ef3d 0ae6 073d 5913 98bc
00000300: bae0 a8bd f17c 733e 06b3 283e d248 7d3d
00000310: 8fe6 af3d 80bd e33d 305d cd3d c4df 61bd
00000320: 0b27 bdbd 4a71 883e 5bb8 003d 8bbf 8ebc
00000330: 99bd d4bc 0e93 153e 06c1 96bd 4730 803d
00000340: 0456 653d 84fc 9abd e8bb 22bd c5a2 9d3d
00000350: b5e6 2e3e 5e4e 893c cbeb 0e3e 76a4 753e
00000360: b921 e1bd c3a6 47bc d018 5d3d 3af3 9b3d
00000370: feee 6e3b a9f9 603e ed2f c4bd 432b a3bd
00000380: 7a0b aebe d3b5 333d dc10 abbd e774 68be
00000390: 7efc 3c3e e2a6 b1bd 966c f93d cf00 813e
000003a0: 82f7 643e 7987 ddbd cb06 f7bd fa04 62be
000003b0: 7c0a 3fbd 86bf 43be b51e 1abe 94ac 6cbc
000003c0: 27cc b13d ae7f f83d 029d b73d d470 74bc
000003d0: 8ca6 49bd 7ec9 d63d 95d9 e33c 1959 18be
000003e0: c6cb a1bd 5434 5bbd 91a5 1c3d 20bf b3bd
000003f0: b3e4 5f3d fca2 c4ba 6b2c 0bbe 7732 bb3d
-0.12472244 0.0042586033 -0.103566274 -0.1075431 0.041781604 -0.01222529 -0.08501326 0.006616869
0.22009948 0.06125347 0.12755577 0.15284762 0.1491711 -0.039522663 0.031097721 0.12797433
-0.022052176 0.22069801 0.17057303 0.0739581 -0.021585554 0.16454656 -0.0857998 -0.052838232
0.3091779 -0.080272235 -0.1216366 -0.16159217 0.07342193 -0.057954784 0.20651656 0.23501363
0.11127465 -0.004170553 0.064700514 0.20662025 0.027481096 0.0022041705 0.06921111 -0.015871078
0.035522673 -0.0077435095 0.08725982 -0.040524352 0.17884776 0.04076347 0.019243736 -0.06924872
0.0013222091 0.08793841 -0.1522524 -0.06825277 0.08929739 0.059161156 -0.07975962 0.0286576
0.0051705646 -0.02017029 0.08941065 -0.004147405 -0.12110914 -0.15641406 0.13033786 -0.050033424
-0.15678474 -0.025417242 0.100282684 0.12971222 -0.08079495 0.12063506 -0.11486451 0.015142975
0.03940497 0.19737892 -0.12198588 0.004706048 0.08587108 0.012820715 0.14038564 0.002921418
0.10261959 0.0021736405 0.025141614 0.054013968 0.10914438 -0.037299618 -0.023859061 -0.089154705
-0.032222893 0.06665748 0.04244936 -0.040658142 0.09842728 0.05223698 -0.07506292 0.08797179
0.02407925 -0.0033327984 -0.15589604 -0.007935103 -0.122083396 -0.14325595 0.07299391 -0.16308807
-0.07019292 -0.22877039 -0.17228238 -0.028868757 -0.08811656 0.09800844 0.1866314 0.11217508
-0.069175005 -0.20152006 -0.3030631 -0.26739922 -0.04831447 -0.14771296 -0.48946127 0.06494322
-0.044839405 -0.14992875 -0.17387205 -0.07784081 -0.017983697 0.02484825 -0.030203357 -0.17112312
-0.2655704 0.012703686 0.121107504 0.101509415 -0.18404125 -0.116929196 -0.16797674 -0.0620734
-0.08359345 -0.07418892 -0.022308495 0.31896102 -0.18459104 0.2011665 0.22010583 -0.008592536
0.07975398 -0.020740876 -0.0237883 0.039135147 -0.062454104 -0.019296784 -0.10248274 -0.04407328
-0.013067788 0.01636357 -0.058477487 0.0063793473 -0.091402344 0.07628331 0.0655424 0.3347508
0.093629554 -0.009813335 -0.017743906 -0.02095219 0.14028393 0.110896364 -0.050043404 -0.0771208
-0.07888281 -0.058763865 -0.009875043 -0.058135502 -0.103133105 0.1298323 0.066845044 -0.029035904
0.027225098 -0.040328216 0.060159374 -0.06971159 0.100680664 -0.06893986 -0.0121950945 0.12904361
0.056318432 -0.13215087 -0.051458 0.14253856 0.022674121 0.11674503 0.033178367 -0.018563913
-0.08245988 0.2377813 0.16474542 0.061837025 0.085888974 0.11120129 0.1002754 -0.05514504
-0.092359625 0.26648933 0.031425815 -0.01742532 -0.025969313 0.14606878 -0.07361035 0.06259208
0.055990234 -0.07567695 -0.039729983 0.076970614 0.17080195 0.016761001 0.13957135 0.23988518
-0.1099276 -0.012185755 0.05397874 0.07614751 0.0036458368 0.21970238 -0.095794536 -0.07967236
-0.3399313 0.043874573 -0.08352825 -0.22700845 0.18455693 -0.086744085 0.12178914 0.2519593
0.22360042 -0.10816855 -0.120618425 -0.22072211 -0.046640858 -0.19116029 -0.15050776 -0.014445443
0.08681517 0.12133728 0.08965494 -0.014919478 -0.049231097 0.1048765 0.027813712 -0.14877738
-0.07900195 -0.0535167 0.038243834 -0.087766886 0.054661464 -0.0015002186 -0.13591163 0.09140485

sequential.2.bias f4 [20]
00000000: 6bd0 3a3d efe4 4cbe 7c3b c73d 696c c03d
00000010: 36f8 85bd 9b9d d1bc be09 cbbd d1b3 f8bd
00000020: 57f4 54be 3c99 36bd f847 5a3d 4db7 9fbd
00000030: e523 b63d d186 ebbd a1c5 f03d 9847 af3d
00000040: 28bc 3a3c 084c 7c3e 765c dcba 7299 24be
0.04560892 -0.20009206 0.097281426 0.093956776 -0.06541483 -0.025587847 -0.099139675 -0.12143672
-0.20796333 -0.04457973 0.05329129 -0.07798634 0.08893565 -0.115003236 0.11756445 0.08558577
0.011397399 0.24638379 -0.0016812223 -0.1607416

final_convolution.weight f4 [1, 21, 1, 1]
00000000: 4fc9 ccbc 304a 24be fc08 943e 1d9e 893e
00000010: 390a 98bc 5a50 ef3d 98bb ad3d 2b60 463d
00000020: a41d dd3d aff3 57bd 8a7a d5bc 3a96 603e
00000030: 9005 0d3e 8b85 1dbc 8b05 0d3e 5e69 43be
00000040: 6600 103e b74c 913d db03 2b3e 5463 f0bd
00000050: 824c db3c
-0.024998335 -0.16043925 0.28913105 0.26878443 -0.018559562 0.11685248 0.08483046 0.048431557
0.10796669 -0.05272263 -0.026059408 0.21932307 0.13771653 -0.009614359 0.13771646 -0.19083163
0.14062652 0.0709471 0.1670069 -0.11737695 0.02676988
