from_finrl-tutorials_git/data_1993_to_2024/train/v2_result/eiie_20241224_155540_dev_profitable_no_trf_mu_ep10_2024/checkpoint-8/policy_EIIE_8.pt (torch, 3716 bytes, 5 tensors)

sequential.0.weight f4 [2, 9, 1, 3]
00000000: da1c 3c3e 7804 1d3e 4789 ebbd e650 f63d
00000010: aa4b d53d 0681 f4ba c342 2dbe 476b f03d
00000020: 1c77 353e a179 44bc a68c 7c3d 6c53 fc3d
00000030: 2831 073e a8a1 033e d30c acbd ac04 46be
00000040: 4c2e 4cbe d9a2 163d 6e13 d73d a068 c13d
00000050: 2b24 b83d f282 f43c 9ce3 e8bd 8565 69bd
00000060: 2e88 283e c44d 3bbe 64f5 303d 23a6 c53d
00000070: 21e3 a33d c652 f73d ef2d e5bd 9cd1 0b3e
00000080: b5a6 473d e164 d2bd 4c60 063e d692 9c3d
00000090: d2b2 14be e0f1 233d a499 063d 0e6d 243e
000000a0: 2a2f 153e dffc 0fbe 877b 283d ef23 333d
000000b0: 1621 063d c2e6 f0bd 7167 99bd 96c0 1cbd
000000c0: a69c 193e 8d08 15be afae 1d3d 15c7 0fbe
000000d0: e211 893b 288f 473c
0.18370381 0.15333736 -0.11500793 0.12027149 0.104148224 -0.0018654175 -0.16919999 0.117392115
0.17721218 -0.011991889 0.06165757 0.12320599 0.13202345 0.12854636 -0.084008835 -0.1933772
-0.19939536 0.036776397 0.10501753 0.09443784 0.089912735 0.029847596 -0.11371538 -0.056981582
0.16458198 -0.18291384 0.043202773 0.09650829 0.08002306 0.12076335 -0.11190402 0.13654178
0.04874297 -0.102731474 0.13122672 0.07645194 -0.1452134 0.04002559 0.032861367 0.16057226
0.14568773 -0.14061306 0.04113343 0.04373544 0.032746397 -0.117627636 -0.07490433 -0.0382696
0.15001163 -0.14554043 0.03849667 -0.14040788 0.00418304 0.012180127

sequential.0.bias f4 [2]
00000000: 731c 213e 0e2d 0dbe
0.15733509 -0.13786718

sequential.2.weight f4 [20, 2, 1, 3]
00000000: 3960 9fbe 5515 e3bd 0359 91be 2c98 54be
00000010: e61e ac3e 3d03 a13d 042f ca3e 4efc a33e
00000020: 5b30 613d 8f98 2abe 0a40 b63e ea2c 8abd
00000030: 7068 8d3e 8f46 60bd 8a0b bbbd bb53 4f3e
00000040: 737d 12be f74e 383e 9ed7 1bbe 422d 98be
00000050: 62f1 853e fcaa bd3e 29ea c73e 0991 70be
00000060: 79bf 02bc 89ec 5a3e 1dee 25bd 7c39 e93d
00000070: 21f9 cc3c 0457 9d3e 37c2 85be 05ca 91be
00000080: d61e 96be a9af 8a3c 33ac ba3e 3632 043e
00000090: 25c1 8d3c f0c8 b5bd f534 533b 7f29 13be
000000a0: dab9 95bd 9a25 143e 8da0 85be 3869 c93d
000000b0: ecbc 94be 884b 3c3e f3e3 8d3e 8358 5c3e
000000c0: 0c66 05be b8fa 68be fc18 863e 80c0 2abd
000000d0: 463f b5be b921 5d3e 9649 6bbe 9ff7 46be
000000e0: 5b74 c73e 2459 c63e 0218 3ebd e072 10bc
000000f0: e0e0 953d 5e4d c0be 01f9 923e bc2a 4d3d
00000100: ca57 ac3e 4a4a 1cbe 00c6 8ebd 3820 213e
00000110: c31d 9ebd 24b9 b1be 840e 1a3e ec2e 8abe
00000120: e405 73be c6f2 83bd abb8 843d 48a3 0f3c
00000130: 3822 06be 516c 833e 880f e33d 6737 d3bd
00000140: 3573 9a3e b80a 5f3e 7157 7cbe 0c58 3fbe
00000150: fb5f 1c3e ce5e c4be 872e 903e 146a 87be
00000160: f075 60bb 7593 a3be c992 8abb 2b58 d93d
00000170: 859e 7b3e f41e 5cbe 73c5 0cbe a7c0 b0be
00000180: c501 ff3d a6d8 d63e 1e25 8fbc d1b7 8abe
00000190: b18e 06be 5a31 3b3e 4772 72be 90f0 84be
000001a0: e75f 47bb e858 9e3e 92ef c0be 05f2 0bbd
000001b0: fe38 90be 061a 953e 378c 953e c592 143d
000001c0: e315 313e 2548 16be 51a0 bcbe 69e1 9e3e
000001d0: d6e0 c1be b411 2ebe 7f2a 633e 20ab 8cbe
-0.311281 -0.11088053 -0.28388223 -0.20761174 0.33617324 0.07861946 0.39488995 0.3202843
0.054977756 -0.16659759 0.35595733 -0.06746848 0.27618742 -0.05475479 -0.0913306 0.20246784
-0.14305668 0.17998873 -0.1521897 -0.2972203 0.26160723 0.37044513 0.39045838 -0.23492827
-0.007980221 0.21379294 -0.040510286 0.113879174 0.025021138 0.3073045 -0.26124737 -0.2847444
-0.293204 0.016929464 0.36459503 0.12909779 0.017304013 -0.088762164 0.003222761 -0.14371298
-0.07310839 0.14467469 -0.26099053 0.09834522 -0.29050386 0.18388188 0.27712974 0.2151814
-0.13027209 -0.22751892 0.26190937 -0.04168749 -0.35399836 0.21594895 -0.2297729 -0.19430397
0.3895596 0.38739884 -0.046409614 -0.008816451 0.07318282 -0.37559026 0.287056 0.050089583
0.33660728 -0.15262714 -0.06971359 0.15734947 -0.0772052 -0.34711564 0.150446 -0.26988924
-0.23732716 -0.0644279 0.06480535 0.008766957 -0.13098991 0.25668576 0.11086947 -0.103133015
0.3016602 0.21781433 -0.24642731 -0.18685931 0.15270989 -0.3835358 0.28160498 -0.2644812
-0.0034249984 -0.31948438 -0.004228924 0.1061252 0.24572189 -0.21496183 -0.13747196 -0.34521982
0.124515094 0.41962165 -0.017473754 -0.27093366 -0.1314037 0.18280545 -0.23676406 -0.25964785
-0.0030422152 0.30927205 -0.37682778 -0.034166355 -0.28168482 0.29121417 0.29208538 0.036272783
0.17293505 -0.14675958 -0.36841062 0.3103135 -0.3786685 -0.1699894 0.2218418 -0.27474308

sequential.2.bias f4 [20]
00000000: e232 9fbe ed15 d63e 6332 923d 7cb3 b03d
00000010: a030 2abe 2b2e a43e 8a76 c7bd 9887 2c3e
00000020: f868 a73e 4fb1 11bb 5762 693e 7fa4 61bd
00000030: 6af0 2fbe 9f11 8ebd 5915 a13e 4f52 603e
00000040: b6d5 76be fa68 0e3e f13a 89be ce72 aebb
-0.31093508 0.41813603 0.07138517 0.08627984 -0.16620111 0.32066473 -0.097394064 0.168486
0.32697272 -0.0022230928 0.2279142 -0.055088516 -0.17181554 -0.06936955 0.314616 0.21906398
-0.24104962 0.13907233 -0.2680278 -0.0053237444

final_convolution.weight f4 [1, 21, 1, 1]
00000000: 3116 a93d 69ac dc3d 2c9f 223e f0b4 e1bd
00000010: 095c b5bd 10c1 013e 8bef 183d 58f5 07be
00000020: 5e8c 1cbe 12f6 54bd 1d0c 59be 91b6 12be
00000030: 2f02 d2bd 2159 4fbd 5321 4c3c aab4 193e
00000040: 2330 fc3d 9dd9 353e 03a1 b93d a78b 8fbd
00000050: bd74 e73d
0.08256186 0.10775072 0.15881032 -0.11020839 -0.08855445 0.12671304 0.03733782 -0.13277185
-0.15287921 -0.051992483 -0.21196027 -0.14327456 -0.10254323 -0.05062211 0.012459117 0.15010324
0.12313869 0.17758794 0.09063914 -0.070090584 0.11301563
