from_finrl-tutorials_git/data_1993_to_2024/train/v2_result/eiie_20250103_092835_turbulence_ep100_deficit/checkpoint-28/policy_EIIE_28.pt (torch, 10958 bytes, 5 tensors)

sequential.0.weight f4 [2, 9, 1, 3]
00000000: 5a2d dc3d 166e c63c dae1 bebb e659 8cbb
00000010: 25a2 cf3b 0caf 243b 3a46 e03d 92de f4bb
00000020: d272 7d3d 7595 003e 1ce0 0bbe 600d 44bd
00000030: 320e 04bd c0f5 d63d 84a5 bdbb d1d5 25be
00000040: b9ec d23d 2681 b9bd 365d f8bd cf51 85bd
00000050: 6e68 e73d 96f6 533d 3c9f a93d 9acf 1dbe
00000060: 3c75 0ebc bde5 ad3d 6f94 edbd 9fd7 9e3d
00000070: 6e35 503e bfd0 0c3e c4f1 c13d c37d 7f3d
00000080: 6aae ffbd 5ccc 293e 0dd0 bb3d 2eae 4b3e
00000090: 9350 573e 3eee 1fbe 44dc b93e 8ef2 02be
000000a0: db2b e2bd f1cb 16be 937a 083e 1dbc d6bd
000000b0: bf88 eabd 8079 153e eab5 0b3d 4d44 dd3c
000000c0: f45c 973d 9c80 2bbd bfb8 463e 4c55 123e
000000d0: 3b8b 203e 58a0 833b
0.107508376 0.024222415 -0.0058252634 -0.0042831777 0.006336468 0.002512875 0.10950895 -0.0074728215
0.06187708 0.12557013 -0.1365971 -0.047864318 -0.0322401 0.10496092 -0.0057875533 -0.16194846
0.102990575 -0.09057836 -0.121271536 -0.065097444 0.11299215 0.051748835 0.08282325 -0.15411225
-0.008694943 0.08491085 -0.11600577 0.0775597 0.20332882 0.13751505 0.09469941 0.062375795
-0.12484439 0.16581863 0.09170542 0.19890663 0.2102683 -0.15618226 0.36300862 -0.1278784
-0.11043521 -0.14726235 0.13328008 -0.104850985 -0.114518635 0.1459713 0.034109034 0.027010107
0.07390776 -0.0418707 0.19406413 0.1429035 0.15678112 0.004016917

sequential.0.bias f4 [2]
00000000: 9ebb 25be 6823 333e
-0.16184852 0.17493975

sequential.2.weight f4 [20, 2, 1, 48]
00000000: 4b3b 13bd a6cf 7d3e 266a 903d 36bd a2bc
00000010: 13fe 513e bd6b a73d 075f 303c d33b 63bd
00000020: 4bc8 abbc b2e7 a6bc 9b45 94be 52aa 963c
00000030: ed00 a4bd a05a 7bbe 58a6 853d 1c41 3b3e
00000040: 3ffd a93c 12fd 8c3e aba1 1f3d 42a6 31be
00000050: 3732 a6bd 8f58 a13a 6363 f73c 5673 383c
00000060: 59a8 bebd 2ab6 22bd 9501 763e 18f6 9ebd
00000070: 17e4 cbbc 77ee 9dbd a87c 933a 5313 a03d
00000080: 17cf 983e da62 b9bd 64e2 a83d a8eb 163e
00000090: 6d7b abbc a20f a6bd df9b 49bd 990f 973e
000000a0: af70 93bc 6641 7d3e 5409 913d e322 0a3d
000000b0: 2a88 4d3e b62e 58bd 5d2e 4ebd dead 033d
000000c0: be61 adbd 67c3 3c3e 9290 5c3e 479f 093a
000000d0: 1d2d 9d3e 871c 7a3e 429a 0e3d 751e 743d
000000e0: a38c b2ba a6e0 f3bb 4694 3ebe a64f 8dbe
000000f0: 4df8 b8bd 5a83 58be 2c61 a4be a7b4 713e
00000100: 3c4f 513e 82b8 843e 6e60 6a3e 5c17 80be
00000110: 6cd2 23be 4d60 3ebd 5dec 03bd b81d 92bd
00000120: 689c 1bbd 185f d13d 0617 3e3e 0ea2 8c3e
00000130: 4aa7 fbbc 7cf6 9fbc cf5d 0cbd 1869 ca3d
00000140: 188f 283e fe2d 3f3e fd38 61bd b90a 463e
00000150: 08b1 9a3e e7ca 6ebd 1c1e 79bd 6d7f 6f3e
00000160: 966c 563e a60f 763e 66b5 943e fa16 d0bd
00000170: ed73 4d3e 65c9 863e 1eaa f3bc fe42 f43d
00000180: 540f b7bd 74fc 0c3e 561b 86bd a4cf bbbd
00000190: 84a5 e83d 2b03 023d d121 60bd bf0c a5bc
000001a0: 4ef7 72bd 8f15 f43b 5bbf 843e 36ec 23bd
000001b0: 0694 a9bd 1d35 55bd 7911 fdbb faf4 8f3e
000001c0: a527 8cbd b7d9 453e 4868 9abd e3a9 cd3b
000001d0: 9ec1 a7bc 2341 cdbc a0ab b33d c61a e1bc
000001e0: fa63 a0bc 679b 27bd 4fd4 853e a942 943c
000001f0: b23a 833d 2d4d 3bbd df2a 783d 4f70 323d
00000200: 698c 1d3e 7f3d 4cbc 5cdf 5dbd 90b6 943e
00000210: 8397 833b 6874 58bd 9cc5 febc b157 c23d
00000220: 70de 90bd 1541 0d3e a94d 11bd 4bbb 853c
00000230: 3682 2c3e b306 463d d32c 973d 9d6d 3abd
00000240: 5fde 713d 563b 963d 3351 883d 6cb2 7dbc
00000250: 2e8b 243e 8516 ec3d 9610 03bd 3a9e 8a3d
00000260: 0149 acbd 3a03 a03d aceb 7e3e 03f7 2b3e
00000270: 463d 143d 9d08 173e ecc8 a8bd f733 533e
00000280: c392 6f3e 923b 8a3e 38c3 8e3e 04bb 543c
00000290: b802 96bd ba21 6cbd 876a 8abc 9cf4 0cbd
000002a0: 057b 8c3d 2914 353c 712f 2e3e 35d1 033e
000002b0: 5b58 c53d 11db 693d da05 dcb9 1baf a6bd
000002c0: f72b 853e dd1a 843e db6c 96bd 36b5 953e
000002d0: f77b 8d3e cca1 a43d 47b5 ab3d 94ac 2d3e
000002e0: bb98 203e 988f 923e 1a32 3d3e ee30 0f3d
000002f0: 7d7f 2a3e 9c84 423e 7822 41bd 5060 4c3e
00000300: b45b 8fbd 0543 733d c732 8c3d d22f 02bd
00000310: d64f aa3d 2a3c 0bbc 204e 7ebd 4636 633d
00000320: 9645 5dbc 56af fc3b dd87 9c3d 1437 acbd
00000330: 5541 693d 1a81 26bb 8d49 9ebd 2a5d 80bd
00000340: 1c61 393d df5c 88bc c3e3 bb3d 80ec 53bd
00000350: 0e01 3abc 7cc1 96bd 858f 0dbc 4a46 0abc
00000360: 41ca db3c 0820 633d 53eb bc3d ffec bb3d
00000370: 920a 93bd 23ae b23d b001 4d3d 387a 9d3d
00000380: fcdd 7dbd 6bbe 683d 8ed7 bbbd d29c 6bbd
00000390: cf48 93bd 4c38 ff3c af39 be3d f5b9 edbc
000003a0: f832 2abd 2d2e 923d d19d ef3c 2f7d 8f3d
000003b0: c67c 10bd 9d99 54bc b885 22bd 6702 323b
000003c0: ef37 a93d 7d5e cbbc 5434 99bd b3f5 593d
000003d0: 74d0 7abc 5edb a33c 9bb4 3e3d bf79 003d
000003e0: 7642 3e3d b0e1 4abd 3d0e 90bd 0575 603d
000003f0: cbe9 103c cf2a a5bc fd43 dc3c 1251 b23c
-0.035945218 0.24786243 0.07051496 -0.019865613 0.20507078 0.08174846 0.010764844 -0.055476975
-0.02096953 -0.020374153 -0.28959355 0.018391762 -0.08007989 -0.2454629 0.06525868 0.18286556
0.02075064 0.27536827 0.038972538 -0.17348579 -0.081150465 0.0012309718 0.030198758 0.011257967
-0.093094535 -0.039724506 0.24024041 -0.077617824 -0.024889035 -0.07711499 0.001125236 0.07816186
0.29845497 -0.090520576 0.082463056 0.14738333 -0.020932877 -0.081084505 -0.049220916 0.29504088
-0.017998068 0.24731979 0.07081857 0.033724677 0.20071474 -0.052778922 -0.050337184 0.032148235
-0.084659085 0.18433915 0.21539524 0.00052498694 0.3069848 0.24424945 0.03481508 0.05959936
-0.0013622235 -0.0074425517 -0.1861125 -0.2759983 -0.090317346 -0.21143857 -0.32105386 0.2360407
0.20440382 0.25922018 0.22888348 -0.25017822 -0.15998238 -0.04647856 -0.032207835 -0.07134575
-0.037990957 0.10223216 0.1856347 0.27467388 -0.030719418 -0.019526713 -0.03426915 0.09883326
0.16460836 0.18669888 -0.05498599 0.19340028 0.3021319 -0.05829897 -0.06081973 0.23388453
0.2093986 0.24029407 0.29044646 -0.101606324 0.20063753 0.26325527 -0.029744204 0.1192684
-0.089384705 0.13768178 -0.06548183 -0.09170464 0.113596946 0.031741302 -0.05471975 -0.02014768
-0.05931788 0.007448859 0.25927243 -0.04002019 -0.08280186 -0.052052606 -0.00772303 0.2811659
-0.06843499 0.19321333 -0.07539421 0.0062763556 -0.020478066 -0.025055474 0.08772969 -0.027478587
-0.019578923 -0.040919688 0.2613854 0.018098192 0.064076796 -0.045727897 0.06058776 0.043564137
0.15385593 -0.012465834 -0.05416809 0.29045534 0.0040158643 -0.05284539 -0.031100087 0.09489382
-0.070736766 0.13794358 -0.035474453 0.01632466 0.16846547 0.048346233 0.073815964 -0.04551469
0.05904996 0.07335536 0.066561125 -0.015484434 0.16068718 0.11527733 -0.03199824 0.067684606
-0.08412362 0.078131154 0.24894589 0.16793446 0.036191247 0.1474938 -0.08241448 0.20625292
0.23395829 0.26998574 0.27883315 0.012984041 -0.07324737 -0.05764935 -0.0168965 -0.034412965
0.068594016 0.01105217 0.17010285 0.12872775 0.09635993 0.057093684 -0.0004196603 -0.081388675
0.26010105 0.25801745 -0.07344981 0.29239815 0.2763364 0.08038673 0.08384185 0.16960365
0.15683262 0.28625178 0.18476143 0.034958772 0.16650195 0.18995899 -0.047152013 0.19958615
-0.06999913 0.059390087 0.068456225 -0.031783886 0.08316009 -0.008498231 -0.062086225 0.05547168
-0.01350536 0.0077113314 0.07643101 -0.08408943 0.05694707 -0.002540654 -0.077288724 -0.0626777
0.045258626 -0.016645847 0.091743015 -0.051739216 -0.0113527905 -0.07361123 -0.008640175 -0.00843961
0.02682984 0.05545047 0.09224572 0.09176063 -0.071797505 0.0872462 0.050050437 0.07689327
-0.06197928 0.05682222 -0.09171973 -0.057522602 -0.071916215 0.031154774 0.09288346 -0.029019335
-0.041552514 0.071377136 0.029250057 0.07006299 -0.035275243 -0.012976077 -0.039678305 0.0027162076
0.082626216 -0.024825329 -0.07480684 0.053212833 -0.015308488 0.020002063 0.046558958 0.031366106
0.0464501 -0.04953164 -0.07033966 0.0547991 0.008844803 -0.020162014 0.026887888 0.021767173

sequential.2.bias f4 [20]
00000000: 2ac7 4f3c c4d8 2b3d 223e 6a3d ce2e eebd
00000010: 69b4 b5bd 86cf 353b 964b 23bd afc8 5abd
00000020: 8ea0 44bd 9982 2fbc 66e9 b03c 5f2e 2c3d
00000030: 7c77 fbbc c4a1 a53c cc15 1c3d 84a2 20bc
00000040: a703 033c 2b0e ddbc 9778 8cbd bfa4 a7bd
0.012681762 0.04195477 0.05718816 -0.11630021 -0.08872301 0.0027742102 -0.039867006 -0.053414043
-0.04800468 -0.010712289 0.021595668 0.04203641 -0.030696623 0.020218737 0.038106725 -0.009804372
0.007996476 -0.026984295 -0.06858938 -0.0818572

final_convolution.weight f4 [1, 21, 1, 1]
00000000: 87be 99be 89cf c63e 0a57 773e 3ed0 493c
00000010: 94ce a53d 1ec1 0cbe 51a8 80bd f143 fe3d
00000020: fbaf 8e3e cfc9 a53e c943 a93e 0f5b b93d
00000030: 2832 793e 4d95 49be 7a19 cdbd 275a b13e
00000040: 009b 7cbe 6b88 cd3e acab a33e d9d4 97bd
00000050: 2594 ed3d
-0.30028173 0.38830212 0.24154297 0.012317715 0.08096042 -0.13745543 -0.06282104 0.124153025
0.27868637 0.3238053 0.33059528 0.09050571 0.2433554 -0.1968586 -0.10014625 0.34639093
-0.24668503 0.4014314 0.31966913 -0.07413644 0.11600522
