from_finrl-tutorials_git/data_1993_to_2024/train/v2_result/eiie_20250102_100807_risk_free_rate_0.00013_ep10/checkpoint-4/policy_EIIE_4.pt (torch, 10948 bytes, 5 tensors)

sequential.0.weight f4 [2, 9, 1, 3]
00000000: 36a0 453e c1fe 0c3e e7f5 03bd cf98 9d3c
00000010: 64ae a13d 04f3 7c3e 8aeb 843e a7e3 313a
00000020: 7b6f 5d3e 8ade 8abe da03 e63d a5a5 d4bd
00000030: 8239 38be 470e 893e 9184 2bbd eebe 813d
00000040: aa99 8a3d cd16 873d 439d ccbd eaf6 e33c
00000050: ca26 403e 6d66 87bd 9378 703e d467 2a3e
00000060: b42c 683e 63e8 1f3e d4da cc3d 931d debd
00000070: 16e0 49be 425a 263e 2a6b 84bd f64d 493d
00000080: 5c9a 0b3e 7a68 ee3d 14ca d6bd eee0 123e
00000090: 1e08 58be 0d91 97bd 0c1c 823e 731d 303d
000000a0: a695 32be cb1d bf3e 1d28 cbbd 66ad 1e3e
000000b0: 9ad4 1e3e ffc0 abbc b26c 0bbe b0e6 5abc
000000c0: 291c 233e 3edd d03c 575a 803c 540c 6cbd
000000d0: 8a2e ccbd 0c3b e3bd
0.19299397 0.13769056 -0.032216933 0.019237904 0.078945905 0.24702078 0.25960952 0.0006785937
0.21624558 -0.2712291 0.112312034 -0.10383157 -0.17990687 0.26768705 -0.041874472 0.06335245
0.0676759 0.06596146 -0.09990933 0.027827699 0.18764797 -0.06611333 0.23483495 0.1664117
0.22673303 0.15615992 0.10002676 -0.108454846 -0.19714388 0.16245368 -0.064657524 0.049146615
0.13633102 0.11641021 -0.10487762 0.14343616 -0.21096846 -0.07400713 0.25412023 0.042996835
-0.17439899 0.37327418 -0.099197604 0.15495834 0.15510789 -0.020966051 -0.13615683 -0.013360664
0.15928711 0.025496121 0.015668077 -0.057628945 -0.09969814 -0.11095247

sequential.0.bias f4 [2]
00000000: de92 6b3d d7a3 ab3d
0.05751311 0.08380859

sequential.2.weight f4 [20, 2, 1, 48]
00000000: 0e8d 62bd 7e03 32bd fa07 b83d 5f53 403c
00000010: bb49 58bc b620 053e fc66 7d3d 8531 183d
00000020: 60ea 09be 1c01 ed3d 7e6e 353e ede5 1ebe
00000030: 752a d6bd ffcc 8cbd 8e06 733e a0a4 bbbd
00000040: db12 9d3b 66e4 6e3d 189e c73d 82ca 363d
00000050: a7ce 94bd f36c 413d 92b4 893d 815b be3d
00000060: a51d 5bbd 7521 173d 89e0 adbc 29b2 cbbd
00000070: b31e b43a f23e 5b3e 6ce1 d13c 56f4 493e
00000080: f912 72bd 7552 743e c63c 323d 2b6e c3bc
00000090: 0c91 a93b c3ac d83c e01e c43c 3d53 983c
000000a0: bbd6 f33d 8463 a03a ebe4 b53d 5953 f43d
000000b0: f358 8bbd cefc 163e db1a bbbc 0d2f 173e
000000c0: 30a5 bbbc e8b1 fd3b 24f3 be3d 0c55 463e
000000d0: ee00 e93d 9123 263e b1df 63be f8a4 b7bc
000000e0: e5c7 a13c 7515 2b3e 478b 29be 9bb8 093d
000000f0: e00b 693d 0a31 633e aacd e33d bfd6 4dbd
00000100: 3275 a83d 83d6 e33d 0d39 c53c dbf5 f3bd
00000110: 101d f93d 631c a5bd 6e17 343d 166f bc3d
00000120: 0dfa f23d 9398 cfbc f329 4fbd 3ddc 693c
00000130: baa6 933d 202f 9f3d 72a5 983c f25e 393e
00000140: 99ce 033e 6ee5 4f3b 3166 e2bc 9ef5 77bd
00000150: e618 a3b9 7104 95bc b399 3fbd 356d dfbb
00000160: e7b3 713e 079d 1f3e e54c 02bd 7abb 01be
00000170: 8a17 bcbc 569f c73c 4cf0 753d 1c9c 89bd
00000180: 6a1e 573d 7027 26bd 517c 3bbd a976 af3d
00000190: 411b 3a3e 3c84 263d 5d7b 303e 9fcf 313e
000001a0: 7ec0 a9bc ac0f 643d 167c 0e3e 1b1a 43bc
000001b0: 9913 a33d d577 8fbe e484 5c3e c7c5 1abd
000001c0: 26cd cabd 784e cd3d 37ed a4bc 64c6 c9bb
000001d0: 5f3c 793d 6142 89bc ad06 95bd e6c8 253e
000001e0: ff19 2bbc 1bc5 e73d 8b99 bb3d 119d 6b3d
000001f0: 66dc 4f3c 94cc 973e 66f1 653d 8034 323e
00000200: 0e2c e03d d8e0 213e edd6 fa3d 28e6 f6bd
00000210: 5338 1cbe ed6e 3a3e a359 8ebd 8dea 653e
00000220: 22cc 443e 6467 863e 6d73 443e d139 6cbd
00000230: b494 10be 4193 183b d262 0ebd 6550 b83d
00000240: c920 18bd 1b22 eebc 4443 0dbd 0e1f e63d
00000250: 1e67 023e 9d90 5b3e 0a6c 343e 279f 2b3c
00000260: 1d70 ef3d dbce 173e 824c 90bd ef12 ba3d
00000270: fa35 e8bd 0586 673e 922a 8c3d 8a97 b9bd
00000280: 4073 803e f1e6 c93d 1ce9 ab3d 5c90 143e
00000290: 4e21 633d c2b3 9cbd d1d6 663d ceb5 ff3d
000002a0: 3e99 b53d 377b 013e a083 fc3d b1f4 ac3d
000002b0: e31a 703e 3ccf 173d 4df7 dd3d 04fb 723e
000002c0: 127b fb3d 66cf 583e 7550 15be 4671 9fbd
000002d0: 6dda 563e dbec d53b 0a58 983c a600 873d
000002e0: 3781 a63d e4d1 e83d 7664 93bd da6a efbd
000002f0: 88b1 4abd 2eac 263e b964 103e 0fa3 6bbd
00000300: 6bb1 84be 7721 963d 0ee4 83bb 12ff 99bd
00000310: 9445 eabd 26d7 053e 5ab1 923c b446 e73c
00000320: cdee e13d 4fcd fcbd f2b5 13be 76a0 ca3d
00000330: 4ed3 d6bd d403 da3d 3daf 0cbe f9ec ff3d
00000340: f360 bcbc 9810 02bb bf87 8a3b 8c18 4fbc
00000350: dde0 0e3d adb9 d5bd 7129 99bd b025 27be
00000360: be19 b2bd 1ad2 423d 75bd 353e da7c 06be
00000370: a281 01bc d9c5 76bd 52f7 b13c d49d 87ba
00000380: 44c8 40bc 607f 2cbd 7798 d8bc 91bd a23d
00000390: 3858 963c ed59 53be ef15 053e 4427 64bd
000003a0: 4a68 293d 6266 febd 6053 b7bd 3f2f f83a
000003b0: 589a 5d3e 7219 47bd 6a52 b73d e5ce 00be
000003c0: 2a7f 0f3e c3b0 36bd 690c 333d d17e 2bbe
000003d0: 807a 01bc 4f6c 15be dc08 b9bc 884a 183d
000003e0: 62e2 53bd 4518 32be 10f4 203e 0d53 38bd
000003f0: b960 443e e89e 7abe 7176 033e eaec 0fbc
-0.0553103 -0.04346036 0.089858964 0.011738627 -0.013201172 0.1300076 0.06186579 0.0371566
-0.13468313 0.11572477 0.1771793 -0.15517397 -0.10457317 -0.068750374 0.23732969 -0.09162259
0.0047935075 0.058323286 0.09746951 0.04462672 -0.07265978 0.047223043 0.06723894 0.09294797
-0.053495068 0.03689714 -0.02122523 -0.09946091 0.0013742059 0.2141073 0.025620185 0.19722113
-0.059100125 0.2385958 0.04351499 -0.023856243 0.0051747616 0.026449567 0.023940504 0.018594379
0.11906191 0.0012236689 0.08881553 0.1192996 -0.06804075 0.14744875 -0.022839954 0.14764042
-0.022905916 0.0077421553 0.09323719 0.1936838 0.113771304 0.16224505 -0.222533 -0.02241753
0.019748637 0.16707404 -0.16557036 0.03362332 0.05689609 0.22186676 0.11123212 -0.050253626
0.08225478 0.11124899 0.024075055 -0.119121276 0.12163746 -0.08062055 0.043967657 0.092008755
0.118641 -0.025341308 -0.050577115 0.0142737 0.07209535 0.0777266 0.018633578 0.18102625
0.1287178 0.0031722444 -0.02763662 -0.060536973 -0.00031108333 -0.018190594 -0.04677744 -0.0068184384
0.23603784 0.15587245 -0.031811614 -0.12669173 -0.022960443 0.02436797 0.060043618 -0.067192286
0.05251924 -0.040564954 -0.045772854 0.085675545 0.18174459 0.040653452 0.1723456 0.17364357
-0.02072167 0.05567901 0.13914523 -0.0119080795 0.07962722 -0.28021112 0.21535069 -0.03778627
-0.0990241 0.10024732 -0.020132644 -0.006157683 0.06084859 -0.016755285 -0.07276664 0.16189918
-0.01044321 0.11316892 0.09160145 0.057522837 0.012686824 0.29648268 0.05613842 0.1740284
0.10945903 0.15808427 0.12248025 -0.120556176 -0.15255861 0.18206377 -0.069506906 0.22452755
0.19218495 0.26250756 0.19184656 -0.057672326 -0.14119226 0.002328113 -0.03476221 0.08999709
-0.03714064 -0.029068997 -0.034487978 0.11236392 0.12734649 0.21441884 0.17619339 0.010474957
0.11691306 0.14825003 -0.07045843 0.090856425 -0.1133842 0.22609718 0.06844057 -0.09062107
0.2508793 0.09858502 0.083940715 0.14508194 0.055451684 -0.076514736 0.05635721 0.12485848
0.08867119 0.12644659 0.12329793 0.08445109 0.23447756 0.03706287 0.108381845 0.23728567
0.12279333 0.21172866 -0.14581473 -0.07785277 0.2098176 0.0065284795 0.018596668 0.065919206
0.081301145 0.113681585 -0.07196896 -0.11690302 -0.049485713 0.16276619 0.14100923 -0.05752855
-0.2591661 0.07330602 -0.004024989 -0.07519354 -0.11439052 0.13070354 0.017906833 0.028231956
0.11031876 -0.12343847 -0.14424875 0.09893887 -0.10489522 0.106452614 -0.13738723 0.12496371
-0.022995448 -0.0019846316 0.004227608 -0.01264013 0.034882415 -0.104358055 -0.074786074 -0.1632297
-0.08696316 0.04756365 0.17748053 -0.13133565 -0.007904442 -0.060247276 0.021724377 -0.0010346719
-0.011766497 -0.04211366 -0.026439888 0.07946313 0.018352613 -0.20639773 0.12996648 -0.05570151
0.041359223 -0.12421872 -0.089514494 0.0018934979 0.21640909 -0.04860825 0.08951266 -0.12578924
0.14013353 -0.044602167 0.043713007 -0.16747595 -0.007902741 -0.14592098 -0.022587232 0.037180454
-0.051729567 -0.1739207 0.15718102 -0.04500108 0.19177522 -0.2447468 0.1283815 -0.008784512

sequential.2.bias f4 [20]
00000000: 1c18 803e 99c2 f83d 204d 1dbe b34b 193d
00000010: 48b4 113d 56c5 f4bd 34d9 703d 1a4d 42bd
00000020: 832f 833d aea0 c1bc c2d8 d73d 6864 f8bc
00000030: f1c4 86bd 3394 35be c25d 8fbd f1f3 36bd
00000040: cdd7 27bc 9797 743c 0923 f03d e14a f93d
0.25018394 0.121464916 -0.15361452 0.037425708 0.03557232 -0.11951701 0.05880089 -0.04743681
0.064055465 -0.023636188 0.1053939 -0.030321315 -0.06580532 -0.17732315 -0.07000305 -0.044666234
-0.010244322 0.01492872 0.117254324 0.12172485

final_convolution.weight f4 [1, 21, 1, 1]
00000000: ef11 5fbe 5a7a 96be 9305 a5bd aafc f53d
00000010: 1cd7 de3e a86a 5f3e 4215 e03b fe03 0d3e
00000020: ee9f 49bd 9ae4 7a3e 62f6 88bd 18c0 583e
00000030: eaf0 10be 108b 093e 813e 8bbc 1c4b e93d
00000040: d4dc 6f3d 8a84 263b 3994 943e b655 75bd
00000050: 4816 803e
-0.21784185 -0.29390222 -0.08057704 0.120110825 0.4352349 0.2181803 0.0068384716 0.13771054
-0.049224786 0.24501267 -0.06687619 0.21167028 -0.14154401 0.13431954 -0.016997578 0.11391279
0.058560207 0.002540859 0.29019335 -0.059896193 0.25017
