from_finrl-tutorials_git/data_1993_to_2024/train/v2_result/scribed/eiie_20241227_092457_reward_in_loss_ep10/checkpoint-6/policy_EIIE_6.pt (torch, 10948 bytes, 5 tensors)

sequential.0.weight f4 [2, 9, 1, 3]
0	0x3e2ab193	0.16669302
1	0x3db85b6f	0.090018146
2	0x3e5c65a6	0.21523151
3	0xbdb8a2f7	-0.09015458
4	0x3da3044a	0.079598024
5	0x3e5f6f8e	0.21819898
6	0x3e871d91	0.26389745
7	0xbe06be75	-0.13158591
8	0xbe065b8c	-0.1312086
9	0x3bc377e2	0.005965219
10	0x3d9d465d	0.07679436
11	0x3e66e2f7	0.22547518
12	0x3e88c1c9	0.26710346
13	0x3bd2d306	0.0064338474
14	0x3c71ed64	0.014766071
15	0x3ce41625	0.02784259
16	0xbdaf3d3f	-0.08556604
17	0x3cd93a7b	0.026517143
18	0x3e89aeeb	0.26891264
19	0x3e8a1971	0.26972535
20	0x3d5e92b5	0.05433913
21	0x3e1cc4e2	0.1530948
22	0x3cc9c9fb	0.024632445
23	0x3e61c1bc	0.2204656
24	0x3e58199e	0.21103522
25	0x3e2a1305	0.16608818
26	0xbdaea9b3	-0.08528461
27	0x3e6d73b7	0.23188673
28	0x3d3d5e92	0.046232767
29	0x3e858649	0.26079014
30	0x3e9c6b36	0.30550545
31	0xbdea742f	-0.114479415
32	0x3d3931a4	0.045213357
33	0x3e02562c	0.12728184
34	0x3e5f6b42	0.2181826
35	0x3ce7e8eb	0.028309306
36	0x3c8a5df8	0.01689051
37	0x3e2bf657	0.1679319
38	0x3d27979c	0.04091607
39	0x3ebd667d	0.36992255
40	0x3e846bd4	0.25863516
41	0x3e5c46fe	0.21511456
42	0x3e14daa6	0.14536533
43	0x3e6f2407	0.23353587
44	0x3e82a1e7	0.25514147
45	0x3ebff49b	0.37491307
46	0x3ea1a4b9	0.31570986
47	0x3e425df0	0.18981147
48	0x3e624f62	0.22100595
49	0x3c86edd9	0.016470836
50	0x3d7de251	0.06198341
51	0x3e543464	0.2072311
52	0x3ea6d197	0.3258178
53	0x3e55fc9c	0.20897144

sequential.0.bias f4 [2]
0	0x3e606116	0.21912035
1	0x3e10b528	0.14131606

sequential.2.weight f4 [20, 2, 1, 48]
0	0x3e0515f1	0.12996651
1	0xbd4511c5	-0.04811265
2	0xbe16a184	-0.14710051
3	0x3d9e1fa7	0.07720881
4	0x3e17d040	0.14825535
5	0x3e74ce39	0.23906793
6	0x3e0e43f3	0.13893108
7	0xbd5c97a8	-0.05385557
8	0x3cfb8d43	0.030707007
9	0xbd1a4f44	-0.03767325
10	0x3dc4852b	0.09595712
11	0xbe1e288e	-0.15445158
12	0x3d8a761d	0.067608096
13	0x3e6df7f1	0.23239113
14	0xbdbcd10c	-0.0921956
15	0x3e166975	0.14688666
16	0x3d8d77b1	0.06907595
17	0x3dc03ec0	0.093869686
18	0x3de04165	0.10949973
19	0x3d9ec509	0.07752425
20	0xbcebf289	-0.028802173
21	0x3ddf9811	0.10917676
22	0x3da90f22	0.082548395
23	0x3dc96189	0.098330565
24	0x3e3055e7	0.17220269
25	0xbd1f232b	-0.0388519
26	0x3e46e947	0.19424926
27	0x3d091ffc	0.03347777
28	0x3cf8d1a1	0.030373396
29	0x3d2fad26	0.042889737
30	0x3e64e783	0.2235394
31	0x3e566bae	0.20939514
32	0x3e8a06bb	0.2695826
33	0x3e465bab	0.19370906
34	0xbbc69600	-0.006060362
35	0x3e76ae19	0.2408985
36	0x3e50aa9c	0.20377582
37	0x3de077ee	0.10960375
38	0x3df7fed0	0.121091485
39	0x3ab92075	0.0014124053
40	0xbe269a2d	-0.16269751
41	0x3dc1e571	0.094675906
42	0x3c799464	0.015233133
43	0x3e3e37e5	0.1857601
44	0x3d95b23b	0.073093854
45	0xbdc57cc6	-0.09642939
46	0xbe652f52	-0.22381333
47	0x3e6a2890	0.22867036
48	0x3ddb73d4	0.10715452
49	0x3e0ba191	0.13635851
50	0x3cfabcdf	0.030607639
51	0x3caf72b6	0.021417003
52	0x3dcf0076	0.1010751
53	0x3e587f2c	0.21142262
54	0x3dcdf1ca	0.10055883
55	0x3d8e805b	0.069580756
56	0xbdf5b175	-0.11996738
57	0x3e84657a	0.2585867
58	0x3e5d9be2	0.21641496
59	0x3d3ad85e	0.0456165
60	0x3da67d78	0.081294
61	0x3e614957	0.22000633
62	0x3dc2f263	0.09518888
63	0x3ce97eb7	0.028502805
64	0x3d4c02ff	0.049807545
65	0x3d941c46	0.07231955
66	0x3dfc21a1	0.12311102
67	0x3e8b01e6	0.27149886
68	0xbc026851	-0.007959441
69	0x3deda2b0	0.11603296
70	0x3c446001	0.01198578
71	0x3e217bde	0.15769908
72	0xbc9f6ac2	-0.019460086
73	0x3d61cf34	0.055129245
74	0xbe0dc393	-0.13844137
75	0x3d3816cb	0.044943612
76	0x3e09d9b6	0.13461956
77	0x3ea17c26	0.3154003
78	0x3c13ea59	0.009028041
79	0x3ea34e17	0.31895515
80	0x3e98df04	0.29857647
81	0x3e871977	0.26386616
82	0x3e813eea	0.25243312
83	0x3e09f3ad	0.13471861
84	0x3db98628	0.090587914
85	0x3dac75a9	0.084208794
86	0x3d899d63	0.06719472
87	0xbdb34044	-0.08752492
88	0x3e36cbf6	0.17851242
89	0xbc6f3bfd	-0.014601705
90	0x3d4005d7	0.04688057
91	0x3db8ef8c	0.09030065
92	0x3e550468	0.20802462
93	0x3d906861	0.07051159
94	0x3e8207db	0.25396618
95	0x3dbfe8f8	0.09370607
96	0xbda17f72	-0.078856364
97	0xbe091564	-0.13387066
98	0x3c9a6cf5	0.018850783
99	0xbdd5f9f1	-0.10448063
100	0xbd999136	-0.074984
101	0xbdeeadd5	-0.116542496
102	0xbcd7f0a4	-0.026359864
103	0x3b70bdca	0.0036734217
104	0xbe0d2b3c	-0.13786024
105	0xbd8a877d	-0.067641236
106	0x3d7e33a8	0.062060982
107	0xbdadebbc	-0.084922284
108	0x3e0fdec2	0.14049819
109	0x3cb1d640	0.021708608
110	0xbcc3370e	-0.023829963
111	0xbdde0778	-0.10841268
112	0x3e0cc9e1	0.13748886
113	0x3dbec144	0.09314206
114	0x3c185e2b	0.009299795
115	0x3dddcfca	0.10830648
116	0xbcc29ff2	-0.023757908
117	0xbe05aa9d	-0.13053365
118	0xbca8d1a1	-0.020607771
119	0xbd77302c	-0.060348675
120	0x3d94f18d	0.07272635
121	0xbd65a98c	-0.056069896
122	0x3e2a2424	0.16615349
123	0xbdee0c26	-0.11623411
124	0xbd862b29	-0.06551201
125	0xba706fa7	-0.0009171911
126	0xbccddaa5	-0.025128672
127	0xbcf9392c	-0.03042277
128	0xbce5d7eb	-0.02805706
129	0xbe446e21	-0.19182636
130	0x3d58a90c	0.05289559
131	0x3e3bbc1e	0.1833348
132	0xbc9d28cc	-0.019184493
133	0x3dccce53	0.10000291
134	0xbe059f02	-0.13048938
135	0xbdba7dbb	-0.091060124
136	0xbcc07d66	-0.023497295
137	0xbe0c6dce	-0.13713762
138	0xbdadeb39	-0.08492131
139	0x3bcbf55f	0.006224319
140	0xbd9f7f46	-0.07787947
141	0xbde273a3	-0.11057212
142	0xbdf39eb3	-0.11895504
143	0x3d0941a0	0.03350985
144	0xbcd2eebe	-0.025748607
145	0xbe55d562	-0.2088218
146	0xbcb76487	-0.022386802
147	0xbe38bf24	-0.18041664
148	0x3e0999d7	0.13437591
149	0xbb1d690f	-0.0024018919
150	0xbd8db484	-0.06919196
151	0xbc50ec02	-0.012751581
152	0xbe1043d5	-0.14088376
153	0xbdb80f17	-0.08987253
154	0xbd9d281a	-0.076736644
155	0x3dda5808	0.10661322
156	0xbca798e9	-0.020458655
157	0x3d990503	0.07471659
158	0xbd25a037	-0.040435996
159	0xbb18ad4f	-0.002329666
160	0x3d9c836e	0.07642256
161	0xbe065453	-0.13118105
162	0xbbebc2ac	-0.0071948376
163	0xbe14c880	-0.1452961
164	0xbda09bc4	-0.0784221
165	0x3ce1b657	0.027552767
166	0x3d92e7e8	0.07173139
167	0xbd54abe2	-0.051921733
168	0xbd434d3d	-0.047681082
169	0x3b76ce37	0.0037659535
170	0xbe760963	-0.24027018
171	0x3e02dd01	0.12779619
172	0xbd8d19d5	-0.06889693
173	0xbdf6e198	-0.12054747
174	0xbd8eae5e	-0.06966852
175	0x3d2d9f98	0.04238853
176	0xbd8fc127	-0.07019263
177	0x3cd34da4	0.025793858
178	0x3d2c12d8	0.04201016
179	0x3e159fa2	0.14611676
180	0xbd44575f	-0.047934886
181	0xbe142d9f	-0.14470528
182	0x3d7d3982	0.06182242
183	0x3cb630ef	0.02224013
184	0x3ca299f6	0.019848805
185	0x3c3e044e	0.011597706
186	0xbc77be52	-0.0151210595
187	0xbd316dc6	-0.04331758
188	0xbe11f766	-0.14254531
189	0xbd65c9b8	-0.056100577
190	0x3d800b83	0.06252196
191	0xbcba5be5	-0.022748897
192	0xbd3675b8	-0.04454586
193	0xbdab7378	-0.08371633
194	0xbd96a3c9	-0.07355458
195	0xbd04d5c6	-0.032430433
196	0x3d9948ab	0.074845634
197	0x3e3f1e82	0.18663982
198	0x3dc0d44d	0.09415493
199	0xbd9bd202	-0.07608415
200	0xbd286790	-0.04111439
201	0x3d8708d6	0.06593482
202	0x3e7d69e4	0.24747425
203	0xbe10cff6	-0.14141831
204	0x3e07e637	0.13271414
205	0x3d3a02f5	0.045412976
206	0x3e452e87	0.1925603
207	0x3e82f9c7	0.2558119
208	0x3e88bd81	0.2670708
209	0x3e04c383	0.12965207
210	0x3e4c998f	0.19980453
211	0x3e74fc53	0.23924379
212	0x3dbcf863	0.092270635
213	0xbb81fec1	-0.0039671366
214	0x3dd15161	0.102206
215	0x3ddccd4b	0.10781344
216	0xbda9fb8d	-0.08299933
217	0xbe2ff94c	-0.17184943
218	0xbe653f63	-0.22387461
219	0x3d954517	0.072885685
220	0x3d13532e	0.035968
221	0xbd30159b	-0.042989355
222	0x3e2f49d9	0.17118014
223	0x3e37fb82	0.17967036
224	0x3ded21ab	0.11578687
225	0x3d8abf24	0.067747384
226	0x3d7c4065	0.06158485
227	0x3dfd82d6	0.123784706
228	0x3e7999d8	0.24375093
229	0x3e445aba	0.19175234
230	0x3c64d375	0.013966431
231	0xbe567618	-0.20943487
232	0x3d9a8b09	0.0754605
233	0x3dc470e0	0.09591842
234	0x3d9847b9	0.07435555
235	0x3da53873	0.080674075
236	0x3df795ad	0.12089095
237	0x3d878141	0.0661645
238	0xbdca4b89	-0.098776884
239	0x3e8c5a8f	0.2741284
240	0x3e067b43	0.13132958
241	0x3d137321	0.035998467
242	0x3e67e379	0.22645368
243	0x3ca85910	0.02055028
244	0x3e31f99b	0.17380373
245	0x3e2a76f8	0.16646945
246	0x3e7843c3	0.24244599
247	0x3e158a29	0.14603485
248	0x3d62daeb	0.055384558
249	0x3dcb5b89	0.09929568
250	0x3dab5957	0.083666496
251	0x3e9f8d63	0.31162557
252	0x3e2c07bf	0.1679983
253	0x3e454541	0.192647
254	0x3e0c70c5	0.13714893
255	0x3e846a00	0.25862122

sequential.2.bias f4 [20]
0	0x3e6b217f	0.22961996
1	0xbcdfa636	-0.027300935
2	0x3e0ac1e2	0.13550523
3	0x3e43bf38	0.19115913
4	0xbe24dc6f	-0.16099714
5	0x3e054a10	0.13016534
6	0x3e1efef0	0.15526938
7	0x3d733641	0.059377912
8	0x3d350620	0.044195294
9	0xbd6b743e	-0.057483904
10	0xbe7fa8e5	-0.24966772
11	0x3e05d798	0.13070524
12	0xbe6ac8f2	-0.22928217
13	0xbca0cfc7	-0.019630326
14	0xbdb64037	-0.08898967
15	0x3997bd7c	0.0002894214
16	0x3e89b7b3	0.26897964
17	0xbe1d7050	-0.15374875
18	0x3e8485bb	0.25883278
19	0x3dcdaed2	0.1004311

final_convolution.weight f4 [1, 21, 1, 1]
0	0xbe44cce0	-0.19218779
1	0xbe567b0c	-0.20945376
2	0xbe039355	-0.12849171
3	0xbddd2317	-0.107977085
4	0xbea37fbc	-0.3193339
5	0xbcbe401a	-0.023223925
6	0xbe315a28	-0.17319548
7	0xbe9fecab	-0.3123525
8	0x3de800ed	0.113283016
9	0x3dbb3c28	0.09142333
10	0xbe4f6bb5	-0.2025593
11	0xbdc1b172	-0.09457673
12	0x3e0a14a4	0.13484436
13	0xbc595c38	-0.013266616
14	0x3e84fa94	0.25972426
15	0x3d207f3a	0.039183833
16	0xbc5e4b7a	-0.0135678
17	0xbeb20747	-0.34771177
18	0x3dce8556	0.100840256
19	0xbe916e76	-0.28404588
20	0x3e8a1aee	0.2697367
