from_finrl-tutorials_git/data_1993_to_2024/train/v2_result/eiie_20250103_092947_turbulence_ep500_deficit/checkpoint-490/policy_EIIE_490.pt (torch, 10968 bytes, 5 tensors)

sequential.0.weight f4 [2, 9, 1, 3]
00000000: 2a89 d53c d475 4dbd ac93 ad3a 394b 8abd
00000010: 15f4 9c3d 3ab9 a4bc 0c3c de3b 727e d73d
00000020: 587d f9bc 135a b43d 50f0 ec3d 343d ecbc
00000030: ca7e 44bd 2a01 953c b820 ef3c 797d 57bd
00000040: e50a 31bd c2d1 a03b 7612 efbb 6425 c8bc
00000050: 4d86 57bd e189 0abd c22f 3bbd ec0b 37bd
00000060: 1f20 a43c ae93 073d 5ecf 0bbc 21a4 9bbb
00000070: a0c6 5abd fec0 8a3b a32e a7bb 7e28 ab3c
00000080: 681a 5cbd 26cc e8bc 748d 32bd 1e5b 00bd
00000090: b6d0 8abb 04f1 59bd 6367 80bc cdae 41bd
000000a0: fe6f f83c f8f3 78bb c06a a53c ad31 d7bc
000000b0: 0203 1cbb a7a2 f7bc 9893 a03c 6795 22bd
000000c0: 6a1c 993c 5a50 77bd 26da c13c ad58 a0bc
000000d0: 47c1 d53c 6336 72bd
0.026066381 -0.050161198 0.0013242862 -0.06752629 0.076637425 -0.020107854 0.0067820605 0.105221644
-0.030455276 0.08806243 0.115692735 -0.028837778 -0.047972478 0.018189032 0.029190406 -0.052609894
-0.04322328 0.0049078176 -0.007295902 -0.024431892 -0.052618314 -0.033822898 -0.045699842 -0.044689104
0.020034848 0.033099823 -0.008533327 -0.0047497903 -0.05341208 0.0042344322 -0.005101995 0.020893332
-0.05373612 -0.028417658 -0.04359193 -0.031336896 -0.004236306 -0.053208366 -0.015674299 -0.047285844
0.03032684 -0.0037987214 0.020192504 -0.026268804 -0.0023805504 -0.030228926 0.019601628 -0.039693262
0.018690307 -0.060379364 0.023663592 -0.019573534 0.026093138 -0.0591339

sequential.0.bias f4 [2]
00000000: d952 9dbc e205 423c
-0.019204544 0.011842223

sequential.2.weight f4 [20, 2, 1, 48]
00000000: 7374 64bd 15eb 84bd 30bd 69bd f97c 2dbd
00000010: 3211 2dbd d4c1 9abc a050 8fbc 843d 2ebd
00000020: 27f0 063d a2cc 06bd 7a94 2cbd 8d54 8dbb
00000030: aeba 63bc d873 acbc e5d1 253d 5602 46bd
00000040: 49b6 863d 4622 25bd cb42 0fbd 2f74 c1bc
00000050: ebe7 70bd e85b 41bd 7024 2dbd d0e3 9cbc
00000060: ef29 a4bc d5f6 82bd c01e bfbc 40c8 2f3d
00000070: e77d 10bd 427a 0abd 1b7d 09bd 9462 0dbd
00000080: dbb7 6cbd 7bbe 22bd 2f94 5e3d a4f2 313d
00000090: 8949 55bd 420d 59bc 90a7 46bd bf91 20bd
000000a0: 88d8 173d 0813 56bd c44a 4fbd c1e7 96bc
000000b0: ab14 52bd ed94 86bc 3dbf 06bd bde6 34bd
000000c0: 347f a4bc 794b b23c 5995 ff3c f3e8 fbbc
000000d0: 6534 ecb8 6e8d 34bd b5f3 a5bc 2dd2 b9bc
000000e0: 4204 dfbb bbd7 a73b f530 0abd b224 9d3b
000000f0: ecef a9bb f2fb e4bc 0a9c 1c3c 4f51 a83c
00000100: bb4e 593d b970 f9bc e8cc 1e3d e516 5dbb
00000110: 754d be3c 464e 78bb fbe1 0a3d 3824 533c
00000120: 6adb 1c3c b0c3 bd3c 3f31 e03c 7a6c a83c
00000130: 6cec 09bc 29c7 09bd 0bc5 113c 10a4 643b
00000140: 175f cd3a 8167 87bb 2c6d 12bd caad 193d
00000150: 0dd1 19bb d764 e63c 33f5 76bc 11e8 063d
00000160: 145b a6bb 4f64 9e3c 694e 473b 8c74 b2bc
00000170: 3d66 37bc 9416 1c3d cd29 06bd 7862 cdbb
00000180: 9413 5e3c 3e86 3c3c 56da 86bc 6127 363d
00000190: 2077 7c3c 123b eb3c d377 81bc ab88 d8bc
000001a0: 0b68 00bc e517 263d a73a 3a3d 3c1c 713d
000001b0: 70eb 123d c404 963d 6303 85bc 8397 c53c
000001c0: 50d3 00bd 61eb aebc 0b67 1a3d 5f45 523d
000001d0: af48 063d 0475 e53c 61ff 693d e569 553d
000001e0: 2c66 3f3d bb2b 123d 58d6 80bc ba3c 3fbc
000001f0: 2531 653d 30b5 bb3c 3b4c e2bb 6042 393d
00000200: a56e bcbc adda cfbc 0b4c 02bd e886 1fbd
00000210: 9234 70bd 7415 bc3a aa4b f33b 7259 51bb
00000220: bed6 01bd f44a 68bd cea7 853d 1c35 a23d
00000230: dfba abbc 7e25 a1bc e274 813d 6717 ea3c
00000240: 3257 8e3b 9f72 143b 46d0 32bd 23b5 733c
00000250: 7325 c338 3d26 3e3c 60e8 3d3c dc2a d13c
00000260: 6b0d e93b bea1 893b fbb0 1d3d 1a5d a9ba
00000270: f935 5ebb fcd6 823d 3849 fd3b 8b13 85bc
00000280: b913 06bd 756a c83c 4599 2dbc 6349 113d
00000290: 1d5e 0a3c dfa5 9bba a828 0fbd a008 09bc
000002a0: 3107 443a 1a53 7dbc 3fec d13c 7c96 3abb
000002b0: dad5 e8bb f433 14bc 8321 1a3d 141c 1a3d
000002c0: 028a 0dbc 6fe6 63bc aec1 ee3c 8aab 8abd
000002d0: 2368 203d 7128 803c 648b 153d 1932 4ebc
000002e0: e821 c1bc ef04 d63c 6871 1e3d 0000 8b3c
000002f0: 9afd 13bb 6e94 e0bc 9fb0 5c3d a2fd d63a
00000300: 0913 2fbd 80db 2cbd 4f1d 38bd 02c8 b8bc
00000310: 0678 e4bc b1a9 5cbd f3a8 13bd 8a61 353d
00000320: 1653 2dbd d31b 40bd 8349 69bc 9be3 183c
00000330: 0487 9a3b 2021 2abd 858c 323c b7ea 1abd
00000340: ae35 e7bc 2206 183c 1ab7 243d fcd5 9a3b
00000350: c8c2 593b 9a10 96bc 9b30 5abd 561d 9fbc
00000360: c59b 55bc 065e 3bbd 96c6 82bc 35f0 dabc
00000370: 3dd2 55bd 296c b1bc 6f6c 41bd 0592 c0bc
00000380: d98d 37bd de86 a1bc 8487 83bd ccd1 41bd
00000390: e084 46bd d5bf 98bc e57a f9bc dc7c e5bc
000003a0: 530b 343d 6c10 0ebd 3721 43bd d3e2 183d
000003b0: 8a03 cd3c 62be 2dbc 7855 3cbd e34c 003c
000003c0: 839c 943c d077 ae3c fbdb d93b 2b60 27bb
000003d0: 7490 a5bc 1e8e 73bc 81de 243c 0322 713d
000003e0: 6be5 0d3d 6b1b 2fbd a40e b8bc eb08 973b
000003f0: 5f83 393c 5a94 4cbd 6e6a e33c fb02 943c
-0.055775117 -0.06490151 -0.05706519 -0.04235551 -0.042252727 -0.018891253 -0.0174945 -0.042539135
0.03294387 -0.032909997 -0.042133786 -0.0043130578 -0.013899488 -0.021051332 0.040483374 -0.04834207
0.06577737 -0.04031589 -0.034975808 -0.023614971 -0.058814924 -0.04720679 -0.042271078 -0.019151598
-0.020039527 -0.06394736 -0.023330092 0.042915583 -0.03527632 -0.033808 -0.033566575 -0.03451784
-0.057792526 -0.039732438 0.054340538 0.04344429 -0.05207208 -0.01324779 -0.048499644 -0.039201494
0.037071735 -0.052264243 -0.05060841 -0.018421056 -0.05128924 -0.016428435 -0.032897223 -0.04416536
-0.020080186 0.021764504 0.031199144 -0.030750727 -0.00011263116 -0.04408019 -0.02025781 -0.022683227
-0.0068059275 0.0051221526 -0.033738095 0.004795634 -0.0051860716 -0.027952168 0.009558687 0.020546583
0.0530536 -0.030449258 0.038769633 -0.003373557 0.023230294 -0.0037888451 0.033906918 0.012887053
0.009573797 0.0231646 0.027367232 0.020559538 -0.008418184 -0.0336372 0.008897076 0.0034887828
0.0015668598 -0.0041322117 -0.035748646 0.037519254 -0.0023470551 0.028124256 -0.0150731085 0.03293616
-0.0050767753 0.01933494 0.0030411726 -0.02178409 -0.011193809 0.03810747 -0.032754708 -0.006267842
0.0135544725 0.011506615 -0.016461533 0.04447115 0.015409261 0.02871469 -0.015804207 -0.026432356
-0.007837306 0.04055013 0.04546609 0.058864817 0.035869062 0.07325128 -0.016236966 0.024120098
-0.031451523 -0.021352472 0.037695926 0.05133569 0.03278416 0.028009899 0.057128314 0.052102942
0.046728298 0.035686236 -0.015727207 -0.011672193 0.05595507 0.022913545 -0.00690606 0.045229316
-0.023001978 -0.025372827 -0.0318108 -0.038947016 -0.058643885 0.0014349655 0.0074247913 -0.0031944183
-0.031698935 -0.056712106 0.06526147 0.07920286 -0.02096313 -0.019671198 0.06321122 0.028575612
0.0043438906 0.0022651327 -0.043655656 0.014874729 9.3053e-05 0.011605796 0.011591047 0.025533132
0.0071121952 0.0042001894 0.03849886 -0.0012921423 -0.0033906682 0.06388661 0.0077296756 -0.01624467
-0.032733653 0.024464825 -0.010595624 0.035470378 0.00844529 -0.0011874995 -0.034950882 -0.008363873
0.0007477878 -0.0154617075 0.025625346 -0.0028471043 -0.007105571 -0.00904559 0.037629616 0.037624434
-0.008638861 -0.01390992 0.029145088 -0.06771 0.039161813 0.015644284 0.036509886 -0.012585186
-0.023575738 0.0261254 0.03868237 0.016967773 -0.0022581578 -0.027414527 0.053879377 0.0016402493
-0.042742763 -0.04220152 -0.044949826 -0.022556309 -0.027889263 -0.053872768 -0.036049794 0.044282474
-0.042315565 -0.046901535 -0.014238718 0.009331609 0.004715802 -0.041535497 0.01089776 -0.037821498
-0.028223839 0.009278806 0.04021368 0.004725216 0.003322767 -0.018318463 -0.05326901 -0.019423168
-0.013037627 -0.045743965 -0.015963834 -0.026725868 -0.052202452 -0.02165802 -0.04722255 -0.023507128
-0.04481301 -0.01971763 -0.06422332 -0.04731922 -0.048466563 -0.01864616 -0.030454108 -0.02801364
0.043956112 -0.03468363 -0.047639098 0.03732569 0.025026102 -0.010604473 -0.045979947 0.007830831
0.018141037 0.021297365 0.006648538 -0.0025539498 -0.020210482 -0.014865426 0.010062815 0.058870327
0.03464262 -0.042750757 -0.022467919 0.0046092174 0.011322825 -0.049946167 0.02776071 0.018067827

sequential.2.bias f4 [20]
00000000: 04fb 7b3c 59a2 183d c2f7 003c 0eb0 493a
00000010: e8c7 813b dae8 30ba 07b2 4c3d 4c0e 93bb
00000020: 0690 533d cea3 033d acc7 053c 80fd 42bb
00000030: 4e19 ec3c e239 99bc 762d fb3b 5d78 833b
00000040: 6ab6 483c e5ae eabc d57e ed3b 646a d53b
0.015379671 0.0372642 0.00787157 0.00076937757 0.0039605983 -0.0006748565 0.049974468 -0.0044877883
0.051651023 0.03213864 0.008165281 -0.0029753149 0.02882066 -0.018704358 0.0076653315 0.004012151
0.012250522 -0.02864785 0.0072477856 0.006512927

final_convolution.weight f4 [1, 21, 1, 1]
00000000: 72b3 fb3c 99c7 25bd 609e 0d3d aaa2 0fbd
00000010: 8a8a f03b e6ea 183d 2722 1ebd 2b06 bf3c
00000020: e411 a5bd da83 843c d868 59bd 4469 46bd
00000030: 6446 56bd 59a7 883d 07ea 173d a60d 5abd
00000040: 9d84 e1bc 8668 643c 5c76 063b b8d5 80bc
00000050: 1cbb 2fba
0.030725215 -0.040473554 0.034574866 -0.035067238 0.007340734 0.03733339 -0.03860679 0.02331837
-0.08060053 0.016176153 -0.053078502 -0.048440233 -0.052313223 0.06672544 0.03708842 -0.053235672
-0.027529055 0.013940936 0.0020517325 -0.015726909 -0.00067036017
