from_finrl-tutorials_git/data_1993_to_2024/train/v2_result/eiie_20250103_092947_turbulence_ep500_deficit/checkpoint-287/policy_EIIE_287.pt (torch, 10968 bytes, 5 tensors)

sequential.0.weight f4 [2, 9, 1, 3]
0	0x3d4061db	0.046968322
1	0xbdb91b5b	-0.09038421
2	0x3b1c61bf	0.0023861972
3	0xbdf93016	-0.12167375
4	0x3e0d67b9	0.13809098
5	0xbd1467cc	-0.0362318
6	0x3c483821	0.012220413
7	0x3e422577	0.18959604
8	0xbd60c634	-0.05487652
9	0x3e227c5f	0.15867756
10	0x3e557780	0.20846367
11	0xbd54d61d	-0.051962007
12	0xbdb107a6	-0.08644037
13	0x3d063e6c	0.032774374
14	0x3d577063	0.052597415
15	0xbdc2249c	-0.09479639
16	0xbd9f8109	-0.077882834
17	0x3c10e363	0.008843276
18	0xbc57639f	-0.01314631
19	0xbd3451af	-0.044023212
20	0xbdc22c8a	-0.094811514
21	0xbd79a114	-0.06094463
22	0xbda8a4a0	-0.08234525
23	0xbda4e9d2	-0.0805241
24	0x3d13ddde	0.03610026
25	0x3d744ad7	0.059641685
26	0xbc7beb7d	-0.015375969
27	0xbc0c3908	-0.008558519
28	0xbdc51a7b	-0.096241914
29	0x3bfa0453	0.00762991
30	0xbc169edc	-0.009193148
31	0x3d1a33d9	0.037647102
32	0xbdc64c88	-0.09682566
33	0xbd51bc6b	-0.05120508
34	0xbda0dd4f	-0.07854711
35	0xbd6747f9	-0.056465123
36	0xbbfa20a6	-0.0076332865
37	0xbdc459f7	-0.09587472
38	0xbce75e0e	-0.028243091
39	0xbdae7eff	-0.08520316
40	0x3d5fd3a1	0.054645184
41	0xbbe04a70	-0.006844811
42	0x3d1507bd	0.036384333
43	0xbd41e050	-0.04733306
44	0xbb8c8e89	-0.0042894525
45	0xbd5f1a8e	-0.054468684
46	0x3d10ab55	0.035319645
47	0xbd927a45	-0.07152227
48	0x3d09f17b	0.03367756
49	0xbdded062	-0.108795896
50	0x3d2ea60a	0.042638816
51	0xbd107646	-0.035269044
52	0x3d409464	0.047016516
53	0xbdda37d2	-0.10655178

sequential.0.bias f4 [2]
0	0xbd0dbd14	-0.034604147
1	0x3caecd74	0.021338202

sequential.2.weight f4 [20, 2, 1, 48]
0	0xbdcdd2c5	-0.10049967
1	0xbdef807e	-0.1169443
2	0xbdd2957b	-0.102824174
3	0xbd9c4d4c	-0.07631931
4	0xbd9bec2d	-0.07613406
5	0xbd0b6d2b	-0.034039658
6	0xbd011e1c	-0.031522855
7	0xbd9cfac2	-0.07665016
8	0x3d732436	0.059360705
9	0xbd72e422	-0.059299596
10	0xbd9b7bd4	-0.07591978
11	0xbbfea8bf	-0.007771581
12	0xbccd2b80	-0.025045156
13	0xbd1b5e6b	-0.03793184
14	0x3d9564ac	0.07294592
15	0xbdb264c9	-0.087106295
16	0x3df2bbe7	0.11852246
17	0xbd94c676	-0.07264416
18	0xbd8111b3	-0.06302204
19	0xbd2e4a2e	-0.042551212
20	0xbdd90a82	-0.10597707
21	0xbdae3444	-0.085060626
22	0xbd9bfd86	-0.07616715
23	0xbd0d5910	-0.034508765
24	0xbd13e6b1	-0.036108676
25	0xbdebfb1a	-0.11522503
26	0xbd2c2fe9	-0.04203788
27	0x3d9e5e60	0.07732844
28	0xbd822d90	-0.063563466
29	0xbd7984e1	-0.06091774
30	0xbd77bcb7	-0.060482707
31	0xbd7ec20a	-0.06219677
32	0xbdd544b7	-0.10413497
33	0xbd929f41	-0.071592815
34	0x3dc88789	0.09791476
35	0x3da051d5	0.07828108
36	0xbdc0288c	-0.09382734
37	0xbcc38cc3	-0.023870831
38	0xbdb2f9a0	-0.087390184
39	0xbd90a9ab	-0.070636116
40	0x3d88cdb0	0.06679857
41	0xbdc0de0d	-0.09417353
42	0xbdbac1c8	-0.09118992
43	0xbd07f4c1	-0.0331924
44	0xbdbd44ff	-0.092416756
45	0xbcf27fc7	-0.029601945
46	0xbd72cc10	-0.05927664
47	0xbda2fb07	-0.07958036
48	0xbd14338f	-0.036181983
49	0x3d20a1df	0.039216872
50	0x3d6643b1	0.0562169
51	0xbd62f46c	-0.05540888
52	0xb954ce30	-0.00020294706
53	0xbda2aa9c	-0.079426974
54	0xbd158328	-0.036502033
55	0xbd2769b8	-0.040872306
56	0xbc48ec7e	-0.012263415
57	0x3c173734	0.00922947
58	0xbd7900cb	-0.06079177
59	0x3c0d9384	0.0086411275
60	0xbc191a44	-0.009344641
61	0xbd4e4cdc	-0.050366268
62	0x3c8d1860	0.017223537
63	0x3d17a4be	0.037022345
64	0x3dc3c7bf	0.09559583
65	0xbd60bad4	-0.054865673
66	0x3d8f11b6	0.069858
67	0xbbc73014	-0.0060787294
68	0x3d2b7357	0.041858044
69	0xbbdfb529	-0.006827016
70	0x3d7a3fc3	0.061095964
71	0x3cbe39a0	0.023220837
72	0x3c8d517f	0.017250774
73	0x3d2af737	0.04173967
74	0x3d49fba6	0.049312256
75	0x3d17bd34	0.037045673
76	0xbc78854c	-0.015168499
77	0xbd784229	-0.06060997
78	0x3c835447	0.016031398
79	0x3bcdfdaf	0.006286345
80	0x3b3906d6	0.0028232834
81	0xbbf3fb4c	-0.0074457284
82	0xbd83ebc3	-0.06441452
83	0x3d8a7473	0.06760492
84	0xbb8a9437	-0.0042290944
85	0x3d4f9202	0.050676353
86	0xbcde7e42	-0.027159814
87	0x3d731597	0.05934676
88	0xbc15e040	-0.009147704
89	0x3d0eb374	0.03483911
90	0x3bb39001	0.005479813
91	0xbd20c6e3	-0.039252173
92	0xbca53b3a	-0.020169843
93	0x3d8ca023	0.06866481
94	0xbd71bed6	-0.059019886
95	0xbc3909db	-0.011293854
96	0x3cc813ab	0.02442344
97	0x3ca9d943	0.020733481
98	0xbcf2fcdb	-0.029661587
99	0x3da41be3	0.080131315
100	0x3ce3748b	0.027765533
101	0x3d53edad	0.051740337
102	0xbce94911	-0.028477224
103	0xbd431561	-0.04762781
104	0xbc675f43	-0.014121833
105	0x3d95a3be	0.07306622
106	0x3da7c7dc	0.08192417
107	0x3dd9399a	0.1060669
108	0x3d845d8e	0.06463157
109	0x3e072840	0.13198948
110	0xbcefac5d	-0.029256994
111	0x3d320488	0.043461353
112	0xbd68208d	-0.056671668
113	0xbd1d9764	-0.038474455
114	0x3d8b1b59	0.067923255
115	0x3dbd70e0	0.09250045
116	0x3d71f681	0.059072975
117	0x3d4eb9ec	0.050470278
118	0x3dd2d122	0.10293795
119	0x3dc045a7	0.09388285
120	0x3dac703a	0.08419843
121	0x3d83b0d7	0.06430214
122	0xbce82613	-0.028338468
123	0xbcac4ae8	-0.021031812
124	0x3dce7ce0	0.10082412
125	0x3d291ce0	0.041287303
126	0xbc4be14a	-0.01244385
127	0x3da6e827	0.08149748
128	0xbd29c3fb	-0.041446667
129	0xbd3b4379	-0.045718644
130	0xbd6ac75c	-0.05731903
131	0xbd8fb943	-0.07017758
132	0xbdd868e9	-0.10566885
133	0x3b29739a	0.0025856257
134	0x3c5b31b5	0.01337855
135	0xbbbc9c4d	-0.005755937
136	0xbd69f408	-0.057117492
137	0xbdd147f8	-0.10218805
138	0x3df0d491	0.11759294
139	0x3e12237d	0.1427135
140	0xbd1ab7c3	-0.037772905
141	0xbd112ec5	-0.035444994
142	0x3de943bc	0.113898724
143	0x3d52e6c6	0.051489614
144	0x3c003d62	0.007827135
145	0x3b85bdef	0.0040814797
146	0xbda11983	-0.07866194
147	0x3cdb90ba	0.02680241
148	0x392fd07b	0.00016766966
149	0x3cab5000	0.02091217
150	0x3cab184e	0.020885613
151	0x3d3c7253	0.046007466
152	0x3c51f73e	0.012815295
153	0x3bf7feb5	0.0075682052
154	0x3d8e11e9	0.0693701
155	0xbb189607	-0.0023282783
156	0xbbc832a9	-0.006109555
157	0x3debc1af	0.115115516
158	0x3c6431d3	0.013927895
159	0xbcefc968	-0.029270843
160	0xbd719706	-0.058981918
161	0x3d348fe1	0.044082526
162	0xbc9c66c6	-0.019091975
163	0x3d82e4e3	0.06391313
164	0x3c79522e	0.015217347
165	0xbb0c3aa3	-0.0021397255
166	0xbd80fa20	-0.062977076
167	0xbc76ead7	-0.015070639
168	0x3ab09bdf	0.0013474188
169	0xbce43ab4	-0.027860023
170	0x3d3d2097	0.04617366
171	0xbba81a8e	-0.0051301187
172	0xbc51c51a	-0.01280334
173	0xbc85858f	-0.016299037
174	0x3d8adcb8	0.0678038
175	0x3d8ad7d1	0.06779445
176	0xbc7f0930	-0.015566155
177	0xbccd52cf	-0.0250639
178	0x3d571ab6	0.052515708
179	0xbdf9ddaa	-0.12200482
180	0x3d90842e	0.07056461
181	0x3ce6ec9c	0.028188996
182	0x3d86baee	0.06578623
183	0xbcb9c4ea	-0.022676904
184	0xbd2e0010	-0.04248053
185	0x3d40d162	0.047074683
186	0x3d8ebf46	0.06970076
187	0x3cfa75e5	0.030573795
188	0xbb855484	-0.004068913
189	0xbd4a5504	-0.049397483
190	0x3dc6d3ed	0.097083904
191	0x3b41b167	0.0029555203
192	0xbd9dbb25	-0.077017106
193	0xbd9bbbd0	-0.07604182
194	0xbda5e020	-0.08099389
195	0xbd2679f0	-0.040643632
196	0xbd4dd5fa	-0.050252892
197	0xbdc6cda5	-0.09707192
198	0xbd850843	-0.064957164
199	0x3da369a3	0.07979133
200	0xbd9c278d	-0.07624731
201	0xbdad13e2	-0.08451058
202	0xbcd22d5b	-0.025656393
203	0x3c89be4f	0.016814379
204	0x3c0b382e	0.008497281
205	0xbd99469e	-0.07484172
206	0x3ca0dc81	0.019636394
207	0xbd8b9202	-0.06814958
208	0xbd504e22	-0.050855763
209	0x3c88f6c4	0.01671923
210	0x3d9465e1	0.07245994
211	0x3c0b7f4f	0.008514239
212	0x3bc4304d	0.005987203
213	0xbd0732f8	-0.033007592
214	0xbdc49354	-0.09598413
215	0xbd0f5a28	-0.03499809
216	0xbcc072af	-0.023492185
217	0xbda8ce62	-0.082424894
218	0xbceba423	-0.02876479
219	0xbd453fdf	-0.048156615
220	0xbdc0a3b6	-0.094062254
221	0xbd1fd8af	-0.039025005
222	0xbdae4330	-0.08508909
223	0xbd2d7e60	-0.04235685
224	0xbda55eeb	-0.08074745
225	0xbd118681	-0.035528664
226	0xbdecffcc	-0.11572227
227	0xbdae9e89	-0.08526332
228	0xbdb2da6d	-0.08733068
229	0xbd099e17	-0.03359803
230	0xbd60c423	-0.05487455
231	0xbd4ec0fa	-0.050477006
232	0x3da2355a	0.07920332
233	0xbd7ffb5e	-0.06249558
234	0xbdafcca9	-0.08583958
235	0x3d89bda4	0.06725624
236	0x3d38b44f	0.04509383
237	0xbc9c8836	-0.01910792
238	0xbda9ad5a	-0.08285017
239	0x3c672e4c	0.014110159
240	0x3d05e3ae	0.032687835
241	0x3d1d2f41	0.038375143
242	0x3c444719	0.011979842
243	0xbb96cb79	-0.0046018925
244	0xbd1529bc	-0.036416754
245	0xbcdb6d80	-0.026785612
246	0x3c948967	0.018131925
247	0x3dd93ecc	0.10607681
248	0x3d7fadca	0.062421598
249	0xbd9dc2a7	-0.077031426
250	0xbd25d2ed	-0.040484358
251	0x3c0812a2	0.008305224
252	0x3ca722c1	0.020402314
253	0xbdb8502d	-0.08999667
254	0x3d4ce323	0.050021302
255	0x3d055962	0.032555945

sequential.2.bias f4 [20]
0	0x3ce304c2	0.02771223
1	0x3d898380	0.06714535
2	0x3c68622a	0.01418356
3	0x3ab5b531	0.0013863203
4	0x3be9d95c	0.007136507
5	0xba9f6267	-0.0012160063
6	0x3db86ae4	0.09004763
7	0xbc047ced	-0.008086425
8	0x3dbe9abe	0.093068585
9	0x3d6d32bc	0.057909712
10	0x3c710df9	0.014712804
11	0xbbafac7d	-0.0053611384
12	0x3d54b5c6	0.051931165
13	0xbd0a0c05	-0.03370287
14	0x3c624b8b	0.013811956
15	0x3bece47b	0.0072293854
16	0x3cb4d447	0.022073878
17	0xbd536f4b	-0.05161981
18	0x3c55f7e4	0.01305959
19	0x3c40462b	0.011735479

final_convolution.weight f4 [1, 21, 1, 1]
0	0x3d62c440	0.05536294
1	0xbd955b6a	-0.072928265
2	0x3d7f2dc9	0.062299524
3	0xbd816817	-0.06318682
4	0x3c58b663	0.013227078
5	0x3d89c4e5	0.06727008
6	0xbd8e77e1	-0.06956459
7	0x3d2c19c0	0.042016745
8	0xbe14b7ac	-0.1452319
9	0x3ceec67f	0.029147385
10	0xbdc3df48	-0.09564072
11	0xbdb2c18b	-0.08728322
12	0xbdc10c62	-0.0942619
13	0x3df63ba4	0.12023094
14	0x3d88dd72	0.06682862
15	0xbdc473c3	-0.09592392
16	0xbd4b2d6c	-0.049603865
17	0x3ccdc805	0.02511979
18	0x3b7248b9	0.0036969616
19	0xbce824e6	-0.028337907
20	0xba9e5290	-0.0012079049
