from_finrl-tutorials_git/data_1993_to_2024/train/v2_result/eiie_20250103_092947_turbulence_ep500_deficit/checkpoint-386/policy_EIIE_386.pt (torch, 10968 bytes, 5 tensors)

sequential.0.weight f4 [2, 9, 1, 3]
0	0x3d105ca1	0.035244588
1	0xbd8ae6fb	-0.06782337
2	0x3aeab1da	0.0017905787
3	0xbdbafcf9	-0.09130282
4	0x3dd437cd	0.10362206
5	0xbcdeb95a	-0.027187992
6	0x3c163e1d	0.009170082
7	0x3e11af80	0.14227104
8	0xbd28ab1f	-0.04117882
9	0x3df3dafb	0.119070016
10	0x3e202ef6	0.15642914
11	0xbd1fb5db	-0.03899179
12	0xbd84d765	-0.06486396
13	0x3cc97877	0.024593575
14	0x3d21a9d1	0.03946859
15	0xbd91aede	-0.071134314
16	0xbd6f6172	-0.05844254
17	0x3bd97208	0.006635908
18	0xbc21a02e	-0.00986485
19	0xbd074f42	-0.03303457
20	0xbd91b4ce	-0.07114564
21	0xbd3b51b9	-0.045732234
22	0xbd7d18b1	-0.061791126
23	0xbd777fab	-0.060424488
24	0x3cddea55	0.027089277
25	0x3d37508c	0.04475455
26	0xbc3d09cc	-0.01153798
27	0xbbd2718c	-0.0064222272
28	0xbd93e781	-0.0722189
29	0x3bbb9c36	0.005725409
30	0xbbe20c68	-0.0068984516
31	0x3ce76c9e	0.028250035
32	0xbd94cd39	-0.072657056
33	0xbd1d623b	-0.038423758
34	0xbd716c1f	-0.058941003
35	0xbd2d8d15	-0.042370874
36	0xbbbbb17b	-0.0057279444
37	0xbd93571a	-0.07194348
38	0xbcad9da8	-0.02119334
39	0xbd82f0a6	-0.06393556
40	0x3d27f512	0.0410052
41	0xbba84e3d	-0.00513628
42	0x3cdfa962	0.027302448
43	0xbd117b94	-0.035518244
44	0xbb52f1d8	-0.0032187607
45	0xbd276a36	-0.040872775
46	0x3cd91dea	0.026503522
47	0xbd5bd4b0	-0.05366963
48	0x3ccf05cf	0.025271324
49	0xbda73291	-0.08163942
50	0x3d030df8	0.031995744
51	0xbcd8ce3a	-0.026465524
52	0x3d10828b	0.035280745
53	0xbda3bfac	-0.07995543

sequential.0.bias f4 [2]
0	0xbcd4b7f3	-0.02596662
1	0x3c832b8d	0.016011978

sequential.2.weight f4 [20, 2, 1, 48]
0	0xbd9a72a4	-0.07541397
1	0xbdb3b84f	-0.087753884
2	0xbd9e052a	-0.07715829
3	0xbd6a9327	-0.05726924
4	0xbd6a016c	-0.057130262
5	0xbcd13f97	-0.025543017
6	0xbcc1c6fc	-0.023654453
7	0xbd6b977b	-0.05751751
8	0x3d367372	0.04454369
9	0xbd364361	-0.04449785
10	0xbd6958d2	-0.05696947
11	0xbbbf1802	-0.0058317194
12	0xbc99f515	-0.018793622
13	0xbce92cad	-0.028463686
14	0x3d6034dd	0.054737914
15	0xbd85dd66	-0.06536369
16	0x3db6252f	0.08893811
17	0xbd5f4764	-0.054511443
18	0xbd41b45a	-0.047291137
19	0xbd02c907	-0.031929996
20	0xbda2dd91	-0.07952417
21	0xbd82b8a0	-0.06382871
22	0xbd6a1b6e	-0.057155065
23	0xbcd421ce	-0.025895026
24	0xbcddf797	-0.0270956
25	0xbdb113e8	-0.08646375
26	0xbd013522	-0.031544812
27	0x3d6dad33	0.058026504
28	0xbd435e55	-0.047697384
29	0xbd3b3c90	-0.045712054
30	0xbd39e64b	-0.04538564
31	0xbd3f2afa	-0.046671845
32	0xbda008cd	-0.078141786
33	0xbd5c0c33	-0.05372257
34	0x3d9679af	0.07347428
35	0x3d709aca	0.05874137
36	0xbd903193	-0.070407055
37	0xbc92bd1c	-0.01791244
38	0xbd864d1d	-0.06557677
39	0xbd591b69	-0.053004656
40	0x3d4d4fe0	0.050125003
41	0xbd90b9d2	-0.070666924
42	0xbd8c23fd	-0.06842802
43	0xbccc0a4b	-0.024907252
44	0xbd8e06aa	-0.06934865
45	0xbcb5f810	-0.022213012
46	0xbd363148	-0.044480592
47	0xbd749921	-0.059716348
48	0xbcde6af8	-0.027150616
49	0x3cf112e8	0.02942796
50	0x3d2cc9c6	0.042184614
51	0xbd2a4e00	-0.041578293
52	0xb91fafe8	-0.00015228952
53	0xbd74205f	-0.059601184
54	0xbce0629d	-0.027390772
55	0xbcfb4009	-0.030670183
56	0xbc16c56f	-0.009202345
57	0x3be2f100	0.006925702
58	0xbd3ad97b	-0.04561756
59	0x3bd4798b	0.0064842156
60	0xbbe5c5fc	-0.007012127
61	0xbd1ace3d	-0.03779434
62	0x3c53c0bf	0.012924372
63	0x3ce39568	0.027781203
64	0x3d92e966	0.071734235
65	0xbd28a293	-0.041170668
66	0x3d56b71c	0.05242072
67	0xbb9577eb	-0.0045614145
68	0x3d00a79e	0.031409852
69	0xbba7de3b	-0.0051229275
70	0x3d3bc8d3	0.045845818
71	0x3c8ebe39	0.01742469
72	0x3c541672	0.0129448045
73	0x3d004a80	0.03132105
74	0x3d1790f2	0.037003465
75	0x3ce3ba25	0.027798722
76	0xbc3a7cca	-0.011382291
77	0xbd3a4a6e	-0.045481138
78	0x3c4518a7	0.012029803
79	0x3b9a92d4	0.0047172103
80	0x3b0ad79c	0.0021185642
81	0xbbb714d7	-0.005587201
82	0xbd45fbfb	-0.04833601
83	0x3d4fca60	0.05073011
84	0xbb4ffa08	-0.0031734724
85	0x3d1bc23f	0.038027044
86	0xbca6f4ee	-0.020380463
87	0x3d36687c	0.044533238
88	0xbbe0ee51	-0.006864347
89	0x3cd629b7	0.026142938
90	0x3b86bde8	0.004111994
91	0xbcf14a74	-0.029454447
92	0xbc77f9d4	-0.015135247
93	0x3d530c4d	0.051525403
94	0xbd356748	-0.04428795
95	0xbc0ad9e4	-0.008474801
96	0x3c9622c3	0.018327123
97	0x3c7ee7c3	0.015558186
98	0xbcb655ed	-0.02225777
99	0x3d764aa6	0.060129784
100	0x3caaae23	0.020834988
101	0x3d1f0761	0.038825396
102	0xbcaf0e10	-0.02136901
103	0xbd12637c	-0.035739407
104	0xbc2d9e8e	-0.010596884
105	0x3d609381	0.05482817
106	0x3d7bcd50	0.061475098
107	0x3da300e8	0.07959157
108	0x3d46a6c3	0.04849888
109	0x3dcad768	0.09904367
110	0xbcb3d934	-0.021954156
111	0x3d05952f	0.032612976
112	0xbd2e2f98	-0.042525858
113	0xbcec8296	-0.028870862
114	0x3d50c4d4	0.05096896
115	0x3d8e2797	0.06941145
116	0x3d35910e	0.044327788
117	0x3d1b201a	0.03787241
118	0x3d9e31ed	0.07724366
119	0x3d904775	0.07044879
120	0x3d81656b	0.06318172
121	0x3d45a393	0.0482517
122	0xbcae33bf	-0.021264909
123	0xbc814962	-0.015782062
124	0x3d9af23f	0.07565736
125	0x3cfdcd1c	0.030981593
126	0xbc18fd50	-0.009337738
127	0x3d7a7d96	0.061154924
128	0xbcfec7e8	-0.031101182
129	0xbd0c854b	-0.034306806
130	0xbd302cf9	-0.04301164
131	0xbd57b29d	-0.052660573
132	0xbda2644c	-0.07929286
133	0x3afe4f45	0.0019402286
134	0x3c247b24	0.010039125
135	0xbb8d8816	-0.004319201
136	0xbd2f8e62	-0.042860396
137	0xbd9d0ae5	-0.076680936
138	0x3db4b77b	0.088240586
139	0x3ddb5277	0.10709088
140	0xbce8328f	-0.02834442
141	0xbcd9e32c	-0.026597582
142	0x3daf0a18	0.08546847
143	0x3d1e422b	0.03863732
144	0x3bc075b2	0.0058734054
145	0x3b48b7a1	0.003062703
146	0xbd71c672	-0.059027143
147	0x3ca4c26f	0.020112244
148	0x3903edf3	0.00012581777
149	0x3c808d1d	0.015692288
150	0x3c806353	0.015672361
151	0x3d0d6890	0.034523547
152	0x3c1d8e5f	0.009616463
153	0x3bba17cf	0.0056791077
154	0x3d553739	0.052054618
155	0xbae4ff82	-0.0017471167
156	0xbb963a03	-0.0045845523
157	0x3db0e8d3	0.08638158
158	0x3c2b3c28	0.010451354
159	0xbcb3ef01	-0.021964552
160	0xbd354966	-0.04425945
161	0x3d077df3	0.0330791
162	0xbc6ab968	-0.014326431
163	0x3d447177	0.04795977
164	0x3c3b1687	0.011418945
165	0xbad273f8	-0.001605629
166	0xbd4190fb	-0.047257405
167	0xbc3948cc	-0.01130886
168	0x3a848690	0.0010110904
169	0xbcab42d8	-0.020905897
170	0x3d0deb50	0.03464824
171	0xbb7c4974	-0.003849593
172	0xbc1d68cb	-0.009607504
173	0xbc4862fb	-0.01223063
174	0x3d5066d2	0.050879307
175	0x3d505f7c	0.05087231
176	0xbc3f6058	-0.011680685
177	0xbc9a12a3	-0.018807715
178	0x3d21698c	0.039407298
179	0xbdbb7f35	-0.09155122
180	0x3d58e327	0.052951004
181	0x3cad488b	0.021152755
182	0x3d4a334d	0.04936533
183	0xbc8b663f	-0.017016528
184	0xbd02916d	-0.03187697
185	0x3d10b048	0.035324365
186	0x3d563b73	0.05230279
187	0x3cbbf170	0.022942275
188	0xbb48196b	-0.0030532728
189	0xbd17d400	-0.037067413
190	0x3d9532c4	0.072850734
191	0x3b11586d	0.002217795
192	0xbd6cb833	-0.057792854
193	0xbd69b8d2	-0.057061024
194	0xbd78f155	-0.060777027
195	0xbcf9d828	-0.03049858
196	0xbd1a750e	-0.03770929
197	0xbd952e19	-0.07284183
198	0xbd47a6f4	-0.048743203
199	0x3d753f28	0.059874684
200	0xbd6a5a86	-0.057215236
201	0xbd81e038	-0.063415945
202	0xbc9db6fb	-0.019252291
203	0x3c4eb8f9	0.012617343
204	0x3bd0f019	0.006376278
205	0xbd66088d	-0.0561605
206	0x3c716ae2	0.0147349555
207	0xbd5176ea	-0.051138796
208	0xbd1c4f6d	-0.038161684
209	0x3c4d8d83	0.012545946
210	0x3d5eb678	0.054373235
211	0x3bd15adc	0.006389005
212	0x3b9337d9	0.0044927415
213	0xbccae774	-0.024768569
214	0xbd93821a	-0.07202549
215	0xbcd723dc	-0.026262216
216	0xbc90692f	-0.01762828
217	0xbd7d5749	-0.06185082
218	0xbcb0d2a6	-0.02158482
219	0xbd14039f	-0.036136266
220	0xbd908dfe	-0.07058333
221	0xbcefe4f4	-0.029283978
222	0xbd82c3cd	-0.06385002
223	0xbd023020	-0.031784177
224	0xbd782f62	-0.060592063
225	0xbcda66d8	-0.026660368
226	0xbdb1d78a	-0.08683689
227	0xbd830851	-0.063980706
228	0xbd8635b0	-0.06553209
229	0xbcce889e	-0.025211629
230	0xbd28a982	-0.04117728
231	0xbd1b2561	-0.037877444
232	0x3d737073	0.05943341
233	0xbd401612	-0.046896048
234	0xbd83eb13	-0.06441321
235	0x3d4eb7f8	0.050468415
236	0x3d0a99b3	0.033837985
237	0xbc6aeb99	-0.014338397
238	0xbd7ea5e1	-0.062169913
239	0x3c2d79d5	0.010588129
240	0x3cc8f044	0.02452863
241	0x3cebe64e	0.028796341
242	0x3c1348e0	0.008989543
243	0xbb624f59	-0.0034532158
244	0xbcdfdc61	-0.027326765
245	0xbca4a80e	-0.020099666
246	0x3c5eebc5	0.0136060165
247	0x3da304d1	0.07959903
248	0x3d3fdbe3	0.04684056
249	0xbd6cc37f	-0.057803627
250	0xbcf8dd7d	-0.030379051
251	0x3bcc3722	0.0062321583
252	0x3c7ad579	0.015309685
253	0xbd8a4e8b	-0.06753262
254	0x3d19bed1	0.037535492
255	0x3cc820b5	0.024429658

sequential.2.bias f4 [20]
0	0x3caa5a3b	0.020794978
1	0x3d4e60b9	0.05038521
2	0x3c2e60d9	0.0106432075
3	0x3a885a0a	0.001040281
4	0x3baf7a5f	0.005355164
5	0xba6f336e	-0.000912479
6	0x3d8a6297	0.06757086
7	0xbbc6d5d7	-0.006067972
8	0x3d8f071c	0.06983778
9	0x3d31fdc2	0.043454893
10	0x3c34e28b	0.01104034
11	0xbb83d2f1	-0.004022949
12	0x3d1f9d96	0.038968645
13	0xbccf2d9e	-0.025290307
14	0x3c29cf44	0.010364357
15	0x3bb1c308	0.005424861
16	0x3c87b14a	0.01656403
17	0xbd1ea898	-0.038735002
18	0x3c208f4c	0.00979979
19	0x3c1047cc	0.00880618

final_convolution.weight f4 [1, 21, 1, 1]
0	0x3d2a29d5	0.0415438
1	0xbd6026f0	-0.054724634
2	0x3d3f7bd2	0.046748944
3	0xbd4235f6	-0.047414742
4	0x3c229e6d	0.009925467
5	0x3d4ec2d9	0.05047879
6	0xbd55d03f	-0.052200552
7	0x3d012480	0.03152895
8	0xbddf313b	-0.10898062
9	0x3cb32cb5	0.021871904
10	0xbd92fb08	-0.07176787
11	0xbd8622fd	-0.06549642
12	0xbd90dc87	-0.07073312
13	0x3db8c54e	0.09022008
14	0x3d4d6782	0.05014754
15	0xbd936a70	-0.07198036
16	0xbd18765f	-0.037222262
17	0x3c9a6a97	0.018849654
18	0x3b35cec0	0.002774164
19	0xbcae32df	-0.021264492
20	0xba6d9b76	-0.0009063998
