from_finrl-tutorials_git/data_1993_to_2024/train/v2_result/eiie_20241220_184508_ep500/checkpoint-48/policy_EIIE_48.pt (torch, 10958 bytes, 5 tensors)

sequential.0.weight f4 [2, 9, 1, 3]
0	0x3d917881	0.071030624
1	0xbe1619e4	-0.14658314
2	0xbe159d1e	-0.14610717
3	0xbdc3b6e7	-0.0955637
4	0xbe065fd7	-0.13122497
5	0xbe126381	-0.1429577
6	0xbe13c867	-0.14431916
7	0xbe24af91	-0.16082598
8	0xbdf83e8e	-0.12121306
9	0x3c8ffec7	0.017577542
10	0xba9f2176	-0.001214071
11	0xbe8ddd4d	-0.27707902
12	0x3e52658c	0.2054655
13	0x3e8f1240	0.2794361
14	0x3e634477	0.22194086
15	0xbdd550fa	-0.10415836
16	0x3c4c2b3e	0.012461482
17	0x3db7c1b2	0.08972491
18	0xbe3d409c	-0.18481678
19	0x3deeedad	0.11666427
20	0x3d58058c	0.052739665
21	0xbd6f66f9	-0.05844781
22	0x3dbac427	0.09119444
23	0x3bbd6097	0.0057793367
24	0x3d8f2c2c	0.06990847
25	0x3ddf6ca1	0.10909391
26	0xbe084cde	-0.13310573
27	0x3ed4634d	0.4148201
28	0x3e32e36c	0.17469567
29	0x3e916ae0	0.28401852
30	0x3f1f50c9	0.62232643
31	0x3eb9ac34	0.36264193
32	0x3e2d4c55	0.1692365
33	0x3ea2cd49	0.31797245
34	0x3e4f71be	0.20258233
35	0x3edcd831	0.4313369
36	0x3ea8fc44	0.33004963
37	0xbc4e3ea9	-0.0125881815
38	0x3d873f09	0.0660382
39	0xbe7dfb4a	-0.2480289
40	0xbd92d8b2	-0.071702376
41	0x3e8c89ce	0.27448887
42	0x3e8a8d81	0.27061084
43	0x3e3e08cc	0.18558043
44	0x3e7309dc	0.2373423
45	0x3e500fbb	0.203185
46	0x3eaa425c	0.33253753
47	0x3e592ddc	0.212089
48	0x3ef7c21b	0.48390278
49	0x3e8e9948	0.2785132
50	0x3e9e016a	0.30860454
51	0x3e695ea2	0.22790006
52	0x3e93415e	0.2876081
53	0x3ec5ec98	0.3865707

sequential.0.bias f4 [2]
0	0x3e0a4db8	0.1350621
1	0x3e24f81b	0.1611027

sequential.2.weight f4 [20, 2, 1, 48]
0	0xbd35f693	-0.044424605
1	0x3e944207	0.28956625
2	0xbe7d5cbc	-0.24742407
3	0xbe100b26	-0.14066753
4	0xbd98959b	-0.0745041
5	0xbe130f73	-0.14361362
6	0x3c56f9b1	0.0131210545
7	0xbdc4cee4	-0.09609774
8	0x3efcc310	0.4936757
9	0x3e383bdc	0.17991585
10	0x3da14c68	0.078759015
11	0xbebfb03c	-0.37439144
12	0x3dbd4811	0.09242261
13	0x3bf5196c	0.007479837
14	0x3e1dbb6e	0.1540353
15	0xbe1940d3	-0.14966135
16	0xbe21991d	-0.15781064
17	0x3df32a92	0.11873354
18	0xbc57b12d	-0.013164801
19	0xbe457a81	-0.19285013
20	0xbdf523e1	-0.11969734
21	0xbe6afccc	-0.22947997
22	0x3d62d23e	0.055376284
23	0x3e7a6833	0.24453811
24	0x3ec415aa	0.38297778
25	0xbd3e0549	-0.04639176
26	0xbdab2e62	-0.08358456
27	0x3d2fb72c	0.042899296
28	0x3e4662ef	0.19373678
29	0xbddd1046	-0.107941195
30	0xbc477b1c	-0.012175348
31	0x3d0b84c1	0.03406215
32	0xbdaf8085	-0.08569435
33	0x3e29487a	0.16531554
34	0xbe72c942	-0.23709586
35	0xbe13952d	-0.14412375
36	0x3f1d7033	0.6149933
37	0xbdfef3cb	-0.124488436
38	0x3e0267e7	0.12734948
39	0xbd09a18c	-0.03360133
40	0x3f1a15e1	0.60189635
41	0xbe59b4e8	-0.21260417
42	0xbe6e0842	-0.23245338
43	0x3e6e25c1	0.2325659
44	0x3e373eab	0.17895
45	0x3e7d7905	0.24753197
46	0x3e70ff9c	0.23535007
47	0xbc8a52db	-0.016885212
48	0xbe98c43c	-0.29837215
49	0x3ea5ba4f	0.32368705
50	0x3d14bace	0.036310963
51	0xbe86303b	-0.26208672
52	0xbe795c00	-0.24351501
53	0xbe2b6096	-0.16736063
54	0x3eee2cdb	0.46518597
55	0x3dbf71a0	0.09347844
56	0x3ee17694	0.4403578
57	0x3deb99d5	0.115039505
58	0xbdf1c02f	-0.11804234
59	0xbc890751	-0.016727122
60	0x3e0d9d8b	0.13829629
61	0x3d0ea3c5	0.03482415
62	0xbe7deb41	-0.24796773
63	0x3f324899	0.69642025
64	0xbe0f57f0	-0.13998389
65	0xbe028c95	-0.1274894
66	0xbd444a63	-0.047922503
67	0xbeb325c1	-0.3498974
68	0x3eae2071	0.34009126
69	0x3e33f559	0.17574061
70	0x3ea484f3	0.32132682
71	0xbe5c1f04	-0.21496207
72	0xbe40faf5	-0.18845733
73	0xbe143139	-0.14471902
74	0x3e390834	0.18069535
75	0xbd16addb	-0.036786895
76	0xbd8fd4ee	-0.07023035
77	0x3dd7b778	0.10533041
78	0x3d953f21	0.072874315
79	0xbe0a5c63	-0.13511805
80	0x3c19cb12	0.009386795
81	0x3dc779fd	0.09740064
82	0x3f30ec2c	0.6911037
83	0xbd509847	-0.050926473
84	0x3e3463d2	0.17616203
85	0x3e87e079	0.26538447
86	0x3e42e25e	0.19031665
87	0x3cac4763	0.021030134
88	0xbd9ecdf3	-0.077541254
89	0x3e6f650c	0.2337839
90	0xbba8fe33	-0.005157256
91	0x3cd0f0bc	0.025505416
92	0x3b23ee0f	0.002501372
93	0x3d7f94a6	0.06239762
94	0x3c88ec89	0.016714351
95	0xbe782c63	-0.24235682
96	0xbd11802f	-0.035522636
97	0xbd17881a	-0.03699503
98	0xbc8cdf4f	-0.017196326
99	0x3d04ad1d	0.032391656
100	0xbdc54015	-0.09631363
101	0x3e80f237	0.25184795
102	0xbdb62032	-0.088928595
103	0x3e0f770a	0.14010254
104	0xbd390444	-0.045170084
105	0xbd92c5dd	-0.07166646
106	0x3cdf7a88	0.027280107
107	0xbe374d07	-0.17900477
108	0x3dd61b02	0.1045437
109	0x3c843c95	0.016142169
110	0x3d973696	0.07383458
111	0xbe722a00	-0.23648834
112	0xbd29510b	-0.041337054
113	0x3c3b16ba	0.011418993
114	0xbdb2d934	-0.087328345
115	0xbd847668	-0.06467897
116	0xbdacba1c	-0.08433935
117	0xbe380723	-0.17971472
118	0x3e02ee5e	0.12786242
119	0x3e617de1	0.22020675
120	0xbeb0b68c	-0.34514272
121	0xbe29a432	-0.16566542
122	0xbddf7541	-0.10911036
123	0xbee5d5ed	-0.44889775
124	0xbeac1fc9	-0.33618
125	0x3da21f55	0.07916132
126	0x3d2e9897	0.04262599
127	0x3dce5b10	0.100759625
128	0xbe077821	-0.1322942
129	0xbadbde2b	-0.0016774585
130	0xbdb2f2d9	-0.08737726
131	0xbe2ecb10	-0.1706965
132	0x3d7438d3	0.059624504
133	0xbe2e4966	-0.17020187
134	0xbdff51b0	-0.124667525
135	0x3c851675	0.01624606
136	0x3d43b17f	0.047776695
137	0xbe14f51b	-0.14546625
138	0xbe190c1c	-0.14946026
139	0xbd534366	-0.051577948
140	0x3d0842f4	0.033266976
141	0xbd661099	-0.056168173
142	0xbd7f84cd	-0.062382508
143	0x3e7ea504	0.24867636
144	0xbd25ded0	-0.040495694
145	0xbe2eebf0	-0.1708219
146	0xbde9fc8e	-0.11425124
147	0x3e096e6c	0.13421029
148	0xbe3812bc	-0.17975897
149	0xbe913469	-0.28360298
150	0x3d90c263	0.07068326
151	0xbcd7221b	-0.02626138
152	0x3ebc94d6	0.36832303
153	0x3e0bf746	0.13668546
154	0x3ddea243	0.10870793
155	0xbcfa48d2	-0.030552302
156	0x3d939ba3	0.0720742
157	0x3c0c30d1	0.008556561
158	0xbe80dec2	-0.2516995
159	0x3cbc3b39	0.022977458
160	0x3e4804e9	0.19533123
161	0xbe19877c	-0.1499309
162	0xbe077eab	-0.13231914
163	0xbea06711	-0.31328633
164	0xbd5d473c	-0.054023013
165	0x3d2024e4	0.03909768
166	0x3e828f7b	0.25500092
167	0xbe1873b2	-0.14887884
168	0xbe2d92a0	-0.16950464
169	0xbe66f22d	-0.2255332
170	0x3e034aba	0.12821475
171	0xbe877b78	-0.26461387
172	0xbd143935	-0.03618737
173	0x3dad7277	0.08469098
174	0x3c53d60f	0.0129294535
175	0xbe829b07	-0.255089
176	0xbe2ad4ca	-0.16682735
177	0xbdbc4d8d	-0.09194479
178	0xbd9229a8	-0.071368515
179	0xbe39e858	-0.18155038
180	0x3c808c2c	0.01569184
181	0xbd965ba1	-0.073416956
182	0xbe01e450	-0.1268475
183	0xbd136199	-0.03598175
184	0xbe52fa4d	-0.20603295
185	0x3e72bc04	0.23704535
186	0x3cba4298	0.022736832
187	0xbd1093b3	-0.035297107
188	0x3ce90b5a	0.028447796
189	0xbd7280e2	-0.059204943
190	0xbd105238	-0.03523466
191	0x3eb54cdc	0.35410202
192	0xbe49dafa	-0.19712439
193	0xbe0fdd41	-0.14049245
194	0xbcb18dd5	-0.021674076
195	0x3e60382c	0.21896428
196	0xbe43151f	-0.19051026
197	0xbd5e139c	-0.05421792
198	0xbec988b5	-0.39362112
199	0xbd9514a7	-0.0727933
200	0xbe588a97	-0.21146618
201	0x3d959a11	0.073047765
202	0xbd819807	-0.06327825
203	0xbe2deaac	-0.16984051
204	0xbd734acf	-0.059397515
205	0x3acd449c	0.0015660706
206	0xbe7017d0	-0.23446584
207	0xbec38be8	-0.38192677
208	0xbdb6e0bb	-0.08929583
209	0xbd1cc7cc	-0.03827648
210	0xbe34c6bb	-0.17653935
211	0xbe97d386	-0.29653567
212	0xbe44d449	-0.19221605
213	0xbdb8c48e	-0.09021865
214	0x3dc82738	0.097731054
215	0x3c146c81	0.0090590725
216	0xbedf86e9	-0.43657616
217	0xbe34830d	-0.17628117
218	0xbdeb52bf	-0.11490392
219	0xbe8b4421	-0.27200416
220	0x3db58d3f	0.08864831
221	0x3d283085	0.041061897
222	0xbdb04014	-0.08605972
223	0xbd955f16	-0.07293527
224	0xbe4dbdf5	-0.20091994
225	0xbd58864c	-0.05286245
226	0xbe55acfb	-0.20866768
227	0xbe1a5d13	-0.15074567
228	0xbebd72d1	-0.3700166
229	0xbe861cb4	-0.26193774
230	0xbe24d85d	-0.16098161
231	0xbe5c33c1	-0.21504118
232	0xbe337869	-0.17526402
233	0xbce40569	-0.027834611
234	0xbd90d1af	-0.07071244
235	0xbd3bcedc	-0.045851573
236	0xbe13a600	-0.14418793
237	0xbe2b615e	-0.16736361
238	0xbe6a57ff	-0.2288513
239	0xbe14a187	-0.14514743
240	0xbcbb30ef	-0.022850482
241	0x3d58ecfa	0.052960373
242	0xbe5b9ecd	-0.21447296
243	0x3e1de353	0.15418749
244	0xbe0cc64a	-0.13747516
245	0xbdcd491e	-0.100237116
246	0xbdd8aec4	-0.10580209
247	0x3d592371	0.053012315
248	0xbdeb3dcd	-0.11486397
249	0xbda9141e	-0.0825579
250	0x3b3d7a53	0.0028912022
251	0x3d2ec80d	0.042671252
252	0xbcd3b8c4	-0.025844939
253	0xbdb23a51	-0.08702529
254	0xbd16adfb	-0.036787014
255	0xbe457e05	-0.19286354

sequential.2.bias f4 [20]
0	0xbde397c0	-0.111129284
1	0x3e036e4b	0.12835042
2	0x3d4ce929	0.050027046
3	0x3e689885	0.22714432
4	0x3e76a74d	0.24087258
5	0xbe340038	-0.17578208
6	0xbe2ae7e2	-0.16690019
7	0x3e4b7af3	0.1987112
8	0x3e7b5642	0.24544623
9	0xbdfc8f51	-0.12332023
10	0xbd9b12e5	-0.07571963
11	0x3c322c07	0.010874755
12	0x3df736b8	0.12070984
13	0x3ede6bcc	0.43441617
14	0x3ea1853c	0.31546962
15	0x3d7e0c26	0.062023304
16	0x3de13f44	0.10998395
17	0x3d93e42f	0.07221257
18	0x3ed454b3	0.4147087
19	0x3d93c465	0.07215194

final_convolution.weight f4 [1, 21, 1, 1]
0	0xbe4205ec	-0.18947572
1	0xbd7a7715	-0.06114872
2	0xbe3f9026	-0.18707332
3	0x3b143c49	0.002261894
4	0x3df20643	0.118176006
5	0x3e9b9ef6	0.30394715
6	0xbe3e30ca	-0.18573299
7	0xbe592a46	-0.21207532
8	0xbe20d8d8	-0.1570772
9	0xbdcae368	-0.099066556
10	0x3c3a09a3	0.011354837
11	0xbdb75655	-0.089520134
12	0x3e9647b0	0.29351568
13	0x3e862c45	0.2620565
14	0x3e38662d	0.18007727
15	0xbd95c1dd	-0.07312367
16	0xbcb3698c	-0.021900915
17	0xbdc54f77	-0.09634297
18	0xbe916806	-0.28399676
19	0x3e861ed9	0.2619541
20	0xbdee6294	-0.11639896
