from_finrl-tutorials_git/data_1993_to_2024/train/v2_result/scribed/eiie_20241227_104002_reward_in_loss_ep100/checkpoint-87/policy_EIIE_87.pt (torch, 10958 bytes, 5 tensors)

sequential.0.weight f4 [2, 9, 1, 3]
0	0xbeb83534	-0.3597809
1	0xbe1c3f13	-0.15258436
2	0xbe40b1a2	-0.18817762
3	0xbe3a5c41	-0.18199255
4	0xbe45c026	-0.1931158
5	0xbe99e223	-0.3005534
6	0xbe7ad7ce	-0.24496385
7	0xbe858e08	-0.26084924
8	0xbe48c509	-0.19606413
9	0x3ca91dbc	0.020644061
10	0x3cea0495	0.028566638
11	0xbe294917	-0.16531788
12	0xbc7863c0	-0.015160501
13	0xbf25241e	-0.64508235
14	0xbe71764a	-0.2358028
15	0xbdd0330b	-0.10165986
16	0xbe22cdec	-0.15898865
17	0xbdc9fc99	-0.09862632
18	0xbe964c5c	-0.29355133
19	0xbea68456	-0.3252284
20	0xbe12dd81	-0.1434231
21	0xbed05618	-0.40690684
22	0xbe3a87bb	-0.1821584
23	0xbe8efe23	-0.27928266
24	0xbdb8ec78	-0.09029478
25	0xbe798de9	-0.2437054
26	0xbde1ac85	-0.110192336
27	0x3d8b728e	0.06808959
28	0x3e1f8a86	0.15580186
29	0x3e8426a7	0.2581074
30	0x3d64c1b2	0.055848785
31	0x3c80666c	0.015673839
32	0x3d4d275c	0.050086364
33	0x3de4f545	0.11179594
34	0xbcdeaa84	-0.027180918
35	0x3d5fc586	0.054631732
36	0x3ec083f8	0.37600684
37	0x3ea6361b	0.32463154
38	0xbe64c17e	-0.22339436
39	0xbebdc35c	-0.3706311
40	0x3e52942f	0.2056434
41	0x3ea27744	0.31731617
42	0x3cde683c	0.027149312
43	0x3c9bdeec	0.019027196
44	0x3df4e50c	0.1195775
45	0x3cc652fa	0.024209488
46	0x3d0124f7	0.031529393
47	0x3e5f777f	0.21822928
48	0x3e52fb27	0.2060362
49	0x3cde9e43	0.027175074
50	0x3dfb6027	0.12274199
51	0x3de13569	0.10996515
52	0x3dededa3	0.11617591
53	0x3dc3da19	0.09563083

sequential.0.bias f4 [2]
0	0xbe0f8e50	-0.14019132
1	0x3e7d8a16	0.24759707

sequential.2.weight f4 [20, 2, 1, 48]
0	0x3d526fe6	0.051376246
1	0xbe36a324	-0.1783567
2	0x3ddb1665	0.10697631
3	0x3dab832b	0.08374628
4	0x3e58dff9	0.21179189
5	0x3e90c4b9	0.28275087
6	0x3ed36e05	0.41294876
7	0xbd703d14	-0.058652
8	0x3e4d2343	0.20032983
9	0x3ed9c0e4	0.42529976
10	0x3e2c101d	0.16803022
11	0x3e0b3fa9	0.13598503
12	0xbdaf3cfa	-0.08556552
13	0x3e980cdb	0.29697308
14	0x3ecaa4c4	0.3957883
15	0x3e965912	0.2936483
16	0xbd59fd11	-0.05321986
17	0x3e81cf36	0.25353402
18	0xbc89b792	-0.016811166
19	0x3dbad453	0.09122529
20	0x3e4f55d4	0.20247585
21	0x3e1781ef	0.1479566
22	0x3e8f5e95	0.28001848
23	0x3de710c5	0.112824954
24	0xbd335285	-0.04377987
25	0x3d28662b	0.04111306
26	0x3e440ea6	0.19146213
27	0xbd826ecb	-0.06368788
28	0xbd0a8cce	-0.033825688
29	0x3e14cb17	0.14530598
30	0x3e1be6e6	0.152248
31	0x3e921684	0.28532803
32	0xbd53c193	-0.05169828
33	0xbe61dc0a	-0.22056594
34	0xbe41ae83	-0.18914227
35	0xbdfba8fb	-0.1228809
36	0x3da014a3	0.07816436
37	0x3e8ccc54	0.2749964
38	0x3d806c47	0.06270652
39	0x3d3eda7f	0.046595093
40	0x3e0f4464	0.13990933
41	0xb9d541c2	-0.0004067552
42	0x3d806274	0.062687784
43	0x3c9260c7	0.017868413
44	0x3ce4a94f	0.027912764
45	0x3d3f9ff5	0.046783406
46	0x3e43dc03	0.19126897
47	0x3c06a403	0.008217814
48	0x3d4f6648	0.050634652
49	0xbd9815d1	-0.07426036
50	0xbe69a366	-0.22816238
51	0x3e2064f2	0.15663508
52	0x3dab06ac	0.08350882
53	0x3d933672	0.07188119
54	0x3dbd6ce5	0.092492856
55	0xbd0f2154	-0.034943894
56	0xbed39306	-0.41323107
57	0x3dbd8530	0.09253919
58	0xbe05e78c	-0.1307661
59	0x3d5da4b3	0.054112148
60	0xbe2ef0d0	-0.1708405
61	0xbe0ef72b	-0.13961475
62	0x3e3d66ba	0.18496218
63	0x3e14fd57	0.14549766
64	0xbd71a4f6	-0.05899521
65	0xbb6ebb83	-0.0036427684
66	0xbd729059	-0.059219692
67	0xbe98fd06	-0.29880542
68	0x3cdf5d62	0.027266208
69	0xbe8e86a7	-0.27837107
70	0xbe844863	-0.25836477
71	0x3e685bed	0.22691317
72	0xbeccdf69	-0.40014198
73	0xbe814310	-0.25246477
74	0x3e2a62ba	0.16639224
75	0x3db9c8f4	0.09071532
76	0xbe42fbb4	-0.1904133
77	0xbe6572af	-0.2240703
78	0xbd82fcfc	-0.06395909
79	0x3c9e45ea	0.019320447
80	0xbe5d38b4	-0.21603662
81	0x3d9eed7b	0.077601396
82	0xbe48da85	-0.19614609
83	0xbe4fd2e1	-0.20295288
84	0xbdde69d8	-0.10860032
85	0x3e95f664	0.29289544
86	0x3d2e79ae	0.04259651
87	0x3e3ef15b	0.18646757
88	0x3e527c22	0.20555165
89	0xbd79bd5a	-0.060971595
90	0x3e4d0660	0.20021963
91	0x3df74447	0.1207357
92	0x3e1f2591	0.15541674
93	0xbe4a97cc	-0.19784468
94	0xbdcbb1a6	-0.09945993
95	0x3e368c48	0.1782695
96	0x3da49d7d	0.08037851
97	0x3cbcaa9c	0.023030572
98	0x3d3a7322	0.045519955
99	0x3cc74333	0.024324035
100	0x3e2ae4aa	0.16688791
101	0x3d86ee71	0.06588448
102	0x3dfc8963	0.12330892
103	0x3d39b236	0.04533597
104	0x3c840620	0.016116202
105	0x3e0bf68a	0.13668266
106	0x3d780757	0.060553875
107	0xbe4beb63	-0.19914012
108	0xbdcd2978	-0.10017675
109	0x3b98ec95	0.0046668747
110	0x3e69bdaa	0.22826257
111	0xbe151f37	-0.14562689
112	0x3d9de482	0.077096
113	0xbd4977a5	-0.049186368
114	0x3e546bd1	0.20744254
115	0x3e493d1a	0.19652215
116	0x3db78eec	0.08962807
117	0x3e76f986	0.24118623
118	0x3d03c9c4	0.03217484
119	0xbf108219	-0.56448513
120	0xbe869795	-0.26287523
121	0xbda1782c	-0.07884249
122	0xbe83f611	-0.2577367
123	0x3e047328	0.12934554
124	0x3e2cfb88	0.16892827
125	0xbe7409a4	-0.23831803
126	0xbe5f47fe	-0.21804807
127	0xbdf86ee3	-0.12130525
128	0xbdc86e66	-0.09786682
129	0xbe32ee7f	-0.17473792
130	0x3e52e83e	0.20596406
131	0x3dd8252d	0.10553966
132	0xbe2d03c2	-0.16895965
133	0xbdd58247	-0.10425239
134	0x3e446da5	0.19182451
135	0x3dff09ce	0.12453042
136	0xbf065bdf	-0.52483934
137	0x3e165768	0.1468178
138	0x3e80cde0	0.2515707
139	0x3ddf94a0	0.1091702
140	0x3e182944	0.14859492
141	0x3ca46e2f	0.02007207
142	0xbed0682b	-0.40704474
143	0x3cb9660e	0.022631671
144	0x3dc8caa7	0.09804278
145	0x3dc6681f	0.09687828
146	0x3df60578	0.12012762
147	0x3e2452e3	0.16047244
148	0x3db0c861	0.08631969
149	0x3e277429	0.16352905
150	0x3e48c675	0.19606955
151	0x3e265561	0.16243507
152	0x3dc0553b	0.093912564
153	0x3d8fe272	0.07025613
154	0x3dd0d229	0.10196335
155	0x3e16d81c	0.14730877
156	0x3df5ef59	0.120085426
157	0x3e104b05	0.14091118
158	0x3d45706c	0.048202917
159	0x3db3f6bb	0.087872945
160	0x3d988472	0.07447137
161	0xbea134d0	-0.31485605
162	0x3d50b970	0.050958097
163	0x3e692fd2	0.22772148
164	0x3e10ec4b	0.14152639
165	0x3df654a4	0.12027863
166	0x3e66ca98	0.22538221
167	0x3e00897f	0.1255245
168	0x3dd442b7	0.10364287
169	0x3e1d4a0b	0.15360276
170	0x3df54834	0.11976662
171	0x3d18bda5	0.037290234
172	0x3dbc7356	0.09201686
173	0xbd2de065	-0.042450327
174	0x3e419ad6	0.18906721
175	0x3e0e2cf9	0.13884343
176	0x3c59eee9	0.0133015895
177	0xbebda66f	-0.3704104
178	0x3e17ab29	0.14811386
179	0x3e15b903	0.14621358
180	0x3e19375e	0.14962527
181	0xbf03185b	-0.5120904
182	0x3e438eeb	0.19097488
183	0x3c8f2931	0.017475696
184	0x3d4068b7	0.046974864
185	0x3e841ff6	0.25805634
186	0x3e322e47	0.17400466
187	0x3e2a5e6a	0.16637579
188	0x3e331d86	0.17491731
189	0x3e887025	0.2664806
190	0x3dc61ab1	0.0967306
191	0xbe3ebd3a	-0.18626872
192	0x3e328546	0.17433652
193	0x3f174d57	0.59102386
194	0x3b2ba30d	0.0026189715
195	0xbdd38e8e	-0.103299245
196	0x3b721198	0.0036936756
197	0xbe9262f8	-0.28591132
198	0xbe97ff72	-0.29687077
199	0xbe15cd9d	-0.14629216
200	0xbdf4ae7a	-0.11947341
201	0xbee086a6	-0.4385273
202	0xbe844ff4	-0.2584225
203	0x3db9487c	0.090470284
204	0xbc790992	-0.015200036
205	0xbe933e5b	-0.2875851
206	0xbe70c2d5	-0.23511823
207	0xbdf2be20	-0.1185267
208	0x3cb755ad	0.02237972
209	0x3eb350e4	0.35022652
210	0x3e8c6349	0.274195
211	0x3de67432	0.11252631
212	0x3d7f6519	0.062352274
213	0x3e7d090c	0.24710482
214	0x3dc7c4c0	0.09754324
215	0xbdd606aa	-0.1045049
216	0x3e8f36aa	0.27971393
217	0xbd49257b	-0.04910801
218	0xbd5ddecf	-0.054167565
219	0x3e60281f	0.21890305
220	0x3ee1047f	0.43948743
221	0x3e9456c5	0.2897245
222	0xbe50e910	-0.20401406
223	0xbe848cec	-0.25888765
224	0x3e820310	0.25392962
225	0x3e230652	0.1592038
226	0xbe820cf5	-0.2540051
227	0xbe4c1484	-0.19929701
228	0xbe37c339	-0.17945565
229	0xbdc4c856	-0.096085235
230	0xbe00782e	-0.12545845
231	0xbdf19798	-0.11796492
232	0x3e0373f7	0.12837206
233	0x3d83d845	0.064377345
234	0x3c9de6c6	0.01927508
235	0x3dd84ca8	0.10561496
236	0xbc1274f1	-0.008939014
237	0x3c808575	0.015688637
238	0xbd6e2074	-0.05813642
239	0x3e155c67	0.1458603
240	0xbe4f65b3	-0.20253639
241	0x3ee18f82	0.440548
242	0x3e6b4b0e	0.2297785
243	0xbd98f033	-0.07467689
244	0xbe04503d	-0.12921233
245	0x3e14e380	0.1453991
246	0x3e088364	0.13331372
247	0xbdbf2801	-0.09333802
248	0x3ed0174a	0.40642768
249	0xbc7a10e4	-0.015262816
250	0xbe3f35fc	-0.18672937
251	0x3e09518b	0.13410012
252	0x3d924d06	0.07143597
253	0xbce30a4c	-0.02771487
254	0xbe4e1140	-0.20123768
255	0x3e15e217	0.14637028

sequential.2.bias f4 [20]
0	0x3d0b5d40	0.034024477
1	0x3d5051a7	0.05085912
2	0xbe0e5ad1	-0.13901831
3	0x3d01d52d	0.03169744
4	0xbe961113	-0.29309902
5	0x3e019769	0.12655415
6	0x3d6472bb	0.055773478
7	0x3eabf148	0.3358252
8	0xbd49c27f	-0.04925775
9	0xbd902296	-0.07037847
10	0xbe0c62d8	-0.13709581
11	0x3db57b11	0.08861364
12	0x3e36cf92	0.1785262
13	0xbe046424	-0.12928826
14	0xbdd772d3	-0.10519948
15	0xbe831020	-0.2559824
16	0xbe30ca90	-0.17264771
17	0xbe995df5	-0.29954496
18	0xbdfcffc5	-0.12353472
19	0xbd5b8e83	-0.053602707

final_convolution.weight f4 [1, 21, 1, 1]
0	0xbdf4b16c	-0.11947903
1	0xbec09158	-0.37610888
2	0x3e29fce9	0.16600384
3	0x3f1d2093	0.6137783
4	0x3eb89082	0.3604775
5	0x3dd4b9a0	0.10386968
6	0xba996cbb	-0.0011705378
7	0xbe7d7159	-0.2475027
8	0xbed01b2a	-0.40645725
9	0xbd7a5719	-0.06111822
10	0xbd24173e	-0.040061228
11	0x3d735d2f	0.05941504
12	0xbdf9116a	-0.121615246
13	0x3eb9011f	0.36133668
14	0x3dae36f1	0.08506573
15	0xbdad5305	-0.084631
16	0x3e0087f9	0.1255187
17	0xbdab196e	-0.0835446
18	0xbdd3b51d	-0.10337279
19	0xbdb5e3f6	-0.08881371
20	0x3cef3c5d	0.029203588
