from_finrl-tutorials_git/data_1993_to_2024/train/v2_result/eiie_20241224_160149_dev_profitable_no_trf_mu_ep20_2024/checkpoint-5/policy_EIIE_5.pt (torch, 3716 bytes, 5 tensors)

sequential.0.weight f4 [2, 9, 1, 3]
000000 1d fc 50 3e 3c c5 b2 3d 66 5e c5 bd 7b b8 96 bd
       0.20408674 0.08729026 -0.09637146 -0.073594056
000010 e0 ae 40 3e 5f 34 24 be f5 ef 8d bc 55 54 eb 3d
       0.1881671 -0.16035603 -0.017326334 0.114906944
000020 7e 16 89 bd c5 30 0d be aa f6 1f 3d 22 00 41 3e
       -0.06693743 -0.13788135 0.039053597 0.18847707
000030 8a 71 31 3e 52 de 0e bd 1c 7c 2c bd c6 de 12 be
       0.17328468 -0.03487999 -0.042110547 -0.14342794
000040 a8 29 48 bc 1a 4d 06 ba 2f d0 56 3d f0 2b 16 3e
       -0.012216963 -0.00051231834 0.052444633 0.14665198
000050 53 85 ea 3d cb f7 19 3e 1e fd 90 3c aa 6e a0 bd
       0.11451211 0.15035932 0.01769882 -0.078336075
000060 6b c9 2c 3e 7b 72 d0 bd 26 d8 d2 3d 90 69 24 3e
       0.1687371 -0.101780854 0.10295133 0.16055894
000070 43 d0 28 bd e6 07 a4 bd eb 70 d7 3d 67 03 f7 3d
       -0.04121424 -0.08009319 0.10519584 0.12061196
000080 c2 6a 2b be 28 e8 13 be 6c 31 db bd 49 98 31 3e
       -0.16739944 -0.1444403 -0.10702786 0.17343248
000090 b8 bf 08 3e 57 9e 09 be b8 f6 58 3d af f7 45 be
       0.13354385 -0.13439308 0.052969664 -0.19332765
0000a0 a4 7d a6 3c 80 a3 d6 3d 73 71 1d be 3c d4 1b 3d
       0.020323582 0.10480404 -0.15375309 0.0380442
0000b0 64 e5 27 be 85 61 11 be b2 3b e4 bc 4a 04 74 3c
       -0.163961 -0.14197357 -0.027860496 0.014893601
0000c0 c4 1e 7f 3d 12 63 0c bc 83 f9 0a 3e 3b 73 22 bd
       0.0622852 -0.008568542 0.13571744 -0.039660674
0000d0 a6 24 ec bd aa 60 ab 3d
       -0.11530428 0.083680466

sequential.0.bias f4 [2]
000000 f1 ee 83 bd 61 73 4b be
       -0.06442059 -0.19868232

sequential.2.weight f4 [20, 2, 1, 3]
000000 69 83 d4 3d 2b 35 fe 3d 7a 87 b0 3e 70 9d c5 be
       0.10376627 0.12412485 0.3447836 -0.38596678
000010 ab 8b 02 3e a8 e1 ad bd 74 3d 81 be 8d 59 32 bd
       0.12748592 -0.08490306 -0.25242198 -0.043542434
000020 6b 20 94 be 28 ee 94 3e 4a d5 a8 bd 63 42 b5 be
       -0.28930983 0.2908795 -0.08243807 -0.35402212
000030 32 86 8c be 82 8a b4 3d 0b ee 86 bd 5d 34 5b 3d
       -0.27446133 0.08815481 -0.06588372 0.053516734
000040 af 5f 27 3e 32 77 c6 3d 9f 8c a0 be 23 09 9e 3e
       0.16345094 0.096907035 -0.31357285 0.30866346
000050 47 b8 ab be bd b1 c9 3e 86 d1 9a 3c d8 66 a9 bd
       -0.3353903 0.39393416 0.018898737 -0.08271569
000060 fc a0 2d be b6 54 9a be f4 c1 20 3d e4 68 a4 3e
       -0.16955942 -0.30142754 0.039247468 0.32111275
000070 de 13 ad 3e 48 ce a1 3d 68 94 c3 3c 34 cc 1b 3e
       0.3380422 0.07900673 0.023874477 0.15214616
000080 f5 e9 73 be a9 e4 bc be 1d c8 35 3e 67 f9 0e be
       -0.23819716 -0.36893204 0.17752118 -0.13962327
000090 0e 34 8b 3d 24 66 36 bd 74 ad 32 be 4e f6 75 be
       0.06797038 -0.044531003 -0.1744898 -0.24019739
0000a0 d8 4d c2 be 07 8a be 3d 04 22 91 be a9 d2 3a bd
       -0.37950015 0.093036704 -0.28346264 -0.045611057
0000b0 79 14 8a be 22 eb 4c 3d 32 13 37 3d 71 04 9a 3d
       -0.26968744 0.050028928 0.04469604 0.075203784
0000c0 61 e6 89 3e ae 4f 00 bd c4 c3 61 3e ea 12 b6 3e
       0.26933578 -0.03132599 0.22047335 0.35561305
0000d0 21 82 b8 3e 9e 55 a7 be 61 12 72 be ab 92 ab 3e
       0.3603678 -0.32682508 -0.23639823 0.33510336
0000e0 52 77 31 3e 12 09 a0 be 19 f1 71 3e d9 0f 51 be
       0.17330673 -0.3125692 0.23627128 -0.20416202
0000f0 40 1f 92 bb ea bb aa 3d d6 e6 10 be ec f6 8f bd
       -0.0044592917 0.08336623 -0.14150557 -0.070295185
000100 78 2d 7f 3d a7 58 90 be 2a 6d 5f be 95 fc 9b bd
       0.06229922 -0.28192636 -0.21818987 -0.076165356
000110 9b 48 68 be 61 fa 9d be da 51 79 be 2f 95 a2 be
       -0.22683947 -0.30855086 -0.2434763 -0.31754443
000120 4e 4c 9b 3c fc 4c 5a be f2 9d 29 3e f7 6b 64 3d
       0.018957283 -0.2131843 0.16564158 0.055767026
000130 f4 56 2a 3e 48 ae 25 3b bd b9 ba 3e bb 21 2b be
       0.16634732 0.0025280882 0.36469832 -0.16712086
000140 33 47 86 be 6c 99 dd 3d 34 1a 9c 3e e7 9a d9 be
       -0.26226196 0.108202785 0.3048874 -0.42500994
000150 0c 17 09 3d 55 7f 2b 3e 1a 6e ba bd 05 6d 5e 3d
       0.033469245 0.16747792 -0.091030315 0.054303188
000160 ee 41 ca bd c8 2e b8 be 9f ec c0 3e 75 f8 e9 bd
       -0.09875856 -0.3597319 0.37680528 -0.114243425
000170 2c 38 64 bd 5b f9 7e 3d 15 c9 92 3e 6a a5 33 be
       -0.055717632 0.062249523 0.28669038 -0.17543569
000180 8c 6c 11 be d7 f3 40 be 8f 89 b6 3c c7 0a 81 be
       -0.14201564 -0.18843018 0.02228239 -0.25203535
000190 e0 9a 26 3d a4 47 d6 3d bb 2e 8c 3e 84 f8 d8 3d
       0.040675044 0.10462883 0.27379403 0.105942756
0001a0 b8 f9 4e be 14 50 61 3e 8f 99 8c be 24 0b 8f 3e
       -0.20212448 0.22003204 -0.27460906 0.27938187
0001b0 3e 62 91 3d a0 f8 e6 3c ef f4 1e 3e c4 05 04 3e
       0.07098816 0.028194726 0.15523122 0.12892824
0001c0 2b 3d 99 bd 1d e6 03 3e ac 8a 92 be 7c 3e 33 3e
       -0.0748237 0.1288075 -0.28621423 0.17504305
0001d0 eb 92 7b 3e 16 7b 72 be 92 04 85 3e f7 07 09 bd
       0.24567764 -0.23679766 0.2598005 -0.03345486

sequential.2.bias f4 [20]
000000 f6 1b 4a 3e e1 81 5a be 80 9f e0 bd 1c 08 be be
       0.19737229 -0.21338607 -0.10967922 -0.37115562
000010 d4 e6 91 3e f3 73 74 bd 1d b6 9a be 71 79 a0 bd
       0.2849642 -0.05968089 -0.30217066 -0.07835663
000020 2b 0b 6e be cd fe ae be 47 d7 bd be 84 48 57 be
       -0.23246448 -0.34178773 -0.37078306 -0.21023756
000030 a8 fe bd 3e c3 75 e5 3d ca 85 c9 3e 14 d7 9c be
       0.3710835 0.11204102 0.39359885 -0.30632842
000040 16 e0 58 3e 68 5f 7c be 31 ba bc 3e eb 92 a5 3d
       0.21179232 -0.2464577 0.36860803 0.08084663

final_convolution.weight f4 [1, 21, 1, 1]
000000 4e 55 4a 3e 9e bb 3e bd 58 b8 da bd d5 2a 12 3e
       0.19759104 -0.046565644 -0.10679692 0.14274152
000010 59 46 b7 3c 98 e1 0d 3e 46 24 13 3c 80 1d 76 3c
       0.022372412 0.13855588 0.008980816 0.015021682
000020 e4 87 0c be 4a 0d 2c be dc cf 0a 3e 82 93 17 be
       -0.13723713 -0.16801944 0.13555855 -0.14802364
000030 f6 0e 3f be 6c 6b 8d bc 1c 39 21 be 72 bb 1d 3e
       -0.18658051 -0.017263137 -0.15744442 0.15403536
000040 a6 a5 6c 3c 04 95 bf bd 6c 54 60 3e 1f 84 a9 bd
       0.014443791 -0.09354594 0.21907204 -0.08277153
000050 78 2e 31 3d
       0.043257207
