from_finrl-tutorials_git/data_1993_to_2024/train/v2_result/eiie_20250103_092947_turbulence_ep500_deficit/checkpoint-117/policy_EIIE_117.pt (torch, 10968 bytes, 5 tensors)

sequential.0.weight f4 [2, 9, 1, 3]
000000 a5 7b 9d 3d d8 8d 17 be 42 72 7f 3b 98 02 4c be
       0.07689599 -0.14800203 0.0038978015 -0.19922864
000010 cc 88 67 3e 25 09 73 bd 76 e9 a3 3c 46 f2 9e 3e
       0.22610778 -0.059334893 0.020008784 0.31044215
000020 68 0b b8 bd a7 46 45 3d 04 f4 85 3c da 2b ae bd
       -0.089865506 0.048163082 0.016351707 -0.08504458
000030 21 ef 10 be a4 cf 5b 3d 2f 61 b0 3d 4d f4 1e be
       -0.1415372 0.05366482 0.08612286 -0.15522881
000040 59 98 02 be 14 18 6d 3c de 6b b0 bc c8 a5 93 bd
       -0.12753429 0.014471073 -0.02153581 -0.07209355
000050 1a fb 1e be a2 64 cc bd 9a 12 0a be 5f 06 07 be
       -0.15525475 -0.09980132 -0.13483658 -0.13186024
000060 36 13 72 3d 30 fb c7 3d ba 53 ce bc 95 99 65 bc
       0.059100352 0.09764707 -0.025186408 -0.014013668
000070 41 5e 21 be 23 b0 4c 3c 13 a0 76 bc 8d 7d 7c 3d
       -0.15758611 0.012493166 -0.015052813 0.061643172
000080 ca 58 22 be dc b5 ab bd 03 b3 03 be 6f 59 bd bd
       -0.15854183 -0.08384296 -0.12861256 -0.09245574
000090 59 c7 4c bc 9a c0 20 be 7a 6b 3d bd 0b dc 0e be
       -0.0124987 -0.15698472 -0.046245076 -0.13951127
0000a0 1b 3f b7 3d 4b a0 37 bc 73 05 74 3d d5 b9 9e bd
       0.08947583 -0.01120765 0.05957551 -0.077502884
0000b0 9d 25 e6 bb 89 a7 b6 bd 6e e1 6c 3d 87 d7 ef bd
       -0.007023527 -0.089186735 0.057832174 -0.117110305
0000c0 1b de 61 3d ce 6a 36 be ff fb 8e 3d 93 8a 6c bd
       0.055143457 -0.1781418 0.06981658 -0.057749342
0000d0 10 aa 9d 3d 92 a7 32 be
       0.076984525 -0.17446736

sequential.0.bias f4 [2]
000000 6c 1f 68 bd 45 1c 0f 3d
       -0.05667059 0.03493907

sequential.2.weight f4 [20, 2, 1, 48]
000000 cc 81 28 be 5d 14 44 be 85 67 2c be 96 ed ff bd
       -0.16455764 -0.19148393 -0.16836365 -0.12496488
000010 88 4e ff bd c4 4b 64 bd 9b 6a 53 bd c7 84 00 be
       -0.124661505 -0.05573632 -0.05161534 -0.1255065
000020 29 0f c7 3d ab da c6 bd 90 96 fe bd 1b 7d 50 bc
       0.097196884 -0.09709676 -0.12431061 -0.01272514
000030 db f8 27 bd 6e 66 7e bd b0 9d f4 3d e4 0c 12 be
       -0.04100881 -0.062109403 0.11944139 -0.1426273
000040 c7 b9 46 3e 8e 9a f3 bd 5d 56 d3 bd cf b0 8e bd
       0.19406806 -0.11894713 -0.10319207 -0.06967317
000050 da b0 31 be d6 9e 0e be 06 6b ff bd 32 71 67 bd
       -0.1735262 -0.13927779 -0.12471585 -0.056504436
000060 27 2c 72 bd 65 32 41 be 18 f8 8c bd ed a7 01 3e
       -0.05912414 -0.1886688 -0.06883258 0.12661715
000070 10 27 d5 bd d3 47 cc bd 57 d2 ca bd ce 91 d0 bd
       -0.10407841 -0.09974637 -0.099034004 -0.1018406
000080 30 9a 2e be 06 14 f0 bd 40 2c 24 3e d3 40 03 3e
       -0.17051005 -0.11722569 0.16032505 0.12817697
000090 d3 51 1d be 92 18 20 bd c1 86 12 be af de ec bd
       -0.15363245 -0.039085932 -0.14309217 -0.11565911
0000a0 5b 00 e0 3d 68 e6 1d be b6 e5 18 be 1a 9d 5e bd
       0.10937568 -0.15419924 -0.14931378 -0.054349042
0000b0 5e f4 1a be 89 88 46 bd fc c6 c6 bd 88 6e 05 be
       -0.15132281 -0.048470054 -0.09705922 -0.13030446
0000c0 19 aa 72 bd 5d 82 83 3d 57 84 bc 3d a6 ce b9 bd
       -0.05924425 0.06421349 0.09204929 -0.09072618
0000d0 25 39 ae b9 b9 2c 05 be 97 cf 74 bd 7e 0f 89 bd
       -0.00033230442 -0.13005342 -0.059768286 -0.06692408
0000e0 e6 7e a4 bc 7e 99 77 3c a8 db cb bd ec d0 67 3c
       -0.020080041 0.015112279 -0.099540055 0.014148932
0000f0 74 b0 7a bc bc e5 a8 bd 49 07 e7 3c df 4c 78 3d
       -0.015300859 -0.08246943 0.028201716 0.060620185
000100 ea 48 20 3e 54 fc b7 bd bc 42 ea 3d 1b 13 23 bc
       0.15652815 -0.08983675 0.1143851 -0.009953286
000110 bb 5d 8c 3d 19 26 37 bc ce e0 cc 3d 93 bc 1b 3d
       0.06853815 -0.011178517 0.100038156 0.038021635
000120 db 64 e7 3c 1e f8 8b 3d f3 5c a5 3d ea 74 78 3d
       0.028246334 0.06834434 0.08074369 0.060658373
000130 8b 76 cb bc 9e 3f cb bd a4 09 d7 3c e6 a4 28 3c
       -0.0248368 -0.099242434 0.026249714 0.010293221
000140 16 7b 97 3b 4a bf 47 bc b6 01 d8 bd 8c b4 e2 3d
       0.0046228273 -0.012191603 -0.10547201 0.11069593
000150 8e e8 e2 bb f0 ef a9 3d 91 27 36 bd 34 03 c7 3d
       -0.0069246953 0.082977176 -0.044471327 0.09717408
000160 f2 67 75 bc 66 a8 69 3d e2 01 13 3c aa a0 83 bd
       -0.014978396 0.057045363 0.008972617 -0.064271286
000170 43 46 07 bd 6b 42 e6 3d a5 ea c5 bd 96 7d 97 bc
       -0.03302599 0.11243137 -0.096638955 -0.018492501
000180 5a 68 e1 3c fd 0d 0b 3d 81 82 8d bd 2c 34 8c 3d
       0.027515579 0.033948887 -0.06909657 0.068458885
000190 8f 37 3a 3d 5a 81 ad 3d 86 fd 3e bd f8 6b a8 bd
       0.04546314 0.084719375 -0.046628498 -0.082237184
0001a0 df bc 12 bd e5 04 f5 3d 8d 5c 09 3e cd ae 21 3e
       -0.035824653 0.11963824 0.13414212 0.15789337
0001b0 f4 e3 67 3d 44 4e 5d 3e 5b 38 44 bd 19 be 91 3d
       0.056613877 0.21611887 -0.047905307 0.071163364
0001c0 ff 18 c1 bd 09 05 81 bd b1 e6 87 3d 26 6e 3a 3d
       -0.09428596 -0.062997885 0.06635798 0.045515202
0001d0 38 18 c6 3d 10 3f a9 3d 5e 98 2c 3e 98 69 1d 3e
       0.09672588 0.08263981 0.16854998 0.15372312
0001e0 fc 74 02 3e 27 7f 9b 3d 4b 0f 3e bd 8a 18 3c bd
       0.12739938 0.07592612 -0.046401303 -0.04592184
0001f0 17 37 0a 3e c2 73 8a 3d 83 ea a6 bc 6b a5 08 3e
       0.13497578 0.0676036 -0.020375496 0.13344352
000200 47 f2 8f bd dd 3d b9 bd 6e 36 c0 bd 0d 55 eb bd
       -0.070286326 -0.090450026 -0.09385382 -0.114908315
000210 92 2c 31 be 8a 03 f7 bb 39 e4 3b bb 73 67 1a bc
       -0.17302158 -0.0075382637 -0.0028669967 -0.009424078
000220 e3 8c d8 bd 7a 56 2b be c1 3d 28 3e 0a 44 cf 3d
       -0.10573747 -0.16732207 0.16429807 0.10120399
000230 85 55 7d bd a7 b8 6d bd 12 f1 3b 3e b4 a4 8f 3d
       -0.061849136 -0.058037426 0.1835368 0.070138365
000240 a3 fa 51 3c 03 fd da 3b 4e e4 03 be f4 c1 33 3d
       0.012816104 0.0066829934 -0.1288006 0.04388614
000250 4f f0 8f 39 c0 40 0c 3d 32 13 0c 3d e4 47 9a 3d
       0.0002745413 0.034241438 0.034197994 0.07533243
000260 05 e6 ab 3c 61 08 4b 3c e6 9f e8 3d f4 d7 79 bb
       0.020983705 0.012392134 0.11358623 -0.0038123103
000270 c3 e6 23 bc 66 03 41 3e 7d d2 ba 3c 0e 50 44 bd
       -0.010003748 0.18848953 0.022805447 -0.04792791
000280 fb c9 c5 bd 61 d3 93 3d a4 0b 00 bd 3c 53 d6 3d
       -0.09657665 0.07218052 -0.0312611 0.104650944
000290 4d 1e cc 3c 40 9c 65 bb cd 2f d3 bd 87 26 ca bc
       0.024916792 -0.003503576 -0.10311852 -0.024676574
0002a0 d6 96 10 3b c6 d9 3a bd 94 d6 9a 3d 40 a0 09 bc
       0.0022062561 -0.04561784 0.07560459 -0.008400023
0002b0 f3 bc ab bc b9 a0 da bc 3e 5f e3 3d 3e 57 e3 3d
       -0.020964121 -0.026687967 0.111021504 0.111006245
0002c0 14 cc d0 bc 10 19 28 bd f3 1a b0 3d 80 90 4c be
       -0.025487937 -0.041039526 0.0859889 -0.19976997
0002d0 56 a1 ec 3d 9d 0e 3d 3d 3b 9b dc 3d b1 16 18 bd
       0.1155421 0.046156514 0.10771795 -0.037131015
0002e0 1d 74 8e bd 04 dc 9d 3d d3 bb e9 3d 24 0d 4d 3d
       -0.069557406 0.0770798 0.11412778 0.05006136
0002f0 62 50 da bb 10 a6 a5 bd a6 c7 22 3e 77 93 9e 3b
       -0.0066624144 -0.080883145 0.15896472 0.0048393565
000300 4e 22 01 be 56 ff fe bd 44 cd 07 be 30 4b 88 bd
       -0.12610742 -0.12451045 -0.13261896 -0.06654966
000310 64 84 a8 bd 76 c2 22 be 83 d3 d9 bd 13 c9 05 3e
       -0.082283765 -0.15894493 -0.10636046 0.13064985
000320 c2 af ff bd bb b2 0d be 53 12 2c bd 40 8a e1 3c
       -0.12484695 -0.13837712 -0.042009663 0.027531743
000330 21 f5 63 3c 17 f9 fa bd 5f b2 03 3d 2f 88 e4 bd
       0.013913424 -0.12254541 0.03215253 -0.111587875
000340 f2 89 aa bd 99 43 e0 3c 6a fc f2 3d 81 69 64 3c
       -0.08327092 0.027375983 0.118645504 0.01394117
000350 87 9e 20 3c e4 5f 5d bd 95 ef 20 be 55 b9 6a bd
       0.009803421 -0.054046527 -0.15716393 -0.057305653
000360 86 8e 1d bd 83 33 0a be 32 eb 40 bd cd 7c a1 bd
       -0.038466 -0.13496213 -0.0470993 -0.07885132
000370 a8 b6 1d be a8 dd 82 bd 15 ab 0e be ea 09 8e bd
       -0.15401709 -0.06389934 -0.1393245 -0.06935485
000380 83 63 07 be 4c 48 6e bd d3 07 42 be da f5 0e be
       -0.13221554 -0.058174416 -0.18948297 -0.13960972
000390 3e 6d 12 be 84 55 61 bd fc 03 b8 bd c7 44 a9 bd
       -0.14299485 -0.055013195 -0.08985135 -0.08265071
0003a0 b3 cc 04 3e 52 92 d1 bd 2d ed 0f be 37 89 e1 3d
       0.12968712 -0.102329865 -0.14055319 0.110125
0003b0 89 37 97 3d 00 27 00 bd 0f ea 0a be 60 44 bd 3c
       0.07383639 -0.031287193 -0.13565849 0.023103893
0003c0 d5 3a 5b 3d c1 af 80 3d 2e b1 a0 3c 1d e9 f6 bb
       0.053522903 0.062835224 0.019615736 -0.0075351135
0003d0 17 3d 74 bd 1b a5 33 bd 8e 36 f3 3c ae db 31 3e
       -0.059628572 -0.04385863 0.0296891 0.17368957
0003e0 d2 52 d1 3d 77 28 01 be 74 c2 87 bd ff cd 5e 3c
       0.10220875 -0.12613092 -0.06628886 0.013598918
0003f0 69 d5 08 3d 8d e5 16 be 98 bd a7 3d 54 58 5a 3d
       0.03340665 -0.14736004 0.08190459 0.053306893

sequential.2.bias f4 [20]
000000 07 dc 39 3d d4 15 e1 3d 6e 40 be 3c 42 25 14 3b
       0.04537585 0.109904915 0.023224082 0.0022605215
000010 aa 73 3f 3c 54 30 fe ba ce f3 16 3e 5b ef 58 bc
       0.011685291 -0.0019393065 0.14741442 -0.013240661
000020 a1 06 1c 3e 0b 3f c2 3d 37 d0 c5 3c 16 d3 0e bc
       0.15236904 0.09484681 0.024147136 -0.008717319
000030 76 17 ae 3d 80 09 62 bd 62 44 b9 3c e7 30 42 3c
       0.085005686 -0.05518484 0.022615615 0.01185248
000040 11 f8 13 3d d7 1a ad bd e1 2c af 3c d4 6b 9d 3c
       0.036125246 -0.08452385 0.021383705 0.019216456

final_convolution.weight f4 [1, 21, 1, 1]
000000 36 a7 b9 3d 70 8e f4 bd 05 de d0 3d c0 e3 d3 bd
       0.09065096 -0.1194123 0.10198597 -0.10346174
000010 16 29 ad 3c 0e 95 e1 3d d0 47 e9 bd 93 b5 8b 3d
       0.021137755 0.11014758 -0.1139065 0.06821742
000020 5a 82 73 be b0 97 40 3d 5b 74 20 be fa 5d 12 be
       -0.23780194 0.04701966 -0.15669386 -0.14293662
000030 78 34 1e be dd 45 49 3e 18 1a e0 3d b3 d5 20 be
       -0.15449703 0.19655557 0.10942477 -0.1570652
000040 41 81 a6 bd 94 1a 28 3d 1e 1b c6 3b 4b 0e 3e bd
       -0.08130122 0.041040972 0.006045713 -0.04640035
000050 45 e0 01 bb
       -0.0019817513
