from_finrl-tutorials_git/data_1993_to_2024/train/v2_result/eiie_20241220_184459_ep400/checkpoint-76/policy_EIIE_76.pt (torch, 10958 bytes, 5 tensors)

sequential.0.weight f4 [2, 9, 1, 3]
000000 69 50 b4 3d 3f 8e 81 3d 3f 49 20 3d aa d6 1f 3e
       0.088043995 0.063259594 0.039132353 0.15609232
000010 94 3f 4e 3e 30 23 04 3c f5 74 4e 3b 97 97 8b 3e
       0.2014144 0.00806503 0.0031502817 0.2726409
000020 3a f3 79 3e f5 06 da bd 5d 6f 04 3f 63 c1 d6 3e
       0.2440919 -0.10645858 0.51732427 0.41944417
000030 72 91 bb 3d ff 4a 9f 3d 1c 9b c1 be 7f 74 30 3e
       0.09158601 0.07777976 -0.37813652 0.1723194
000040 26 9e 03 3e ce 4f 62 3e 1d 67 a9 3d ac 6d 0b 3e
       0.12853298 0.22100756 0.082716204 0.13616055
000050 a7 73 bf 3d cf f1 9a 3e 11 eb 0c 3e c6 d8 d8 bd
       0.09348231 0.3026261 0.13761546 -0.10588221
000060 8f 99 0f 3e a8 ce 35 bd 92 81 83 3e 29 88 93 be
       0.14023422 -0.044386536 0.25684792 -0.2881482
000070 f9 74 af be c8 89 3c be eb 0e 94 bd a5 0c dc bd
       -0.3426893 -0.18411934 -0.07229408 -0.10744599
000080 5d 9d fb bc 4b ce 3c be ca f8 aa be 09 1a 8f be
       -0.030714685 -0.1843807 -0.33392936 -0.2794955
000090 41 f7 40 bc 79 80 cc 3d 58 d4 17 bd fd f4 ff be
       -0.0117777 0.09985442 -0.03706774 -0.499916
0000a0 b0 4d 12 be 1a ab 1f bf 1d a2 85 be 85 4b a4 be
       -0.14287448 -0.62370455 -0.26100245 -0.32088867
0000b0 85 97 1c bd f7 e6 86 be 25 52 2a bd 21 a0 94 be
       -0.038230438 -0.26348087 -0.041582245 -0.2902842
0000c0 af 06 9a be 3b 35 06 bf a2 e7 85 be d2 69 b9 bd
       -0.30083224 -0.52424973 -0.26153284 -0.09053387
0000d0 2f 76 5e bd cc 80 29 be
       -0.054311927 -0.16553038

sequential.0.bias f4 [2]
000000 77 02 46 3e d0 e5 81 be
       0.19336878 -0.25370646

sequential.2.weight f4 [20, 2, 1, 48]
000000 1a 4e 15 bd 21 af 0f be 10 d9 7f bd 4b 51 a6 bc
       -0.036451437 -0.1403165 -0.062462866 -0.020302435
000010 61 ed 72 bd e7 19 3e be 0e cb 9a bd a1 3e c7 bc
       -0.059308413 -0.18564568 -0.07558261 -0.024321856
000020 3a 63 49 be 38 84 af bc 5b b4 0a be d1 6f 9a bb
       -0.19666758 -0.021425352 -0.13545363 -0.0047130366
000030 d5 12 6d bd d2 33 73 be ac f7 0a 3b 47 ba 81 bd
       -0.057879288 -0.23750237 0.0021204753 -0.06334358
000040 fc a8 b2 bc ae ec 1f bc c3 25 23 bd 71 85 e8 bd
       -0.021809094 -0.009761019 -0.039830934 -0.11353577
000050 8c 07 c1 bd d9 97 c7 bd 95 e7 24 be 95 ea 60 be
       -0.094252676 -0.097457595 -0.16103967 -0.21964486
000060 74 d2 02 bf fe ae 2c bc ef f4 5f be 1b ff c0 bd
       -0.51102376 -0.010539768 -0.21870779 -0.094236575
000070 0a 2d 02 be 00 8f eb bb 95 7b 87 bd b8 aa 5f be
       -0.12712494 -0.007188678 -0.06615368 -0.21842468
000080 c0 e0 fc bd ef a2 07 be 32 7d b4 bd 6c 56 8a bd
       -0.12347555 -0.13245748 -0.088129416 -0.06754765
000090 9f c8 d6 bd 98 b9 d9 bd 90 41 61 bd d6 dd cd bd
       -0.10487484 -0.10631102 -0.054994166 -0.100520775
0000a0 ce 20 9f be 1a 45 52 be 9e b6 fe 3d f3 c5 b5 bb
       -0.31079715 -0.20534173 0.12437175 -0.005547279
0000b0 a7 9e e0 3d 4b 7c 65 be 45 a0 0a be d3 9b c3 bd
       0.109677605 -0.22410695 -0.135377 -0.095512055
0000c0 ec 2c 16 be 13 f5 30 be ae 69 1b be 21 4b 85 bd
       -0.14665574 -0.17280988 -0.15177032 -0.0650847
0000d0 b2 62 e1 bd 33 4d 03 be 15 d2 f1 bd 05 59 08 be
       -0.11005153 -0.12822418 -0.11807648 -0.13315208
0000e0 6f 98 12 be a1 ca a1 3c a3 e1 0f 3b 28 6f 10 bd
       -0.14315961 0.019749941 0.0021954558 -0.035262257
0000f0 61 d2 29 be 8f 07 ed bd 46 a5 6f bd 9f e7 0f be
       -0.1658416 -0.11573707 -0.058507226 -0.140532
000100 92 f7 84 bd 73 79 56 bd 46 ce 32 b8 15 f4 bc bc
       -0.06492533 -0.052361917 -4.2630614e-05 -0.023065606
000110 a2 79 9b bd 68 8d 07 be 5d 5a e1 bd d7 bb 32 bd
       -0.07591559 -0.13237536 -0.110035636 -0.04363617
000120 79 6b 17 be 96 f7 35 be 54 63 af ba 22 86 8e bd
       -0.14787091 -0.17770228 -0.0013381043 -0.069591776
000130 7d 6e d5 bd 93 82 35 be fb 23 a2 bd 1b 7c af bd
       -0.104214646 -0.17725591 -0.07917019 -0.08568593
000140 d9 aa 1f be 75 2e 04 bd b5 ae 03 bd 67 f8 8f bd
       -0.15592517 -0.032270867 -0.032149035 -0.07029801
000150 93 79 00 bd be 54 1c bd ee 9f 73 bd 3d ec 05 be
       -0.031365942 -0.038166754 -0.059478693 -0.13078399
000160 ac ff 6a bb 33 10 14 3e dc 03 d1 bd 09 25 e9 bd
       -0.0035857959 0.14459305 -0.10205814 -0.11384017
000170 29 c2 2e be 60 14 56 be 24 99 56 3b 1b 23 25 bd
       -0.17066254 -0.2090621 0.0032745088 -0.040316682
000180 0d 81 ef bd 97 d9 f4 3d 81 67 92 3e 91 92 e0 3b
       -0.11694536 0.119555645 0.28594592 0.0068534096
000190 d9 d1 2c 3f 1d 23 e0 bc 02 55 04 3f 4d 03 93 be
       0.675077 -0.027360493 0.5169221 -0.28713456
0001a0 1c de f6 3e 79 5f 82 3e f5 54 43 3f 16 d1 29 be
       0.4821633 0.25463465 0.7630151 -0.16583666
0001b0 10 af 00 3e eb 0f 22 be e0 87 db be 2b 4c 05 3e
       0.12566781 -0.15826385 -0.42877102 0.13017337
0001c0 8a e6 2a be 59 88 35 bd 39 b1 9e 3b 2b a7 96 be
       -0.16689506 -0.044319484 0.004842904 -0.29424414
0001d0 04 cb 09 bf b7 f6 b1 be 3a 76 01 bf 41 5c e7 3e
       -0.538254 -0.3475854 -0.50571024 0.45187572
0001e0 17 ec 76 be e3 a8 ef bd 12 11 d9 bd 07 8a 01 3e
       -0.24113499 -0.117021345 -0.10598959 0.1265031
0001f0 94 65 fd 3e f3 ab 8e 3e 75 85 54 be 78 31 22 be
       0.4949156 0.27865562 -0.20754035 -0.15839183
000200 4c 24 c0 3c bc f5 8c be 25 52 a8 be c6 c0 82 bb
       0.023454808 -0.2753123 -0.3287517 -0.0039902655
000210 a2 d2 ae be d9 35 d9 3e 4e ad 58 bd 41 bc 3f 3d
       -0.34145075 0.42423895 -0.05289965 0.046810392
000220 6c f0 c0 3d a7 1b 27 bf 8c bd ca 3c 5e fc 49 3f
       0.09420857 -0.6527657 0.024748586 0.78900707
000230 12 7e 4b 3d a5 84 eb 3d e9 6d 17 bf 1c 54 2d be
       0.049680777 0.11499909 -0.59152085 -0.16926616
000240 7b 72 e1 3c 8b 72 70 bb a5 b0 74 be f8 c5 e9 bd
       0.027520409 -0.0036689367 -0.2389551 -0.11414713
000250 dc 57 3e 3e e2 79 b5 3e e7 8a 2f 3e 6d d7 72 be
       0.18588203 0.35444552 0.17142831 -0.23714991
000260 32 37 69 39 e9 4f d9 3e 2c 4b 30 38 96 89 97 3e
       0.00022241173 0.4244378 4.203168e-05 0.29597157
000270 a2 e2 37 be 70 40 45 bd 7c e9 81 ba ff 14 62 3d
       -0.17957547 -0.048157156 -0.0009911503 0.055195805
000280 bc 04 3b 3e a9 30 2d bc f0 20 e3 bd 52 c0 7e 3d
       0.18263525 -0.0105706835 -0.11090267 0.06219513
000290 7e 2b ec bd b5 56 de bc 53 24 ef 3d fe 93 4e 3d
       -0.11531733 -0.027140955 0.1167685 0.050434105
0002a0 b8 3d 56 3e fa af 00 be 7f f5 30 bd d2 dd ad 3c
       0.20921981 -0.1256713 -0.043202873 0.021223936
0002b0 dd a3 32 bd ce 10 c4 bd d9 68 03 3e eb 68 20 bd
       -0.043613303 -0.09573518 0.12832965 -0.039162558
0002c0 c9 7b 5c be 08 88 13 3e b7 1a e7 bd e8 6a a2 bb
       -0.21531595 0.1440736 -0.11284392 -0.004956592
0002d0 fe fa 0a bc a7 f2 aa bd c2 c4 22 3e be 1f d8 bd
       -0.008482693 -0.083470635 0.1589537 -0.10552929
0002e0 f6 a2 95 bd 74 22 cd 3e 3f ea b9 bd 49 4a f3 bd
       -0.07306473 0.40065348 -0.09077882 -0.11879403
0002f0 be bc 0a 3f bf 6b a9 3d 88 15 6d 3d 13 39 91 3c
       0.5419425 0.08272504 0.057881862 0.01772741
000300 ef e9 08 3f 49 28 2b 3e 91 28 a5 be 5d 10 27 bf
       0.53481954 0.16714586 -0.32257512 -0.65259343
000310 ba 23 04 3f 5d 85 24 3e 22 5a bd bb e5 1a 24 be
       0.51617014 0.16066499 -0.005778567 -0.16025884
000320 fb 4b 10 be 55 c3 d3 bd bc c4 27 3f d2 41 06 bf
       -0.14091484 -0.10339991 0.6553457 -0.52444184
000330 57 5a 89 3e 42 40 23 3f a7 ad 23 3f 25 5c 31 3f
       0.26826736 0.63769925 0.6393685 0.69281226
000340 54 be 03 3d 36 c5 d3 3e c4 d7 74 3e f1 0f d4 bd
       0.032163933 0.41361398 0.23910433 -0.10354603
000350 a0 27 60 3f 49 18 2e 3f 8e 52 2c 3f 3b 71 16 be
       0.8756046 0.68005806 0.6731347 -0.14691631
000360 39 76 ec bc 3e 9c 11 3d 5e f7 fe 3d 06 aa 6e 3e
       -0.028864967 0.035549395 0.12449525 0.23307046
000370 a2 b4 ee 3e 81 ac 77 be 56 06 48 3f 81 06 c4 bd
       0.46622187 -0.24186899 0.7813467 -0.09571553
000380 80 44 82 be 95 e7 d9 bd ac c4 7b 3e d0 4e 9d 3f
       -0.25442886 -0.10639874 0.24586743 1.2289677
000390 27 2a fa 3e 22 b0 7d 3d 03 4b e9 bd ad 57 9e 3d
       0.48860285 0.06193555 -0.113912605 0.077315666
0003a0 42 03 60 3e 54 e9 b6 3e eb 89 87 be 86 6e a2 be
       0.21876243 0.3572489 -0.2647241 -0.31724948
0003b0 d0 45 8a be b3 d4 5f be 84 34 b0 be a4 6b d5 3e
       -0.27006388 -0.21858482 -0.34415066 0.41683686
0003c0 8e 63 9b 3d a0 44 cc bd 47 dc 98 bd 36 fc 52 be
       0.07587348 -0.09974027 -0.074638896 -0.20604023
0003d0 71 01 fe be ed 8f f9 3e 6f 63 d1 3e 74 45 77 bd
       -0.49610475 0.4874262 0.40896174 -0.06036897
0003e0 6a c3 25 bf 13 92 0c be 84 53 18 3e 7c f5 73 3e
       -0.64751303 -0.13727598 0.14875609 0.23824114
0003f0 61 4b 21 be b4 8f 78 3e 9e 97 1b 3f 4f 95 f1 3e
       -0.15751411 0.24273568 0.60778224 0.47184226

sequential.2.bias f4 [20]
000000 10 38 4f bd 53 57 8a bf 05 84 88 3f 0a 12 17 be
       -0.050590575 -1.0807899 1.0665289 -0.14752975
000010 97 8b 7e bf 79 b4 d2 3e c4 07 ba bc c8 b3 34 be
       -0.9943175 0.41153315 -0.022708781 -0.17646706
000020 9c 56 29 bf 98 59 95 be 2d 28 db 3e 51 2e bc bd
       -0.6614778 -0.29169917 0.4280409 -0.09188522
000030 c8 d3 0f 3f 81 80 31 bd 2c cf 8e be c0 95 01 3f
       0.5618253 -0.04333544 -0.27892435 0.50619125
000040 df 85 95 3e 05 7c 73 3f 5c b7 b0 be 6e 99 cd be
       0.29203698 0.95111114 -0.34514892 -0.4015612

final_convolution.weight f4 [1, 21, 1, 1]
000000 de 4c 46 bf 0c 2a 92 3d 22 70 e9 bd 4c 04 7a 3e
       -0.7746104 0.07136926 -0.11398341 0.24415702
000010 d5 39 36 bb eb d4 08 be 47 c4 c9 be 29 32 f3 be
       -0.0027805467 -0.13362472 -0.3940756 -0.47499207
000020 c5 b5 4a 3e 59 5a 73 3d 84 cd c0 bd c7 1b ba be
       0.19795902 0.059412334 -0.09414199 -0.36349317
000030 d5 35 16 3e 96 96 8f 3e ba 32 be 3c 6a 6c 66 3d
       0.14668973 0.28044575 0.023217548 0.056255735
000040 43 89 8f be 2b 33 a7 3d 17 a9 a4 3e ff 19 94 3b
       -0.2803441 0.081640564 0.32160255 0.0045197005
000050 be 3e b2 bd
       -0.087033734
