from_finrl-tutorials_git/data_1993_to_2024/train/v2_result/scribed/eiie_20241227_104002_reward_in_loss_ep100/checkpoint-5/policy_EIIE_5.pt (torch, 10948 bytes, 5 tensors)

sequential.0.weight f4 [2, 9, 1, 3]
000000 1c e0 fa bd 5c 10 0e 3e a0 b1 dc 3d 31 a2 08 3d
       -0.12249777 0.13873428 0.10776067 0.033357803
000010 61 c5 1e bc d4 27 59 bd 33 49 cb 3b da 29 71 3b
       -0.0096906135 -0.0530165 0.0062037944 0.0036798627
000020 28 36 d2 3d 46 85 eb 3d b6 93 2b 3e 04 8c 14 3e
       0.10264236 0.11500029 0.16755566 0.14506537
000030 43 06 a3 bc 28 72 e0 be 96 88 41 3b 90 53 4e 3e
       -0.019900447 -0.43837094 0.0029530874 0.20149064
000040 ae 20 04 3e 6f 0e 5c 3e d8 c9 17 bc 2a 64 4b bd
       0.12903091 0.21489881 -0.009264432 -0.04965607
000050 76 f9 30 3e 09 7c 1b be 11 8d ff 3d 81 ba 4e 3c
       0.17282662 -0.15184034 0.12478078 0.012617708
000060 af 9e 6d 3e 64 92 18 3d c0 f0 53 3e 41 d2 2d be
       0.23205064 0.037248984 0.20697308 -0.16974737
000070 c6 45 4b bd f2 04 96 3d 93 d7 3d be 96 ee 69 be
       -0.049627088 0.07325162 -0.18539266 -0.2284492
000080 b7 3a 49 be e9 38 ec bd d8 73 8e be 9d 16 3a be
       -0.19651304 -0.11534292 -0.27822757 -0.18172689
000090 11 6b 06 3e 0d 83 6b 3e 8d cc 13 be 54 d5 4f be
       0.1312678 0.2299921 -0.14433499 -0.20296222
0000a0 0b e4 53 bc 63 34 25 3e 19 90 61 be 9d 7d 68 be
       -0.012932788 0.16133265 -0.22027625 -0.22704168
0000b0 86 69 cb bd c2 42 5d be 59 cc 55 be 01 fc d9 3c
       -0.099322364 -0.21607497 -0.20878734 0.026609423
0000c0 2b 0b 0f 3d 6a 2c 4b be 0b 0c ec bd bc ae e3 bd
       0.03492276 -0.19841161 -0.115257345 -0.11117312
0000d0 bc d8 d2 bd 55 97 04 be
       -0.10295245 -0.12948354

sequential.0.bias f4 [2]
000000 e0 18 30 3e a6 63 83 3d
       0.17196989 0.06415491

sequential.2.weight f4 [20, 2, 1, 48]
000000 67 bf a3 3d 6e 51 38 be a5 ea fd bd 17 ae 3d be
       0.079954915 -0.17999813 -0.123982705 -0.18523441
000010 4c a8 f7 bc 56 98 ec 3b d1 d3 f7 3c 91 b3 10 be
       -0.030231617 0.0072203083 0.03025237 -0.14130999
000020 74 32 8e bc ce 8e 92 3e 73 a5 71 3d 40 36 02 3e
       -0.017358042 0.28624576 0.058995675 0.12716007
000030 e0 79 dd bd fe a8 8c 3d 3f e9 bc bc 23 ec b2 3d
       -0.108142614 0.0686817 -0.02306044 0.08736446
000040 f6 fa 82 be ee 28 48 bd f0 4c a0 3c 04 48 f0 3d
       -0.25582093 -0.04886716 0.019567937 0.11732486
000050 ff 34 21 3e f7 62 8f bd 68 4d c7 bc 1a 82 55 bd
       0.15742873 -0.07001298 -0.024328902 -0.052126028
000060 81 f7 3e be f0 f0 e0 bd fe 74 ac 3d 55 d8 c5 bc
       -0.18649103 -0.10983455 0.08420752 -0.024151007
000070 c5 eb 13 be b0 88 6a 3c 3d bc 19 be 93 07 a5 3b
       -0.14445408 0.014314815 -0.15013213 0.0050363033
000080 91 03 35 bd dc 07 cb 38 bd c3 93 bd 90 89 2a be
       -0.044192854 9.681258e-05 -0.072150685 -0.16654038
000090 ee 1e 1c be 3b 4d b9 3b 64 94 5c bd 5b 2c 40 3e
       -0.15246174 0.0056549585 -0.053852454 0.1876692
0000a0 8a b5 31 3e a9 ec 3c 3d d8 61 82 3d 55 7a 84 3e
       0.17354408 0.046124134 0.063663185 0.25874582
0000b0 1e d9 3b 3e 0a ad e2 3d 52 4e a0 3d b2 2f 2d 3c
       0.18344542 0.11068161 0.078274384 0.0105704535
0000c0 fb 7a cc 3d e9 b4 fb bd 89 c4 82 be 23 52 00 3a
       0.09984394 -0.12290365 -0.2554057 0.0004895052
0000d0 07 1e 8b bd 9b 7d 2d bc b1 40 28 3d 76 ac 8c bd
       -0.06792837 -0.010589029 0.04107732 -0.06868832
0000e0 a9 49 19 bd df 95 17 ba e7 ee 3e 3e 90 fb b8 3b
       -0.037423763 -0.00057825254 0.18645822 0.005645223
0000f0 46 54 3f be 54 10 6d ba bc 48 15 3d 0d b6 6e bc
       -0.18684492 -0.00090432656 0.036446318 -0.0145697715
000100 df 24 72 bd 80 5a 1d bd 1c 6b da bd d6 02 92 bc
       -0.059117194 -0.038416386 -0.10664961 -0.017823618
000110 7e 06 9a 3d 4b 96 33 be e9 11 ac bd a9 ef 09 3d
       0.075207695 -0.17537801 -0.084018536 0.033675823
000120 8c fb e5 bd c1 b8 4b be 89 c7 ed 3d 33 cf 8a 3c
       -0.112296194 -0.19894697 0.11610324 0.016944503
000130 2e b1 5e bd c2 a1 cf bd 86 98 37 bd 66 b5 75 bc
       -0.05436819 -0.10138275 -0.044823192 -0.014996862
000140 eb b9 04 3c 9a 23 1d be a6 ae b5 bd d6 78 b4 bd
       0.008100967 -0.15345612 -0.08871202 -0.0881211
000150 33 56 dc bd c7 6c 63 bd 96 f9 f7 bd 9f 05 f5 3d
       -0.10758629 -0.05552366 -0.121081516 0.11963963
000160 67 42 90 3e 0e f3 aa 3d 19 32 a8 3d 2e 8c 42 3e
       0.2817566 0.0834714 0.0821268 0.18998787
000170 00 53 76 3e 84 ad 8f bd 66 85 ea 3d 8b 43 c4 bd
       0.240551 -0.07015517 0.11451225 -0.09583195
000180 34 f4 23 bd 1c 33 b6 bd 61 ce 57 bd 7a 0c 04 3d
       -0.040027812 -0.08896467 -0.052687053 0.03223846
000190 ea 24 fd 3d d1 4d 35 3d f0 e0 20 3e ea 70 7e bd
       0.123605564 0.044263665 0.15710807 -0.062119402
0001a0 4c 8b 4f bd e9 cf 1c bd 10 45 e1 bd 69 95 d8 bd
       -0.050669953 -0.038284216 -0.10999501 -0.10575373
0001b0 f7 53 9b 3a 6c 87 29 be bd a9 6c be d1 8c 2a be
       0.0011850585 -0.16555566 -0.23111625 -0.1665528
0001c0 f9 0f a3 3c c7 5b 76 bd 18 ae 84 3d 0f b6 47 3d
       0.019905077 -0.06014612 0.06478518 0.04875761
0001d0 5c 4b d6 3d 87 f4 1c be fc f9 f8 bd e2 36 0b be
       0.104635924 -0.15327655 -0.12157056 -0.13595155
0001e0 02 d9 33 be eb 21 ca bd f5 49 89 be 3a b5 99 bd
       -0.1756325 -0.098697506 -0.26814237 -0.07505269
0001f0 15 57 39 be 46 ea 77 bd 52 13 f1 bd 35 7d 0e 3a
       -0.18099625 -0.060526155 -0.11771263 0.00054355274
000200 dd 71 53 be ab 76 f3 bc d8 37 88 3d ca ee 62 bd
       -0.20648904 -0.029719671 0.06651276 -0.05540351
000210 61 f2 db bd 4f 77 06 be b2 4c 2a 3d 40 58 33 bd
       -0.107395895 -0.1313145 0.04157705 -0.043785334
000220 04 31 b8 bd 1c 41 50 bd 1c c5 b2 bc 3e 15 69 bd
       -0.08993724 -0.050843343 -0.021822505 -0.056905024
000230 5a 9a 36 bc 45 c6 55 be e4 44 25 bd 6c 2a 29 be
       -0.011145199 -0.20876415 -0.040348902 -0.16520089
000240 8c 93 ee bd cd b9 ca bd c0 75 9f bd 65 55 10 3b
       -0.11649236 -0.0989872 -0.07786131 0.0022023555
000250 2b 11 c8 bd 7f bd c3 ba 37 a7 3e 3d 68 32 6f 3b
       -0.097688995 -0.0014933794 0.046546187 0.003649855
000260 7b f6 af bd f3 5f 02 be 31 fb b4 bd d6 1c 49 bc
       -0.08591934 -0.12731914 -0.088369735 -0.012274941
000270 8d 7a 35 bd a5 d5 b9 bc 82 32 13 be ca 21 c0 bd
       -0.044306327 -0.022684881 -0.14374736 -0.09381445
000280 c1 81 ee bd a2 fa 7d bd a0 6c 0c be 47 41 b3 3d
       -0.11645842 -0.0620066 -0.13713312 0.08752685
000290 88 e6 dc bc e5 76 c7 bd fe 17 0f 3d 90 98 01 bd
       -0.026965395 -0.09739474 0.03493499 -0.031639636
0002a0 94 6e 7b bd 9d c2 0b bc 94 66 4f bd 51 d1 38 be
       -0.061384752 -0.008530286 -0.050634935 -0.18048598
0002b0 7e 82 e6 bd 4d bb 26 be c7 8c 3c 3d 28 8c 98 bc
       -0.11255358 -0.16282387 0.046032693 -0.01862152
0002c0 67 b9 3d be a2 da 96 bd 4f 5a 03 bc fd 2e c3 3b
       -0.18527757 -0.0736592 -0.008017137 0.005956529
0002d0 5c f1 1e bc 38 26 0c be 5f ab 25 3d 1d 3b 38 be
       -0.009701099 -0.13686454 0.040446635 -0.179913
0002e0 e3 20 0d be 58 e3 54 3c f8 ed 55 bd 0d 3b 7f 3c
       -0.13782077 0.012993656 -0.052228898 0.015578044
0002f0 25 9f a8 3c 30 0f dc 3c 21 3b 9e bd cb 70 17 be
       0.020583699 0.02686271 -0.07726122 -0.14789121
000300 de da 01 bc 36 77 aa 3e 12 43 77 3e e1 cf 57 3e
       -0.007925717 0.33294076 0.24146679 0.21075393
000310 77 71 9a bd e5 62 25 be 62 5f 2c be 7d 31 ac 3d
       -0.07541173 -0.16151007 -0.1683326 0.08407877
000320 a1 63 e3 3d 4a 41 e4 bd 05 12 d1 bb ee 4d 11 3e
       0.11102987 -0.111452654 -0.006380322 0.14189884
000330 47 76 2b 3e 56 57 89 bc bb 9a 52 bd 95 7f 30 3d
       0.16744338 -0.016765278 -0.051417094 0.04309042
000340 f5 31 1c 3e fd 07 2a 3e 44 6d 02 3e 3e 06 93 bd
       0.15253432 0.1660461 0.12736994 -0.07178925
000350 a3 60 02 be cb e0 ed 3c 14 23 a5 3d ea 01 73 3e
       -0.12732176 0.029037854 0.08063331 0.23731199
000360 06 e8 bd 3e 82 f1 3f 3e 62 ed 13 3d 5c 0b b2 3c
       0.37091082 0.18744472 0.036115058 0.021733932
000370 f9 a4 b0 3d 08 cd dd bd 6e c9 b6 3d 04 93 a8 3d
       0.08625216 -0.10830122 0.089251384 0.08231166
000380 ff f2 43 3e 13 6c 27 3e 6b 3e 7c bd 4a b1 0c 3e
       0.19135664 0.16349821 -0.061582964 0.13739505
000390 83 98 f0 3c 4e a0 62 3e 35 70 72 bd 57 47 3d be
       0.029369598 0.22131464 -0.05918904 -0.18484245
0003a0 3a 3d 88 bd 88 9e 5e bd fb bd 39 be f6 0f a4 bd
       -0.06652303 -0.054350406 -0.18138878 -0.08010857
0003b0 16 96 41 be 77 13 76 bd 51 b6 67 3d 6c 48 34 3e
       -0.1890491 -0.060077157 0.056570355 0.17605752
0003c0 12 25 b5 3c 30 1b 25 3e 44 6d 90 3e dd 41 4c 3d
       0.022112403 0.16123652 0.28208363 0.0498675
0003d0 1b 7e 81 3d 83 7c 72 3d bd d7 d7 3c 0c ad 8b 3b
       0.06322881 0.059200775 0.02634799 0.004262572
0003e0 98 5a 36 3e 90 84 e9 3d 1a 4f 2f be cb 01 5e bd
       0.17807996 0.114022374 -0.17120019 -0.05420093
0003f0 e6 21 df 3d 3f 92 2b bd 9d b4 a7 bd 13 58 01 bd
       0.108951375 -0.041887518 -0.08188746 -0.031578135

sequential.2.bias f4 [20]
000000 64 fe 26 bc 1f 9b 0c be 47 e3 35 be 05 b8 64 bb
       -0.010192487 -0.13731049 -0.1776248 -0.0034899723
000010 e4 b4 a6 3d f5 37 24 bd 22 b8 d7 bc 96 37 12 3e
       0.08139971 -0.040092427 -0.026332919 0.14279017
000020 72 4f 62 bd 42 99 c6 3d 5f 47 a4 bd dc 3b 12 bd
       -0.055251546 0.096972 -0.080214255 -0.035701618
000030 31 70 4f bc f9 cc 81 3d 4a 6c d6 bc 05 d5 55 be
       -0.012661026 0.063379236 -0.026174683 -0.20882042
000040 2b f6 47 be fa be e5 bc 59 37 89 3d b7 01 8f bc
       -0.195275 -0.028045166 0.0670001 -0.017456872

final_convolution.weight f4 [1, 21, 1, 1]
000000 dc c9 5a 3e 29 3d 54 be c2 28 2f 3c 44 ce d5 3e
       0.21366066 -0.20726456 0.01069087 0.4175893
000010 b9 42 91 3e 5f 89 2d bd 76 e9 2f be 9a 68 89 bc
       0.28371218 -0.042367335 -0.17178902 -0.01677351
000020 cb 25 eb bd c4 25 82 3c e9 d3 0b be 82 3f aa bd
       -0.11481818 0.015887149 -0.13655056 -0.083128944
000030 7f 9f bf bd 0c 11 cc 3d 8b 80 6f 3e 23 d9 53 bd
       -0.09356593 0.09964189 0.23388879 -0.05172075
000040 6f ad 25 bd 04 e3 0d be 7b d4 cc 3c 80 4a 49 bc
       -0.040448602 -0.13856131 0.025003662 -0.012285829
000050 38 2f 86 3a
       0.0010237461
