from_finrl-tutorials_git/data_1993_to_2024/train/v2_result/scribed/eiie_20241227_104002_reward_in_loss_ep100/checkpoint-79/policy_EIIE_79.pt (torch, 10958 bytes, 5 tensors)

sequential.0.weight f4 [2, 9, 1, 3]
-0.36822727 -0.15616661 -0.19259547 -0.18626517 -0.19764957 -0.30760926 -0.2507148 -0.26697308
-0.2006671 0.021128716 0.029237282 -0.16919899 -0.015516417 -0.66022646 -0.24133366 -0.10404679
-0.16272125 -0.10094204 -0.30044279 -0.3328637 -0.14679028 -0.41645953 -0.1864348 -0.28583917
-0.0924149 -0.24942678 -0.11277959 0.06968481 0.15945722 0.26416472 0.057044685 0.016131492
0.051301718 0.114417724 -0.02782189 0.055911694 0.3848341 0.33225268 -0.22863966 -0.37932956
0.21045874 0.3247575 0.027783861 0.01947112 0.122381955 0.024775166 0.032266803 0.22335018
0.21087024 0.027810477 0.12562117 0.11254401 0.11890059 0.097873166
00000000: 4988 bcbe 24ea 1fbe bf37 45be 4cbc 3ebe
00000010: a664 4abe f67e 9dbe b15d 80be b2b0 88be
00000020: ad7b 4dbe 2116 ad3c 0683 ef3c 8042 2dbe
00000030: 9238 7ebc 9a04 29bf 2c20 77be 7c16 d5bd
00000040: 66a0 26be b3ba cebd a3d3 99be 1c6d aabe
00000050: 3150 16be 2f3a d5be c4e8 3ebe 8359 92be
00000060: 0644 bdbd bc69 7fbe fcf8 e6bd e9b6 8e3d
00000070: c148 233e 9940 873e b0a7 693d 3126 843c
00000080: c021 523d d753 ea3d bbea e3bc a903 653d
00000090: fa08 c53e 061d aa3e 8420 6abe 7c37 c2be
000000a0: 7f82 573e 9d46 a63e fb9a e33c e681 9f3c
000000b0: 64a3 fa3d 4af5 ca3c 322a 043d e9b5 643e
000000c0: 5eee 573e ccd2 e33c d6a2 003e 797d e63d
000000d0: 2782 f33d ba71 c83d

sequential.0.bias f4 [2]
-0.14348261 0.25340748
00000000: 1bed 12be a0be 813e

sequential.2.weight f4 [20, 2, 1, 48]
0.052582063 -0.18253875 0.10948867 0.08571232 0.21676403 0.28938884 0.42264327 -0.06002893
0.20503283 0.4352842 0.17197493 0.13917552 -0.08757906 0.30394495 0.40507996 0.30054206
-0.054467637 0.25948927 -0.017205827 0.093366906 0.20722926 0.15143001 0.28659227 0.115473665
-0.04480767 0.042078234 0.19595696 -0.065183036 -0.034619488 0.14871855 0.15582223 0.2920265
-0.05291196 -0.22574404 -0.19358264 -0.12576567 0.07999937 0.28145227 0.06417864 0.04768897
0.14597252 -0.00043445 0.06415536 0.0182879 0.028568055 0.0478817 0.19575925 0.008410739
0.05182337 -0.07600371 -0.23351876 0.1603123 0.0854693 0.073568694 0.09466422 -0.03576425
-0.42293227 0.09471164 -0.133836 0.055382505 -0.17485122 -0.14289239 0.1893044 0.14891344
-0.0603802 -0.0037274503 -0.060609955 -0.30582026 0.02790632 -0.28490618 -0.26443025 0.23224029
-0.40953583 -0.25839174 0.17029855 0.09284497 -0.1948835 -0.22933064 -0.065460615 0.01977402
-0.22110835 0.07942347 -0.20075087 -0.20771748 -0.111149855 0.29977217 0.043596517 0.19084513
0.21037725 -0.062402714 0.20492005 0.12357013 0.15906535 -0.20248935 -0.101794876 0.18245466
0.08397198 0.027154557 0.046740264 0.02494577 0.17006883 0.06743005 0.126204 0.051142566
0.019040244 0.1401508 0.061985653 -0.20859219 -0.104991086 0.02429058 0.26029995 -0.14952357
0.07872464 -0.05238575 0.21231252 0.20113577 0.093623206 0.24777862 0.032769702 -0.57780254
-0.2691758 -0.070989326 -0.1559853 0.13241349 0.16808857 -0.24307391 -0.2233428 -0.12457346
-0.118118234 -0.18658204 0.21079937 0.108017325 -0.17319778 -0.10953923 0.19632785 0.12745394
-0.5341486 0.15020858 0.25742662 0.11173312 0.15208337 0.02054318 -0.4071616 0.026050892
0.100349754 0.09926556 0.12301942 0.16429542 0.08839919 0.16736156 0.20064984 0.16636291
0.096123725 0.07184348 0.10444796 0.15064436 0.12274099 0.14441812 0.049511492 0.08998856
0.076012105 -0.30080062 0.052154403 0.23306759 0.14508373 0.123372786 0.23070785 0.12844945
0.10612349 0.15709035 0.12254618 0.038195662 0.09420634 -0.043536708 0.1934588 0.14212082
0.0138873225 -0.3789585 0.15159105 0.14964618 0.15320566 -0.52457875 0.1954583 0.017885972
0.048087597 0.26410776 0.17803851 0.17027844 0.17903882 0.27317712 0.09897139 -0.19083992
0.17910665 0.6056143 0.0026809585 -0.10572396 0.0037793068 -0.29262346 -0.30384013 -0.14934023
-0.12224057 -0.44882223 -0.26448926 0.0919895 -0.015557119 -0.29433656 -0.24059355 -0.121315
0.022833114 0.35844857 0.28063208 0.11516802 0.0638163 0.25290632 0.09983319 -0.106958345
0.28628057 -0.050199654 -0.05495281 0.2240422 0.44968316 0.2965288 -0.20891275 -0.2651099
0.2546614 0.15738294 -0.2599682 -0.20397577 -0.18367751 -0.09835309 -0.12840377 -0.120734304
0.13138548 0.06583286 0.019699901 0.10809438 -0.009148869 0.016056953 -0.059454225 0.14929056
-0.20729096 0.45089573 0.23517759 -0.07642601 -0.13224033 0.14881243 0.13644178 -0.09545836
0.41596982 -0.015624681 -0.19110925 0.13724262 0.07310804 -0.02836115 -0.20592713 0.14981298
00000000: 4a60 573d 70eb 3abe 993b e03d f189 af3d
00000010: 64f7 5d3e c62a 943e b364 d83e e5e0 75bd
00000020: 20f4 513e 92dd de3e 321a 303e 0784 0e3e
00000030: a65c b3bd ac9e 9b3e a466 cf3e a6e0 993e
00000040: 7519 5fbd c7db 843e 3cf3 8cbc 2637 bf3d
00000050: e833 543e 7810 1b3e 39bc 923e 757d ec3d
00000060: 3f88 37bd 3a5a 2c3d f1a8 483e af7e 85bd
00000070: 2acd 0dbd ad49 183e dd8f 1f3e 7f84 953e
00000080: 36ba 58bd 7229 67be 873a 46be b7c8 00be
00000090: b6d6 a33d 831a 903e 1770 833d 8255 433d
000000a0: d279 153e e4c6 e3b9 e363 833d 82d0 953c
000000b0: 8e07 ea3c 9a1f 443d 1d75 483e 32cd 093c
000000c0: be44 543d d5a7 9bbd 8b1f 6fbe e828 243e
000000d0: 870a af3d 2fab 963d 51df c13d 897d 12bd
000000e0: 948a d8be 2df8 c13d 4e0c 09be c4d8 623d
000000f0: 330c 33be 6252 12be 03d9 413e c47c 183e
00000100: 3b51 77bd 3d48 74bb 2542 78bd 7994 9cbe
00000110: cb9b e43c 39df 91be 6763 87be 66d0 6d3e
00000120: aeae d1be ec4b 84be be62 2e3e 8125 be3d
00000130: 8a8f 47be a7d5 6abe 3710 86bd 20fd a13c
00000140: 3a6a 62be c6a8 a23d a391 4dbe e4b3 54be
00000150: 89a2 e3bd bd7b 993e 4392 323d e86c 433e
00000160: 226d 573e fd99 7fbd 90d6 513e 5612 fd3d
00000170: 07e2 223e 5e59 4fbe d579 d0bd 65d5 3a3e
00000180: 80f9 ab3d 3c73 de3c b872 3f3d 125b cc3c
00000190: 8626 2e3e c418 8a3d 9f3b 013e de7a 513d
000001a0: 49fa 9b3c b183 0f3e abe4 7d3d 3199 55be
000001b0: 9105 d7bd 0afd c63c 0946 853e b51c 19be
000001c0: 623a a13d 7192 56bd 7468 593e 89f6 4d3e
000001d0: 86bd bf3d aeb9 7d3e 8639 063d deea 13bf
000001e0: 69d1 89be da62 91bd 9cba 1fbe 6797 073e
000001f0: 691f 2c3e 5ee8 78be fab3 64be 5f20 ffbd
00000200: f9e7 f1bd 5d0f 3fbe cadb 573e 3038 dd3d
00000210: c25a 31be 1b56 e0bd 2b0a 493e 4983 023e
00000220: f6bd 08bf 47d0 193e 6ccd 833e 56d4 e43d
00000230: bebb 1b3e 2c4a a83c 7c77 d0be ae68 d53c
00000240: 2c84 cd3d be4b cb3d 9bf1 fb3d 0f3d 283e
00000250: a20a b53d d460 2b3e 2777 4d3e 0a5b 2a3e
00000260: 84dc c43d ad22 933d d0e8 d53d 8442 1a3e
00000270: a15f fb3d 58e2 133e 90cc 4a3d ec4b b83d
00000280: 3cac 9b3d 8a02 9abe db9f 553d 45a9 6e3e
00000290: d490 143e dfaa fc3d ae3e 6c3e 4188 033e
000002a0: 4657 d93d 4bdc 203e 7ef9 fa3d 0e73 1c3d
000002b0: 41ef c03d 8c53 32bd 101a 463e 1f88 113e
000002c0: a787 633c d906 c2be af3a 1b3e d93c 193e
000002d0: f2e1 1c3e cb4a 06bf 3826 483e 9a85 923c
000002e0: 80f7 443d 2239 873e ba4f 363e 795d 2e3e
000002f0: f455 373e dfdd 8b3e 83b1 ca3d 8a6b 43be
00000300: bc67 373e 8a09 1b3f 05b3 2f3b ce85 d8bd
00000310: 3fae 773b bed2 95be ef90 9bbe a5ec 18be
00000320: 4459 fabd 07cc e5be 236b 87be fe64 bc3d
00000330: 49e3 7ebc 48b3 96be 285e 76be 0074 f8bd
00000340: 830c bb3c 9286 b73e 02af 8f3e 36dd eb3d
00000350: 1fb2 823d f07c 813e 5875 cc3d fa0c dbbd
00000360: 5e93 923e 279e 4dbd 3316 61bd 526b 653e
00000370: df3c e63e 9fd2 973e 39ed 55be 7cbc 87be
00000380: fb62 823e fe28 213e 8d1a 85be 06df 50be
00000390: f515 3cbe 586d c9bd 477c 03be 8c43 f7bd
000003a0: ea89 063e 61d3 863d b061 a13c 9660 dd3d
000003b0: 23e5 15bc df89 833c 4686 73bd a0df 183e
000003c0: 1544 54be cedb e63e 65d2 703e 3d85 9cbd
000003d0: 026a 07be 4962 183e 65b7 0b3e ac7f c3bd
000003e0: fff9 d43e a9fe 7fbc 25b2 43be 5489 0c3e
000003f0: abb9 953d a455 e8bc 90de 52be 9368 193e

sequential.2.bias f4 [20]
0.034823257 0.052052353 -0.14228195 0.032441486 -0.2999833 0.12952518 0.057084814 0.34370908
-0.050414145 -0.07203069 -0.14031431 0.091146715 0.18271734 -0.13232276 -0.10766918 -0.2619919
-0.17670083 -0.30657718 -0.12643482 -0.054861445
00000000: d5a2 0e3d d934 553d 5cb2 11be 5de1 043d
00000010: 6997 99be 40a2 043e c4d1 693d a3fa af3e
00000020: 107f 4ebd d484 93bd 8eae 0fbe 21ab ba3d
00000030: 411a 3b3e 9e7f 07be a981 dcbd cd23 86be
00000040: 10f1 34be aff7 9cbe 2178 01be 65b6 60bd

final_convolution.weight f4 [1, 21, 1, 1]
-0.11829328 -0.38493854 0.16990098 0.62818754 0.36894017 0.10630818 -0.0011980177 -0.25331318
-0.41599935 -0.06255306 -0.041001488 0.060809884 -0.124470346 0.36981955 0.08706272 -0.08661783
0.12846544 -0.08548241 -0.1057996 -0.09089872 0.029887443
00000000: bf43 f2bd aa16 c5be 86fa 2d3e e6d0 203f
00000010: bae5 bc3e 1ab8 d93d ce06 9dba 44b2 81be
00000020: defd d4be d21b 80bd 2df1 27bd c913 793d
00000030: 4fea febd fd58 bd3e f04d b23d b064 b1bd
00000040: 728c 033e 6711 afbd 76ad d8bd 1c29 babd
00000050: 83d6 f43c
