from_finrl-tutorials_git/data_1993_to_2024/train/v2_result/eiie_20250103_092947_turbulence_ep500_deficit/checkpoint-262/policy_EIIE_262.pt (torch, 10968 bytes, 5 tensors)

sequential.0.weight f4 [2, 9, 1, 3]
00000000: eed9 4e3d 5a07 c7bd ab24 283b f3f6 05be
00000010: 490a 183e 2591 1fbd 1747 573c 7abf 503e
00000020: edad 71bd d5b4 2e3e 8085 653e fed7 64bd
00000030: 2258 bebd 1b57 103d 5ea4 673d 91be d0bd
00000040: 1680 abbd 09c9 1b3c a596 67bc 7fe1 41bd
00000050: 18c7 d0bd ad33 86bd a553 b5bd 0051 b1bd
00000060: d5fc 1e3d 2d55 833d f46e 87bc d6c4 16bc
00000070: 75ed d3bd 0869 063c d9f2 21bc cecc 253d
00000080: 8236 d5bd 9882 61bd 87f6 acbd feac 78bd
00000090: 4178 06bc 731e d3bd bac4 f8bc b09e bbbd
000000a0: 20a9 703d db28 f1bb 1c3d 203d 2475 50bd
000000b0: c720 97bb 21e2 6fbd bb8c 1b3d 847e 9dbd
000000c0: 6551 143d 6092 efbd acc8 3b3d b253 1bbd
000000d0: 3f10 4f3d 54a1 eabd
0.050500803 -0.09718199 0.0025656621 -0.13082485 0.14847673 -0.03895678 0.013139508 0.20385543
-0.05900376 0.1706117 0.22414207 -0.05587005 -0.09294154 0.03523932 0.056553237 -0.10192598
-0.0837404 0.00950838 -0.014135038 -0.04733419 -0.10194224 -0.06552825 -0.088538446 -0.08658028
0.03881534 0.0641273 -0.016532399 -0.009202203 -0.10348026 0.008203752 -0.00988456 0.04047852
-0.10410787 -0.055056185 -0.08445459 -0.060711853 -0.008207382 -0.10308542 -0.030367244 -0.091611266
0.05875504 -0.0073596067 0.03912078 -0.050892964 -0.0046120617 -0.058565263 0.037976008 -0.076901466
0.036210436 -0.11697841 0.045845672 -0.037921615 0.050552603 -0.11456552

sequential.0.bias f4 [2]
00000000: 1066 18bd 08f3 bb3c
-0.03720671 0.022943035

sequential.2.weight f4 [20, 2, 1, 48]
00000000: a14d ddbd e2c1 00be fe6b e2bd b10e a8bd
00000010: 43a6 a7bd a2e9 15bd 1ad4 0abd 2ec9 a8bd
00000020: c9b6 823d 5794 82bd 752d a7bd f0e7 08bc
00000030: c399 dcbc d60d 27bd 11a1 a03d 81cf bfbd
00000040: b37e 023e eaf6 9fbd c0c6 8abd e765 3bbd
00000050: 535d e9bd 544e bbbd ecb8 a7bd 86fa 17bd
00000060: 5306 1fbd 98ba fdbd 2323 39bd 8b47 aa3d
00000070: faf7 8bbd 8524 86bd 442f 85bd 8af5 88bd
00000080: e54e e5bd 42a6 9dbd 759c d73d 9560 ac3d
00000090: 4f9c cebd ce41 d2bc 8c6f c0bd f28a 9bbd
000000a0: a817 933d 735f cfbd 8acd c8bd 6a2e 12bd
000000b0: 1f81 cbbd 675e 02bd 6587 82bd fe3c afbd
000000c0: ff58 1fbd 9fb6 2c3d 2595 773d 2106 74bd
000000d0: 75cf 64b9 8be6 aebd d7c1 20bd 0901 34bd
000000e0: 0309 58bc a996 223c 7ddd 85bd 5e39 183c
000000f0: 0e9e 24bc e4d0 5dbd fab4 973c 6f0c 233d
00000100: 3d81 d23d b2a1 71bd 4ed4 993d 2d2b d6bb
00000110: 6158 383d 5a88 f0bb f988 863d 2488 cc3c
00000120: 66f2 973c f1d2 373d 932c 593d b826 233d
00000130: 1e9b 85bc 0577 85bd dc34 8d3c c37b dd3b
00000140: 45f1 463b 6f2a 03bc bdd7 8dbd 36de 943d
00000150: 5e00 95bb 7f2e 5f3d 113a efbc f0ae 823d
00000160: e825 21bc f66e 193d 3f11 c13b 6cde 2cbd
00000170: 84a8 b1bc b233 973d abf6 81bd 83f4 46bc
00000180: e11f d73c 7b9f b63c a2a1 02bd 9573 b03d
00000190: e38f f43c 11de 633d a9d4 fabc 78c1 51bd
000001a0: 05c6 78bc d9e4 a03d 3e66 b43d fc8f e93d
000001b0: 0f52 8e3d 8452 113e 77d9 00bd 0368 3f3d
000001c0: dd95 79bd 9971 29bd a791 953d 4cb0 cb3d
000001d0: 9614 823d 3246 5e3d 24ac e23d 96bb ce3d
000001e0: 4d68 b93d 5c98 8d3d cc9b f9bc 2940 b9bc
000001f0: 8304 de3d ebd4 353d bc36 5bbc b675 b33d
00000200: 9788 36bd 0659 49bd b76f 7cbd 7788 9abd
00000210: 94af e8bd 2a32 363b fbad 6b3c bccb cabb
00000220: 7e8c 7bbd 6405 e1bd bb78 013e 2f21 1d3e
00000230: a45a 26bd 121a 1cbd ecce fa3d 6ac3 623d
00000240: 78e2 093c f9cc 8f3b 4337 adbd 2914 ec3c
00000250: 8e09 3d39 6132 b83c 85f6 b73c a19e 4a3d
00000260: d9c1 613c c552 053c 45c1 983d df0f 24bb
00000270: 3341 d7bb de7c fd3d 665b 753c 16e9 00bd
00000280: 40e1 81bd 5a24 423d 142a a8bc 10bd 8c3d
00000290: 4009 863c 8dc6 16bb 6cad 8abd 71be 84bc
000002a0: 3be4 bd3a f264 f5bc 065a 4b3d 2ebf b4bb
000002b0: f38b 61bc 5790 8fbc 504e 953d 0b49 953d
000002c0: c61b 89bc 12c4 dcbc 4348 673d 4054 06be
000002d0: a562 9b3d c04a f83c f6dc 903d a5bd c7bc
000002e0: 3116 3bbd d551 4f3d b37b 993d 17a6 063d
000002f0: 9f5b 8fbb a58c 59bd 16c8 d53d b542 503b
00000300: 0f98 a9bd 4072 a7bd d559 b2bd 35ff 32bd
00000310: 1051 5dbd 54c1 d5bd 9b09 8fbd f4b3 af3d
00000320: 18e6 a7bd 4418 babd 05fc e1bc 5c1a 943c
00000330: acb0 153c bdcd a4bd acf5 ac3c 4011 96bd
00000340: caf8 5fbd d743 933c 168f 9f3d 23fd 153c
00000350: a6f1 d23b 0c5e 11bd 1f5c d3bd 3422 1abd
00000360: 06ec cebc 8180 b5bd 185d fdbc a415 54bd
00000370: bc20 cfbd 4fde 2bbd 635e bbbd c48a 3abd
00000380: ebce b1bd 6378 1cbd e6d2 febd 9bc0 bbbd
00000390: fe4d c0bd b5f7 13bd b3ab 71bd bf4d 5ebd
000003a0: 7b68 ae3d f79d 89bd 7205 bdbd a419 943d
000003b0: 8a98 463d 084e a8bc 4270 b6bd 5f91 783c
000003c0: 8ff5 0f3d 9f01 293d 2e0a 533c d322 a2bb
000003d0: a861 20bd 4bee ebbc 44b5 9f3c 9395 e93d
000003e0: 4774 893d 1fa0 a9bd a14b 32bd 864e 123c
000003f0: beb4 b33c e52c c6bd f64b 5c3d d360 0f3d
-0.10805822 -0.1257396 -0.11055754 -0.08205927 -0.08186009 -0.036599763 -0.033893682 -0.08241497
0.0638252 -0.0637595 -0.08162967 -0.008356079 -0.026928788 -0.04078468 0.07843221 -0.0936575
0.12743644 -0.07810767 -0.0677619 -0.04575148 -0.11394753 -0.09145799 -0.08189568 -0.037104152
-0.03882439 -0.123891056 -0.045199525 0.08314427 -0.06834407 -0.06549934 -0.06503156 -0.06687458
-0.111966886 -0.07697727 0.10527889 0.08416859 -0.10088407 -0.025666144 -0.09396276 -0.07594861
0.071822464 -0.10125627 -0.098048285 -0.035688795 -0.09936737 -0.03182831 -0.06373481 -0.08556555
-0.038903233 0.04216635 0.06044497 -0.059576157 -0.00021821058 -0.08540066 -0.03924736 -0.0439463
-0.013185742 0.0099236155 -0.06536386 0.009291021 -0.010047449 -0.05415429 0.018518914 0.03980678
0.102785565 -0.058992095 0.07511197 -0.0065359087 0.04500616 -0.007340473 0.06569094 0.02496726
0.018548202 0.044878904 0.053021025 0.039831847 -0.016309317 -0.06516842 0.01723712 0.0067591383
0.003035621 -0.008005722 -0.069259144 0.07268946 -0.004547163 0.0544877 -0.029202493 0.06381023
-0.009835698 0.037459336 0.0058919485 -0.042204306 -0.0216868 0.07382907 -0.06345876 -0.012143257
0.026260318 0.022292843 -0.031892426 0.086157955 0.029853767 0.0556317 -0.030618982 -0.051209897
-0.01518393 0.07856149 0.08808564 0.11404416 0.06949245 0.14191633 -0.03145739 0.046730053
-0.060933936 -0.0413681 0.073031716 0.09945735 0.06351583 0.054266162 0.110679895 0.10094373
0.09053097 0.06913826 -0.030469798 -0.022613602 0.10840704 0.044392508 -0.013379749 0.08762686
-0.044563856 -0.049157165 -0.061629977 -0.0754556 -0.11361614 0.0027800896 0.014384742 -0.006188838
-0.06141328 -0.10987356 0.12643711 0.1534469 -0.040613785 -0.0381108 0.122464985 0.055362143
0.008415811 0.0043884483 -0.08457806 0.028818207 0.00018028004 0.02248496 0.022456417 0.049467687
0.013779127 0.00813741 0.07458738 -0.0025033874 -0.0065690516 0.12377332 0.014975404 -0.031472288
-0.06341791 0.04739795 -0.020527877 0.06871998 0.016361833 -0.002300653 -0.06771359 -0.01620409
0.0014487574 -0.029955361 0.0496464 -0.0055159545 -0.013766277 -0.017524881 0.072903275 0.072893225
-0.016736876 -0.026948962 0.0564654 -0.13118076 0.07587174 0.030309081 0.07073395 -0.024382422
-0.04567546 0.05061515 0.07494297 0.03287324 -0.0043749358 -0.053112645 0.10438554 0.0031778042
-0.08280956 -0.08176088 -0.0870854 -0.043700416 -0.054032385 -0.10437265 -0.06984254 0.08579245
-0.08198184 -0.090866596 -0.027585993 0.018078975 0.00913636 -0.08047054 0.02111324 -0.07327509
-0.054680623 0.017976684 0.07790963 0.009154591 0.006437498 -0.03549008 -0.10320305 -0.037630275
-0.02525903 -0.08862401 -0.03092818 -0.05177845 -0.101136655 -0.041960057 -0.09148862 -0.045542493
-0.086820446 -0.038200747 -0.124425694 -0.09167596 -0.09389876 -0.036124904 -0.059001636 -0.054273363
0.08516022 -0.067195825 -0.09229554 0.07231453 0.048485316 -0.02054502 -0.0890813 0.015171378
0.035146292 0.04126131 0.012880845 -0.004947999 -0.039155632 -0.02880015 0.019495614 0.11405482
0.06711631 -0.08282494 -0.043529157 0.008929854 0.02193677 -0.09676532 0.05378338 0.03500445

sequential.2.bias f4 [20]
00000000: b317 f43c 2adb 933d 68dc 793c b95f c33a
00000010: cd6f fb3b 205f abba 9a49 c63d cc73 0ebc
00000020: 92f0 cc3d b009 7f3d 9397 813c dbe2 bcbb
00000030: 3bb5 643d eb6d 14bd 9150 733c 88b5 fe3b
00000040: e66d c23c 3456 63bd 930f 663c 2abc 4e3c
0.029796457 0.072195366 0.015250303 0.0014905847 0.00767324 -0.0013074614 0.09682007 -0.0086946
0.10006823 0.062265098 0.015819347 -0.005764348 0.055836897 -0.03623764 0.0148507515 0.007773105
0.023734044 -0.05550213 0.014041799 0.012618104

final_convolution.weight f4 [1, 21, 1, 1]
00000000: 58d2 733d 1397 a0bd 732f 893d a123 8bbd
00000010: e402 693c 7021 943d e82e 99bd 510b 393d
00000020: 06e7 1fbe e55d 003d 899a d2bd 4533 c0bd
00000030: 4491 cfbd 4260 043e 9828 933d 303a d3bd
00000040: 5375 5abd 1142 dd3c cb40 823b 859a f9bc
00000050: d73a aaba
0.05952677 -0.07841315 0.06698503 -0.06793905 0.014221881 0.0723294 -0.0747965 0.045176808
-0.15615472 0.031339545 -0.102833815 -0.09384779 -0.10135129 0.12927344 0.07185477 -0.10313833
-0.053334545 0.027009042 0.003975009 -0.030469188 -0.0012987506
