from_finrl-tutorials_git/data_1993_to_2024/train/v2_result/eiie_20250103_092835_turbulence_ep100_deficit/checkpoint-64/policy_EIIE_64.pt (torch, 10958 bytes, 5 tensors)

sequential.0.weight f4 [2, 9, 1, 3]
0	0x3dc658a6	0.09684877
1	0x3cb2c1ca	0.021820921
2	0xbbabf3c0	-0.005247563
3	0xbb7cd715	-0.0038580347
4	0x3bbb0e0f	0.005708463
5	0x3b145b9e	0.0022637616
6	0x3dca097c	0.0986509
7	0xbbdc947d	-0.0067315684
8	0x3d645196	0.05574187
9	0x3de7cacb	0.113179766
10	0xbdfc03c2	-0.12305404
11	0xbd30dbe2	-0.043178447
12	0xbcedf434	-0.02904711
13	0x3dc1a4dc	0.094552726
14	0xbbaae1df	-0.005214914
15	0xbe156438	-0.14589012
16	0x3dbe02c9	0.09277875
17	0xbda71c3a	-0.08159681
18	0xbddfbca8	-0.10924655
19	0xbd703312	-0.058642454
20	0x3dd0768d	0.10178862
21	0x3d3ef302	0.04661847
22	0x3d98cdbf	0.07461118
23	0xbe0e29f0	-0.13883185
24	0xbc005420	-0.007832557
25	0x3d9ca7b1	0.07649172
26	0xbdd605a8	-0.104502976
27	0x3d8f1d55	0.069880165
28	0x3e3b931a	0.18317834
29	0x3dfdba26	0.123890206
30	0x3daebc85	0.08532051
31	0x3d6633a5	0.056201596
32	0xbde64ec8	-0.11245495
33	0x3e18f906	0.14938745
34	0x3da93669	0.08262331
35	0x3e377ec3	0.1791945
36	0x3e420704	0.18947989
37	0xbe102259	-0.14075603
38	0x3ea7764d	0.32707444
39	0xbdebe68f	-0.11518585
40	0xbdcbbb74	-0.09947863
41	0xbe07d882	-0.13266185
42	0x3df5ea05	0.12007526
43	0xbdc16bca	-0.09444387
44	0xbdd341d9	-0.10315294
45	0x3e06aa02	0.1315079
46	0x3cfbcd04	0.030737408
47	0x3cc769b7	0.024342401
48	0x3d88604b	0.066589914
49	0xbd1a7405	-0.0377083
50	0x3e33072c	0.17483205
51	0x3e03d591	0.12874438
52	0x3e10a2cb	0.141246
53	0x3b6dd785	0.003629179

sequential.0.bias f4 [2]
0	0xbe154ca3	-0.14580016
1	0x3e2162ec	0.15760392

sequential.2.weight f4 [20, 2, 1, 48]
0	0xbd04a201	-0.03238106
1	0x3e64b435	0.22334369
2	0x3d821863	0.06352308
3	0xbc929a49	-0.017895835
4	0x3e3d3b3f	0.18479632
5	0x3d96dfb1	0.073668845
6	0x3c1ee20c	0.009697448
7	0xbd4cb3ca	-0.049976148
8	0xbc9abf55	-0.018890062
9	0xbc965b03	-0.018353945
10	0xbe8599c3	-0.26093873
11	0x3c87b9df	0.016568122
12	0xbd93bde2	-0.07213952
13	0xbe627e0d	-0.22118397
14	0x3d70cba4	0.058787957
15	0x3e28bf9f	0.16479348
16	0x3c99224a	0.018693108
17	0x3e7e1434	0.24812394
18	0x3d0fcb19	0.0351058
19	0xbe201890	-0.1563437
20	0xbd95b78a	-0.07310398
21	0x3a915b4d	0.0011089832
22	0x3cdedbb9	0.027204381
23	0x3c262948	0.010141678
24	0xbdabc0af	-0.08386361
25	0xbd1293f3	-0.035785627
26	0x3e5dacc0	0.2164793
27	0xbd8ecca4	-0.06972626
28	0xbcb7ac95	-0.02242116
29	0xbd8e4592	-0.06946863
30	0x3ac4f1ca	0.0015025672
31	0x3d903405	0.07041172
32	0x3e89b017	0.26892158
33	0xbda7010e	-0.08154498
34	0x3d982374	0.07428637
35	0x3e080478	0.13282955
36	0xbc9a79a8	-0.018856838
37	0xbd95984d	-0.0730444
38	0xbd359e42	-0.04434038
39	0x3e881cbb	0.2658442
40	0xbc84d772	-0.016216014
41	0x3e64348e	0.22285673
42	0x3d82a7c5	0.06379656
43	0x3cf8c84a	0.030368943
44	0x3e3936b6	0.18087277
45	0xbd42c1b0	-0.047547996
46	0xbd39bca5	-0.04534592
47	0x3ced34f5	0.028955916
48	0xbd9c3085	-0.07626442
49	0x3e2a1aec	0.16611832
50	0x3e46c05a	0.19409314
51	0x3a0642f0	0.0005121669
52	0x3e8d9f1f	0.27660462
53	0x3e615f63	0.22009043
54	0x3d007085	0.031357307
55	0x3d5be3b6	0.05368396
56	0xbaa165e9	-0.0012313697
57	0xbbdbc916	-0.006707321
58	0xbe2bbe61	-0.16771843
59	0xbe7ea907	-0.24869166
60	0xbda6a112	-0.081361905
61	0xbe431b2b	-0.19053333
62	0xbe941c78	-0.2892797
63	0x3e59ccfd	0.21269603
64	0x3e3c9ddb	0.18419592
65	0x3e6f2ed9	0.23357715
66	0x3e5332c6	0.20624837
67	0xbe66d795	-0.22543176
68	0xbe13a3b8	-0.14417922
69	0xbd2b77bd	-0.04186224
70	0xbcedbab6	-0.029019695
71	0xbd839ed0	-0.064267755
72	0xbd0c2b62	-0.03422106
73	0x3dbdbbf4	0.09264365
74	0x3e2b4d8c	0.167288
75	0x3e7d706b	0.24749915
76	0xbcd8271e	-0.02638584
77	0xbc9029c3	-0.017598039
78	0xbcf6306a	-0.030052382
79	0x3db65800	0.089035034
80	0x3e17e82d	0.14834662
81	0x3e2c48ea	0.1682469
82	0xbd4ae7f6	-0.04953762
83	0x3e32776b	0.17428367
84	0x3e8b623d	0.27223387
85	0xbd57240d	-0.052524615
86	0xbd606ad0	-0.054789364
87	0x3e57cf23	0.2107511
88	0x3e413837	0.188691
89	0x3e5db969	0.2165276
90	0x3e85fe7a	0.26170713
91	0xbdbb7c94	-0.09154621
92	0x3e39247a	0.18080321
93	0x3e72e7bd	0.23721214
94	0xbcdb952c	-0.02680453
95	0x3ddc28e3	0.10749986
96	0xbda4e891	-0.08052171
97	0x3dfe19d0	0.12407267
98	0xbd719e6a	-0.058988966
99	0xbda93048	-0.08261162
100	0x3dd1afd1	0.102386124
101	0x3cea60ac	0.02861055
102	0xbd49e87f	-0.04929399
103	0xbc94af28	-0.018149927
104	0xbd5adfc4	-0.053436056
105	0x3bdbe1c9	0.0067102653
106	0x3e6f3b0d	0.2336237
107	0xbd13ab39	-0.036051963
108	0xbd98c379	-0.074591585
109	0xbd3fc597	-0.046819296
110	0xbbe3f9a3	-0.0069572493
111	0x3e81b6ab	0.25334677
112	0xbd7c83fc	-0.061649308
113	0x3e324b42	0.17411521
114	0xbd8b18d4	-0.06791845
115	0x3bb94832	0.0056543583
116	0xbc971f4f	-0.018447546
117	0xbcb8e700	-0.022571087
118	0x3da1dae6	0.0790308
119	0xbccac8c8	-0.024753943
120	0xbc907c78	-0.017637476
121	0xbd16fce6	-0.036862276
122	0x3e712df7	0.2355269
123	0x3c868e75	0.01642535
124	0x3d6c6f37	0.05772325
125	0xbd28babe	-0.041193716
126	0x3d60d35b	0.054889064
127	0x3d20bedd	0.03924452
128	0x3e0dfcfb	0.13866036
129	0xbc37fd1d	-0.0112297805
130	0xbd47df61	-0.048797015
131	0x3e85ff87	0.26171514
132	0x3b6d16f7	0.0036177018
133	0xbd42fdd8	-0.047605366
134	0xbce5828a	-0.028016347
135	0x3daf28f6	0.085527346
136	0xbd828119	-0.0637228
137	0x3dfe9e77	0.124325685
138	0xbd02e54e	-0.031956963
139	0x3c70f164	0.0147059895
140	0x3e1b7709	0.15182127
141	0x3d32640d	0.043552447
142	0x3d882f6c	0.0664967
143	0xbd27f15e	-0.04100167
144	0x3d59e300	0.053195
145	0x3d876a5b	0.066120826
146	0x3d75b97e	0.059991352
147	0xbc63c118	-0.013901018
148	0x3e1447c9	0.14480509
149	0x3dd4c904	0.10389903
150	0xbcec2247	-0.028824938
151	0x3d79bf36	0.06097337
152	0xbd9b3380	-0.07578182
153	0x3d9025bf	0.070384495
154	0x3e65b45b	0.22432081
155	0x3e1afa90	0.15134645
156	0x3d058a63	0.03260268
157	0x3e082a17	0.13297306
158	0xbd980c86	-0.07424264
159	0x3e3e5283	0.18586163
160	0x3e57e125	0.2108198
161	0x3e791d1b	0.24327509
162	0x3e80a336	0.2512452
163	0x3c3fa637	0.011697344
164	0xbd872288	-0.06598383
165	0xbd54b6cf	-0.051932152
166	0xbc795ddf	-0.0152201345
167	0xbcfdf3b1	-0.03099999
168	0x3d7d1b22	0.061793454
169	0x3c28d8a2	0.010305556
170	0x3e1cf968	0.15329516
171	0x3deda064	0.11602858
172	0x3db396ba	0.08768983
173	0x3d52aaee	0.051432543
174	0x390e819e	0.00013590461
175	0xbd9627a5	-0.0733178
176	0x3e6ffedb	0.23437063
177	0x3e6e1305	0.23249443
178	0xbd87827f	-0.06616687
179	0x3e86e4f8	0.26346564
180	0x3e7ef8d3	0.24899606
181	0x3d944ef2	0.0724162
182	0x3d9aaefc	0.07552907
183	0x3e1c7e50	0.1528256
184	0x3e10b410	0.14131188
185	0x3e840f2a	0.2579282
186	0x3e2a7f45	0.16650112
187	0x3d00fe4a	0.03149251
188	0x3e19a756	0.1500524
189	0x3e2f4abc	0.17118353
190	0xbd2dfbc5	-0.042476434
191	0x3e382703	0.17983632
192	0xbd8124b8	-0.06305832
193	0x3d5b241e	0.05350124
194	0x3d7c980b	0.061668437
195	0xbcea8e5b	-0.028632334
196	0x3d996cae	0.07491432
197	0xbbfad569	-0.007654835
198	0xbd6516e5	-0.055930037
199	0x3d4caec7	0.04997137
200	0xbc4754dc	-0.012166228
201	0x3be3a140	0.0069467127
202	0x3d8d0287	0.06885248
203	0xbd9b239e	-0.07575153
204	0x3d52206c	0.05130045
205	0xbb15c7b8	-0.0022854637
206	0xbd8e979f	-0.06962513
207	0xbd674598	-0.056462854
208	0x3d26ff78	0.040770978
209	0xbc75aeb7	-0.014995269
210	0x3da9426b	0.08264621
211	0xbd3ee913	-0.046608996
212	0xbc278f95	-0.010227104
213	0xbd87cebd	-0.06631229
214	0xbbff0c52	-0.007783451
215	0xbbf920c1	-0.0076027815
216	0x3cc5ff2c	0.024169527
217	0x3d4c9abe	0.04995226
218	0x3daa2fce	0.08309899
219	0x3da94d9e	0.082667574
220	0xbd84761b	-0.06467839
221	0x3da0f689	0.07859523
222	0x3d38bca0	0.04510176
223	0x3d8ddcd2	0.06926884
224	0xbd64b1df	-0.055833694
225	0x3d51aa7f	0.05118799
226	0xbda9376c	-0.08262524
227	0xbd542fd1	-0.051803414
228	0xbd84ae2a	-0.06478532
229	0x3ce5e9d8	0.028065607
230	0x3dab5d0d	0.083673574
231	0xbcd62787	-0.026141895
232	0xbd1952ae	-0.037432365
233	0x3d83af8e	0.06429969
234	0x3cd7db6d	0.026349748
235	0x3d8142e2	0.06311585
236	0xbd022925	-0.03177752
237	0xbc3f850c	-0.011689436
238	0xbd126849	-0.035743985
239	0x3b205bda	0.002446881
240	0x3d987086	0.07443337
241	0xbcb73439	-0.022363769
242	0xbd8a0369	-0.06738932
243	0x3d445b54	0.04793866
244	0xbc61f1d9	-0.013790571
245	0x3c939eb4	0.018020011
246	0x3d2bcbc3	0.04194237
247	0x3ce7791e	0.028255995
248	0x3d2b64f0	0.04184431
249	0xbd36c3cb	-0.044620316
250	0xbd81c590	-0.0633651
251	0x3d4a3d5e	0.04937493
252	0x3c028b54	0.007967789
253	0xbc94beac	-0.018157326
254	0x3cc66cd0	0.024221808
255	0x3ca0a331	0.019609066

sequential.2.bias f4 [20]
0	0x3c3b2d4c	0.011424374
1	0x3d1acf8d	0.037795592
2	0x3d53042f	0.05151766
3	0xbdd694fc	-0.10477635
4	0xbda3b012	-0.07992567
5	0x3b233497	0.0024903172
6	0xbd131a8a	-0.03591398
7	0xbd4513f0	-0.048114717
8	0xbd311bb0	-0.043239295
9	0xbc1e0309	-0.009644278
10	0x3c9f5eb7	0.019454343
11	0x3d1b1cc7	0.03786924
12	0xbce28c4a	-0.027654786
13	0x3c95356a	0.018213946
14	0x3d0ca2b1	0.034334842
15	0xbc10b095	-0.008831163
16	0x3bec5962	0.0072128037
17	0xbcc717e9	-0.024303393
18	0xbd7d15d3	-0.06178839
19	0xbd970553	-0.073740624

final_convolution.weight f4 [1, 21, 1, 1]
0	0xbe8a83c0	-0.27053642
1	0x3eb320d8	0.34985995
2	0x3e5ee066	0.21765289
3	0x3c3ca41b	0.011513735
4	0x3d957d48	0.07299286
5	0xbdfdb7f2	-0.123886004
6	0xbd680c13	-0.05665214
7	0x3de50df8	0.11184305
8	0x3e8091e8	0.25111318
9	0x3e956156	0.29175824
10	0x3e988315	0.29787508
11	0x3da6fa08	0.081531584
12	0x3e608c62	0.21928552
13	0xbe35a812	-0.17739895
14	0xbdb8c35b	-0.09021636
15	0x3e9fcc29	0.3121045
16	0xbe639ea1	-0.22228481
17	0x3eb92f19	0.36168745
18	0x3e9378f8	0.2880323
19	0xbd88e649	-0.066845484
20	0x3dd69197	0.10476988
