from_finrl-tutorials_git/data_1993_to_2024/train/v2_result/eiie_20241220_184508_ep500/checkpoint-16/policy_EIIE_16.pt (torch, 10958 bytes, 5 tensors)

sequential.0.weight f4 [2, 9, 1, 3]
0	0x3b09edbf	0.0021046249
1	0xbe7e4e8e	-0.24834654
2	0xbe692862	-0.22769311
3	0xbe36dfc3	-0.17858796
4	0xbe6c121f	-0.23053788
5	0xbe6777b7	-0.22604261
6	0xbe7e14a5	-0.24812563
7	0xbe7e2dd7	-0.24822174
8	0xbe503ece	-0.20336458
9	0x3e903edd	0.2817296
10	0xb88b7569	-6.649906e-05
11	0xbe8bff92	-0.27343422
12	0x3d85465a	0.06507559
13	0x3e0a7aaf	0.13523363
14	0x3d285b27	0.041102555
15	0xbe49d7f8	-0.19711292
16	0xbd9337ed	-0.07188401
17	0x3c7d39f2	0.01545571
18	0xbe92fffc	-0.28710926
19	0x3d3b5c51	0.045742337
20	0xbccf4363	-0.025300687
21	0xbdec6a89	-0.115437575
22	0x3cd580d8	0.026062414
23	0xbd4d27d5	-0.050086815
24	0xbbe90f15	-0.0071123936
25	0x3d1327ab	0.035926502
26	0xbe6ade32	-0.22936323
27	0x3d8d3af8	0.06896013
28	0xbde8cb19	-0.11366863
29	0xbd130311	-0.035891596
30	0x3e9a32db	0.30116925
31	0x3da7e791	0.08198465
32	0xbe1de51c	-0.1541943
33	0x3bcb9846	0.006213221
34	0xbdfc54fd	-0.12320898
35	0x3e0c4ba2	0.13700727
36	0x3c5a05fb	0.01330709
37	0xbc809f9a	-0.015701104
38	0x3d635e65	0.055509944
39	0xbe9669df	-0.29377648
40	0xbd479174	-0.0487227
41	0x3dd45b2c	0.10368952
42	0xbd8a03e8	-0.06739026
43	0xbe02db7a	-0.12779036
44	0xbdc05815	-0.093918
45	0xbda123d0	-0.07868159
46	0x3d1335c7	0.035939958
47	0xbdfa723e	-0.12228821
48	0x3e6212e0	0.22077513
49	0x3c483205	0.012218957
50	0xbce67110	-0.028130084
51	0xbdc165e9	-0.09443266
52	0xbcd16a2b	-0.02556332
53	0x3dacd2af	0.08438622

sequential.0.bias f4 [2]
0	0x3d831316	0.06400125
1	0xbe27d5c8	-0.16390145

sequential.2.weight f4 [20, 2, 1, 48]
0	0xbe385274	-0.18000203
1	0x3d0f395b	0.034966808
2	0xbd934a43	-0.07191899
3	0xbe1c40b6	-0.1525906
4	0x3e00ee86	0.1259099
5	0x3c8b0312	0.016969237
6	0xbdb7b8d3	-0.08970799
7	0xbccb5305	-0.02481986
8	0x3eaf27c4	0.34210026
9	0x3e3dd798	0.18539274
10	0x3db1669b	0.086621486
11	0xbe9946c7	-0.2993681
12	0x3dd429ce	0.10359536
13	0x3c03bcab	0.008040587
14	0x3e2c6d48	0.16838562
15	0xbe8a0755	-0.2695872
16	0x3cce9a60	0.025220096
17	0x3e2fa60d	0.17153187
18	0xbbcd0587	-0.0062567624
19	0x3d178865	0.03699531
20	0xbe0a54d7	-0.13508926
21	0xbe9489c6	-0.29011363
22	0x3d80524a	0.062656954
23	0x3e7bcbd4	0.24589473
24	0x3ebbcac0	0.36678123
25	0xbdafc1d1	-0.085818894
26	0xbdbb8d8a	-0.09157856
27	0x3cf8271f	0.030292092
28	0x3e2fe7c1	0.17178251
29	0xbdf29f4f	-0.11846792
30	0xbc7c599e	-0.015402226
31	0x3e86250b	0.26200137
32	0xbe6693ef	-0.2251737
33	0xbd3fa4b3	-0.04678793
34	0xbec36426	-0.38162345
35	0xbda6df1f	-0.08148026
36	0x3e8ac916	0.2710654
37	0xbe101096	-0.14068827
38	0x3e0d0cc5	0.13774402
39	0xbd8613c6	-0.0654674
40	0x3e6a042e	0.22853157
41	0xbe754690	-0.23952699
42	0xbe6a4480	-0.22877693
43	0x3e73dcc8	0.2381469
44	0x3dcd8051	0.1003424
45	0x3ceff29d	0.029290492
46	0x3e8f4357	0.27981064
47	0xbd7c4336	-0.061587535
48	0xbe1ae43b	-0.15126126
49	0xbd06baee	-0.032893114
50	0x3e7c23f8	0.24623096
51	0xbe877de3	-0.2646323
52	0xbcb9237a	-0.022599924
53	0xbe318d89	-0.17339148
54	0x3eb3adbd	0.3509349
55	0x3dc854a3	0.09781768
56	0x3e9048b2	0.28180462
57	0x3e04d47d	0.12971683
58	0xbe03dcab	-0.12877147
59	0xbc9ea9f5	-0.019368151
60	0x3e1a9f2f	0.15099786
61	0xbaf97f7c	-0.0019035186
62	0xbd8fdf69	-0.07025034
63	0x3ecb21ab	0.39674124
64	0x3d570de9	0.0525035
65	0x3ddfe2a5	0.10931901
66	0xbd57c7e3	-0.05268086
67	0xbe22bf18	-0.15893209
68	0x3eb4e9a2	0.35334498
69	0x3e1fbe88	0.15600026
70	0x3e87dea6	0.26537055
71	0xbe82a9a4	-0.2552005
72	0xbe632e25	-0.22185571
73	0xbe369785	-0.17831238
74	0x3e56147f	0.20906256
75	0xbe2a1b23	-0.16611914
76	0xbd990128	-0.07470924
77	0x3e609c12	0.21934536
78	0x3db64644	0.08900121
79	0xbd8cb0ac	-0.06869635
80	0xbe30d727	-0.17269574
81	0xbbf3336e	-0.0074219024
82	0x3e88355b	0.26603207
83	0xbd2374a4	-0.03990616
84	0x3d18a7c8	0.037269384
85	0x3ddc3994	0.1075317
86	0xbd92782f	-0.071518295
87	0xbdb43cbc	-0.08800647
88	0xbe51f817	-0.20504795
89	0x3e712895	0.23550637
90	0x3d5858b0	0.052818954
91	0xbe850283	-0.2597848
92	0x3e08b84b	0.13351552
93	0xbde4c988	-0.111712515
94	0x3e06d81f	0.13168381
95	0xbec1ad84	-0.37827694
96	0xbcb19eb2	-0.021682117
97	0xbd23e346	-0.040011667
98	0x3dbc87d7	0.09205597
99	0x3d146349	0.0362275
100	0xbdd767a6	-0.10517816
101	0x3e90c144	0.2827245
102	0xbd2ad4e5	-0.04170694
103	0x3e25d09d	0.16192861
104	0xbd4a299f	-0.0493561
105	0xbda217f3	-0.07914724
106	0x3ca02b7c	0.019551985
107	0xbe4877c2	-0.19576934
108	0x3dec5ae7	0.11540776
109	0x3c903e35	0.017607788
110	0x3da9e8cb	0.08296355
111	0xbe84cfa1	-0.25939658
112	0xbd8d8280	-0.069096565
113	0x3c5719a0	0.013128668
114	0xbdc41dc4	-0.0957599
115	0x3e55ef90	0.20892167
116	0xbdbd5a32	-0.09245719
117	0xbe49ac73	-0.1969469
118	0x3e10c39c	0.14137119
119	0x3e5c84b6	0.21535
120	0xbec273f5	-0.37979093
121	0xbe3a221a	-0.18177071
122	0xbdf5eea9	-0.120084114
123	0xbef9a864	-0.48761284
124	0xbe66e220	-0.22547197
125	0x3db1e39e	0.08685993
126	0x3d3f70d1	0.04673845
127	0x3e0dfbd6	0.13865599
128	0xbe153b77	-0.14573465
129	0x3ad14f9e	0.0015969162
130	0xbdcbc0d2	-0.09948887
131	0xbe294be0	-0.1653285
132	0x3ddc91a6	0.10769968
133	0xbe3fb6c1	-0.18722059
134	0xbe00fe98	-0.1259712
135	0x3c833a27	0.01601894
136	0x3c52e49a	0.012871886
137	0xbe268723	-0.16262488
138	0xbe26365e	-0.16231677
139	0xbd805d66	-0.06267814
140	0x3d161d4b	0.03664903
141	0xbd7c5e63	-0.06161345
142	0xbd7e9d36	-0.062161647
143	0x3e4847b1	0.19558598
144	0x3c026d92	0.007960694
145	0xbe348ec4	-0.17632586
146	0xbdf8e441	-0.12152911
147	0x3e18cc3e	0.14921662
148	0xbe2a3773	-0.16622715
149	0xbe5e3fce	-0.21704027
150	0x3d9f0f92	0.07766642
151	0xbc913595	-0.017725745
152	0x3e635b70	0.2220285
153	0x3e1d5192	0.15363148
154	0x3c638f53	0.013889152
155	0xbd0a1881	-0.033714775
156	0x3da609d8	0.08107346
157	0x3c0ad65b	0.008473958
158	0xbdae4e55	-0.085110344
159	0x3cf604a7	0.030031515
160	0x3cbdf8ce	0.023189928
161	0x3cc20d63	0.023688024
162	0xbe1219c5	-0.14267643
163	0xbd4106fb	-0.047125798
164	0x3cfb72eb	0.030694446
165	0x3d35c101	0.044373516
166	0x3e3eb51a	0.18623772
167	0xbe274c5a	-0.1633772
168	0xbe3fb140	-0.1871996
169	0xbe6c168c	-0.23055476
170	0xbcead433	-0.028665638
171	0xbe8eaa60	-0.2786436
172	0xbd0bfc55	-0.03417619
173	0x3dcf41fe	0.10120009
174	0x3c863cc0	0.01638639
175	0x3d13fbb9	0.036128733
176	0xbe5a5504	-0.21321493
177	0xbd975400	-0.073890686
178	0x3d1dafe0	0.038497806
179	0xbe443a0b	-0.19162767
180	0x3daa0c45	0.083031215
181	0xbe13fae4	-0.14451176
182	0xbddbc080	-0.10730076
183	0xbdac7337	-0.08420413
184	0x3d876e21	0.06612802
185	0x3e85f35d	0.26162234
186	0x3dbad2e6	0.09122257
187	0xbd1944c3	-0.037419092
188	0x3d0ca892	0.03434045
189	0xbd862e4f	-0.065518014
190	0xbcb07cc2	-0.021543864
191	0x3df42716	0.119215176
192	0xbe5b582c	-0.21420354
193	0x3dba08b0	0.09083688
194	0xbcc25635	-0.023722747
195	0x3e71e6c1	0.23623182
196	0xbe1c9bbc	-0.15293783
197	0xbd71bc63	-0.05901755
198	0xbe3b89c9	-0.1831428
199	0xbd840167	-0.0644558
200	0xbe6d6b66	-0.231855
201	0x3d9e7414	0.07736984
202	0xbd8e32b4	-0.069432646
203	0xbe073272	-0.13202837
204	0xbd857a4b	-0.06517466
205	0x3ae13ed2	0.001718486
206	0xbe3f39da	-0.18674412
207	0xbe2df148	-0.16986573
208	0xbdc8a792	-0.097975865
209	0xbd2c0768	-0.04199925
210	0xbe4636f9	-0.19356908
211	0xbea66193	-0.32496318
212	0xbcc159d9	-0.023602413
213	0xbddc61a6	-0.107608125
214	0x3ddc176d	0.107466556
215	0x3c5f2050	0.013618544
216	0xbe1a1931	-0.15048672
217	0xbe461d62	-0.19347146
218	0xbde7e91d	-0.1132376
219	0xbdee5673	-0.11637583
220	0x3df8f161	0.121554144
221	0x3d388cb6	0.045056067
222	0xbdc0f67e	-0.09422015
223	0xbda3e4af	-0.08002602
224	0xbe61af4a	-0.22039524
225	0x3c024206	0.0079503115
226	0x3ca18445	0.019716391
227	0xbe293bd6	-0.16526732
228	0xbe21813d	-0.15771957
229	0xbe91b60f	-0.28459212
230	0xbe34f260	-0.17670584
231	0xbe165fb1	-0.14684941
232	0x3d66e85d	0.056373943
233	0xbce3591a	-0.027752448
234	0xbd9ede8a	-0.0775729
235	0xbd4df022	-0.050277837
236	0xbe1f9a36	-0.1558617
237	0xbe2ccbf6	-0.1687468
238	0xbe808fa1	-0.2510958
239	0xbe22de99	-0.15905227
240	0xbdff2836	-0.124588415
241	0x3e7cd805	0.2469178
242	0x3cc6a385	0.024247894
243	0x3c51282e	0.012765927
244	0x3dbf3136	0.09335558
245	0xbd702484	-0.058628574
246	0xbdcbc91f	-0.0995047
247	0x3d788ef5	0.06068321
248	0xbdfff4da	-0.124978736
249	0xbdb9e2ec	-0.09076485
250	0x3b5018d1	0.0031753073
251	0x3d3fcc27	0.046825554
252	0xbce84bca	-0.028356452
253	0xbdbf0291	-0.093266614
254	0x3ce79eda	0.028273989
255	0xbdf070a7	-0.11740237

sequential.2.bias f4 [20]
0	0xbd2d884a	-0.042366304
1	0x3e12fc27	0.14354001
2	0x3d915217	0.070957355
3	0x3c9a66eb	0.018847903
4	0x3d730129	0.05932728
5	0xbd884f66	-0.06655769
6	0xbcfd8685	-0.030947933
7	0x3e99d0fb	0.30042252
8	0x3edaf545	0.4276525
9	0xbe0a5576	-0.13509163
10	0xbd4f5890	-0.05062157
11	0x3dd96aea	0.10616095
12	0x3e09e41b	0.13465922
13	0x3e2130ad	0.15741225
14	0x3ebcd8d3	0.36884174
15	0x3d66f340	0.056384325
16	0x3de95f9e	0.11395191
17	0x3c444dec	0.011981469
18	0x3e9d0163	0.3066512
19	0x3e899d67	0.268779

final_convolution.weight f4 [1, 21, 1, 1]
0	0xbe1d8017	-0.15380894
1	0x3e2f91f7	0.17145525
2	0x3d08e452	0.03342087
3	0xbb1ba5b7	-0.0023749897
4	0x3dee0885	0.11622719
5	0x3e289c94	0.1646598
6	0x3ca754a8	0.02042611
7	0xbe688331	-0.22706296
8	0x3e0439a9	0.1291262
9	0x3d135150	0.035966218
10	0x3c89ae8c	0.016806863
11	0xbdc95894	-0.09831348
12	0x3eb87d85	0.36033264
13	0x3d7933e8	0.060840517
14	0x3d9c3b5a	0.07628508
15	0xbdd67f2b	-0.10473474
16	0x3c8f6751	0.01750532
17	0xbdf9cdea	-0.12197478
18	0xbea1c0c6	-0.31592387
19	0x3e491c68	0.19639742
20	0x3e279c0c	0.16368121
