from_finrl-tutorials_git/data_1993_to_2024/train/v2_result/scribed/eiie_20241227_104002_reward_in_loss_ep100/checkpoint-25/policy_EIIE_25.pt (torch, 10958 bytes, 5 tensors)

sequential.0.weight f4 [2, 9, 1, 3]
00000000: b97f dcbe 9206 3bbe 5da7 66be b412 5fbe
00000010: 0cb5 6cbe 1633 b8be 5621 96be bbdd 9fbe
00000020: 3152 70be f76e ca3c 1a0f 0c3d 70a1 4abe
00000030: bca7 94bc 4bae 45bf 8684 90be d135 f9bd
00000040: 2ae0 42be d7c5 f1bd 82e8 b3be 9b52 c7be
00000050: ddcb 2fbe cf61 f9be 2347 5fbe cd29 abbe
00000060: 3159 ddbd eb5b 95be 4d10 07be 69e1 a63d
00000070: bcf5 3e3e a52e 9e3e 241f 873d e003 9f3c
00000080: 85b9 763d 4e04 093e a557 05bd 4ae5 853d
00000090: f771 e63e 6af5 c63e 8feb 88be 3d25 e3be
000000a0: fcd3 7b3e 5976 c23e 240a 053d 7d6f ba3c
000000b0: 488e 123e 1c42 ed3c 4184 1a3d a6bd 853e
000000c0: 1088 7c3e 3a2c 053d ec6f 163e e2c5 063e
000000d0: f362 0e3e 8867 ea3d
-0.43066195 -0.18264225 -0.22524782 -0.21784478 -0.23115939 -0.35976475 -0.29322308 -0.31223854
-0.23468854 0.024711115 0.03419409 -0.19788146 -0.018146388 -0.77219075 -0.28226107 -0.12168468
-0.19030824 -0.11805313 -0.35138327 -0.3893021 -0.17167611 -0.48707435 -0.2180448 -0.3343033
-0.108080275 -0.2917169 -0.13189812 0.08148462 0.18648428 0.30894962 0.065977365 0.019411027
0.06023552 0.13380548 -0.032554287 0.06537874 0.45008823 0.3885911 -0.26742217 -0.44364348
0.24592584 0.37980917 0.032480374 0.02275824 0.14312088 0.028962187 0.037723783 0.26121253
0.24661279 0.03251288 0.14691132 0.13161424 0.13904934 0.11445528

sequential.0.bias f4 [2]
00000000: b4d5 2bbe 7dbd 973e
-0.1678074 0.29636756

sequential.2.weight f4 [20, 2, 1, 48]
00000000: f678 783d 32a4 58be 70a5 033e 8c4e cd3d
00000010: 64cd 813e e591 ad3e e633 f93e d2d4 94bd
00000020: 0e8e 753e af52 023f 02f7 4d3e cfee 103e
00000030: 17da 17be 6e1a b63e 7bb1 f23e f2d2 b33e
00000040: 6776 82bd 4533 923e c5d9 a4bc aaa3 df3d
00000050: 0433 783e d35b 353e dc9d ab3e a74b 0a3e
00000060: 37a7 56bd eb93 493d 71b8 6a3e 54d8 b2bd
00000070: cff2 55bd f42d 133e 1ea0 3a3e 87df ae3e
00000080: efdb 83bd e97e 87be 75d7 67be 249f 16be
00000090: da9e bf3d ed89 a83e b3b9 993d cb74 643d
000000a0: b738 423e 1694 20bd 4bf7 773d cc37 af3c
000000b0: 49db 083d 2861 653d c85a 6a3e 9c2c 213c
000000c0: 1c38 783d 9b03 b6bd a2d1 8bbe affe 3f3e
000000d0: e2b8 cc3d 723f b03d adb5 e23d e77e 2bbd
000000e0: 7c42 fdbe d2da e23d 7649 20be 2467 843d
000000f0: 8f8e 51be 9e21 2bbe 2dbf 623e a051 323e
00000100: dbab 90bd 9f4e 04bc 692d 91bd 7f21 b7be
00000110: 51b0 053d dc9b aabe 0b59 9ebe ad11 8b3e
00000120: 133d f5be d9ba 9abe bdf4 4b3e 1355 de3d
00000130: c06e 69be db53 89be 90cd 9cbd 1d75 bd3c
00000140: 1f69 84be 0ab0 bd3d 396d 70be 31c5 78be
00000150: f21d 05be f61b b33e dcd9 503d 3590 643e
00000160: 32e2 7b3e caa7 95bd 7dc3 743e d2fd 133e
00000170: a280 3e3e b781 72be 51d5 f3bd 735e 5a3e
00000180: ce60 c1bd 3c9d 593d 59be 4f3d 7d9e f83c
00000190: d101 ed3d 1b33 283d 7b9d 193e c192 c03d
000001a0: 88ab 903c e871 60bd b564 edbd 3b33 3fbd
000001b0: e1da 0cbc 3512 02be 2f93 62be af17 17be
000001c0: bd1b 793d 5559 68bd a445 7e3e 03e3 703e
000001d0: 2c6c cb3d 825a 9b3c 4244 64be cc11 07bf
000001e0: 371c 8fbe 1c1d d5bd 5ecf acbe f714 1a3e
000001f0: a4c9 6c3e dfe5 89bd 2b1a 7dbe e3ad 44be
00000200: 50a5 2ebe 8459 5fbe 0d76 7c3e 905d 013e
00000210: 03e6 dabd 3ecc 51be 1021 6b3e b3a4 183e
00000220: 51eb a2be 4d7f 6fbd 728c 6b3d f7ce 053e
00000230: 61b9 353e 8bdb dbbb 43ed 5abe a786 48be
00000240: 88a0 a33d be73 f43d deb4 123e 48f8 443e
00000250: e75f c73d a2cc 403e 0e2d 703e 81c1 483e
00000260: 39f2 e43d b251 8f3d 6857 da3d 49cf 383e
00000270: fe3e 193e 781b 2c3e a215 623d be45 d93d
00000280: 67d3 b13d 5d92 ddbd a7c7 793d b98e 8b3e
00000290: 3a6e 293e fbde ce3d 7147 623e d111 1d3e
000002a0: 9c20 033e bffa 393e 97bf 103e a1c1 363d
000002b0: 59fc e33d 6584 52bd c400 683e e59b 293e
000002c0: ab2a 7e3c e8cd e1be f18c 353e 9438 333e
000002d0: 083f 393e 3312 f1be 6814 6a3e 055c ab3c
000002e0: ed5e 743d 601c 573e be51 00bd 55c8 4b3e
000002f0: 7faa 523e d066 5c3e 5918 f03d 99a5 dfbe
00000300: a39f 083e 556b 363f 4ea2 4c3b 5536 fdbd
00000310: 51d6 8c3b de57 b3be c681 b4be 84fc 2fbe
00000320: 9975 12be cb67 06bf e369 9ebe 3962 063e
00000330: a5f5 94bc 9241 b0be c677 90be 66f5 10be
00000340: 00db 813c 4ba5 d63e 330c a83e eeed 093e
00000350: 38da 983d b154 973e 090c ef3d db17 00be
00000360: 798a ab3e 8806 71bd 1ff7 84bd 5922 863e
00000370: 32dd 063f cdfc b13e 7654 71be bb7e abbe
00000380: 47aa 933e b4bd 3d3e 7cac 9bbe f849 74be
00000390: a5cb 58be 143e ecbd f7c7 19be 8798 10be
000003a0: a859 1d3e 1a72 20be d3b8 4bbe 1f75 013e
000003b0: 58b0 2fbc 1480 8b3c 89e1 8bbd 1b50 323e
000003c0: ff2b 7abe a10a 073f edce 8c3e 7608 b7bd
000003d0: a904 1fbe 2b0a 323e bf65 233e 47c8 e2bd
000003e0: 2c10 f93e 523c 9cbc d991 65be 3b93 243e
000003f0: 9d7d af3d 72f0 07bd 742b 77be 9c86 333e
0.060662232 -0.21156386 0.12856078 0.10024747 0.25352013 0.3390037 0.48672408 -0.07267155
0.23979971 0.50907415 0.20113757 0.14153598 -0.14829288 0.3556704 0.47401032 0.35121876
-0.0637024 0.2855474 -0.020123372 0.10919888 0.24238211 0.1771081 0.33518875 0.13505422
-0.052405562 0.04921333 0.22921921 -0.087326676 -0.052233513 0.14372998 0.18225142 0.34154913
-0.064384334 -0.26464012 -0.22640784 -0.14709145 0.093564704 0.3291773 0.075061224 0.055775445
0.18966947 -0.039203726 0.06053857 0.02138891 0.03341225 0.05600086 0.22886193 0.009837296
0.060600385 -0.088874064 -0.27308375 0.18749498 0.09996201 0.08605851 0.11069808 -0.04186907
-0.49464786 0.11076893 -0.15653023 0.06464985 -0.20464538 -0.16712043 0.2214324 0.1741395
-0.07064029 -0.008075385 -0.070887394 -0.35767743 0.03263885 -0.33322036 -0.3092731 0.27161923
-0.47898158 -0.30220678 0.19917579 0.1085607 -0.22796154 -0.2682179 -0.076563954 0.023127133
-0.2586145 0.092620924 -0.23479165 -0.24293973 -0.12999704 0.3498227 0.050989017 0.22320636
0.24598005 -0.07307394 0.23902698 0.14452294 0.18603757 -0.23682295 -0.11905921 0.21325092
-0.09442292 0.053128466 0.05071864 0.03034901 0.11572612 0.041064363 0.1500148 0.09402991
0.017659917 -0.05479613 -0.11591474 -0.046679717 -0.008597107 -0.12702258 -0.22126459 -0.14755128
0.06081747 -0.05672582 0.24831253 0.23524098 0.099327415 0.018964056 -0.22291663 -0.5276153
-0.27951214 -0.10405943 -0.3375196 0.1504706 0.23123795 -0.067332976 -0.24717014 -0.19206958
-0.17055249 -0.21811491 0.24654408 0.12633348 -0.106884025 -0.20488068 0.22961831 0.14906578
-0.31820157 -0.058471013 0.057506986 0.13067232 0.17746498 -0.006709521 -0.2137957 -0.19582616
0.07989603 0.119361386 0.14326808 0.19235337 0.09735089 0.18828061 0.23454687 0.19605066
0.11179013 0.06998004 0.10661203 0.18047823 0.14965436 0.16807353 0.055196412 0.106090054
0.086829 -0.10818932 0.06098142 0.27257326 0.16545954 0.10101124 0.22097565 0.15338828
0.12805408 0.18162058 0.14135586 0.044618253 0.11132116 -0.051395793 0.22656542 0.16563375
0.0155131025 -0.44102407 0.17729546 0.17502052 0.18090451 -0.47084197 0.22859347 0.020917902
0.05966084 0.21006918 -0.031327955 0.1990064 0.20572852 0.21523595 0.11723394 -0.43681028
0.13342147 0.71257526 0.003122467 -0.12363879 0.0042980094 -0.35027975 -0.3525526 -0.17186171
-0.14302672 -0.52502126 -0.3094016 0.13123406 -0.018183539 -0.34425026 -0.2821638 -0.14156112
0.015851498 0.41922984 0.32821807 0.13469669 0.07463497 0.29556802 0.116722174 -0.125091
0.33504084 -0.05884412 -0.06492447 0.2619808 0.5268127 0.34763184 -0.23567376 -0.33495125
0.2884085 0.18529397 -0.30405033 -0.23856342 -0.21171434 -0.11535278 -0.15017687 -0.14120685
0.15366232 -0.15668526 -0.19894724 0.12642334 -0.010723196 0.017028846 -0.06830127 0.1741337
-0.24430846 0.52750593 0.27501622 -0.08937161 -0.15529121 0.17386691 0.15956782 -0.11073356
0.4864515 -0.019071732 -0.22418918 0.16071789 0.08568881 -0.03318829 -0.2413767 0.17531818

sequential.2.bias f4 [20]
00000000: 84d2 263d 172c 793d b567 2abe 4b61 1b3d
00000010: 0ea4 b3be c41f 1b3e 4dba 883d 19d2 cd3e
00000020: 7483 71bd 8488 acbd a70b 28be a486 003e
00000030: b5d1 5a3e 8576 1ebe d5f2 00be b6e2 9cbe
00000040: b39f 53be 8395 b7be 496c 17be 8867 83bd
0.040728107 0.060833063 -0.16641124 0.037934583 -0.350861 0.15148836 0.06676159 0.40199354
-0.058963254 -0.08424476 -0.16410695 0.12551361 0.2136906 -0.15474899 -0.12592633 -0.30641717
-0.20666389 -0.35856256 -0.14787401 -0.064162314

final_convolution.weight f4 [1, 21, 1, 1]
00000000: 4605 9ebc 1982 e6be 7a78 4b3e b315 3c3f
00000010: 68ed dc3e 20a3 fe3d 34a7 b7ba 4ab0 97be
00000020: ed1e f9be d3d4 95bd 5675 44bd 03a8 913d
00000030: 2112 15be f273 dd3e 1b99 d03d 3179 cfbd
00000040: dcda 193e bddf c9bd 486b fdbd 32ba d9bd
00000050: e009 103d
-0.019289624 -0.45021132 0.19870177 0.7347061 0.43149877 0.124334574 -0.0014011622 -0.29626685
-0.48656407 -0.073159836 -0.047963463 0.07112124 -0.14557697 0.43252522 0.101854526 -0.10130537
0.15024894 -0.09857128 -0.12373978 -0.10631217 0.035165668
