from_finrl-tutorials_git/data_1993_to_2024/train/v2_result/scribed/eiie_20241224_122452_graph_tuesday_no_trf_mu_ep100/checkpoint-25/policy_EIIE_25.pt (torch, 10958 bytes, 5 tensors)

sequential.0.weight f4 [2, 9, 1, 3]
00000000: 80d3 9abe 0cfc fdbd 693e 43be 2af9 443e
00000010: 3346 a3be a678 a6be 9a90 88be 359e a2be
00000020: 1b2a 35be b9e0 cebc ebd3 2a3d b4f7 0c3e
00000030: 0def e3bd 4c76 c6bb 5f02 50be 72ed 083c
00000040: 7537 42be 6d92 87bd 9322 4ebe c9c7 7fbe
00000050: e028 1abe 93fb a6be 8ec5 0cbe 57d8 67be
00000060: 801f 11be 00ce 38be 2300 3ebe a634 2dbf
00000070: 1012 25bf 16c5 22bf 5d47 90bd 02c5 28bf
00000080: 5b8c 5c3e 5c88 c4bd 6ff6 20bf 403b 1abf
00000090: 0df2 17be 6b87 fe3e 4d8f 9dbe f89f f53b
000000a0: f5fb a33e 46d6 b13d 2218 c0be 1dd1 1fbf
000000b0: 29eb cbbe d094 b1be 290a 25bf 8dfb 08bf
000000c0: 262f fdbe 4efa 17bf 0d2b 21bf 6c95 09bf
000000d0: bcc1 cebe 4679 dbbe
-0.30239487 -0.1240159 -0.19066776 0.19235674 -0.31889495 -0.32513922 -0.26672822 -0.31761327
-0.17691843 -0.02525364 0.041706007 0.13766366 -0.1112958 -0.0060565826 -0.20313405 0.008357393
-0.18966468 -0.066197254 -0.20130377 -0.24978556 -0.15054655 -0.3261381 -0.13747236 -0.22641121
-0.14172173 -0.18047333 -0.1855474 -0.6765846 -0.64480686 -0.6358198 -0.070448615 -0.6592561
0.21537916 -0.09596321 -0.6287603 -0.6024666 -0.14838429 0.4971269 -0.30773392 0.0074958764
0.32028165 0.086834475 -0.37518412 -0.62428457 -0.3982785 -0.34683847 -0.6446863 -0.53508836
-0.49450034 -0.5936631 -0.62956315 -0.53743625 -0.40382183 -0.42865962

sequential.0.bias f4 [2]
00000000: df0f 40be a299 b7be
-0.18756054 -0.358594

sequential.2.weight f4 [20, 2, 1, 48]
00000000: 57e0 b73e 8974 063e 4bd4 ff3e d4b6 2f3f
00000010: 1607 3b3f f932 a73e c46f 683d 3747 52bf
00000020: 3cb8 a3be 8033 893d a63f bbbc c593 6e3d
00000030: 6c79 0fbc 380e a83d c970 29bd 034b 24be
00000040: 06a1 ce3d 666a f13e 4af0 7abb ff2f dabd
00000050: 9f4c b63e 3e55 8e3e a319 9a3d 74f0 a3be
00000060: bff0 aebc 5f83 d53c 53ac 61be 316c 04be
00000070: 9d38 ffbc 6aca 7a3e 897a 193e 047c 1b3f
00000080: 3a13 a03d a9de 083d 8d05 2dbe 6031 78bd
00000090: 19ef ecbd b8fc dfbd 286f 31be 1f1e da3c
000000a0: 4d40 febd 25fe 99be d945 0d3e d664 473e
000000b0: 53c4 c33c dca3 9f3e 60df 5e3e ce39 83be
000000c0: 396a 34bd c509 953e 69b1 ed3e 8db5 aa3d
000000d0: ee17 3b3f 562d f53c 387e 07be aaa2 93be
000000e0: d2fe 32bf dec8 8bbe df5e 623e 6bfd d4be
000000f0: 30b6 ecbd e4dd 9cbd 5949 10be 43dc 65be
00000100: e081 963d 1d0f a93d b8c2 e2bd 02fb 983b
00000110: 9e43 203d 337b 4f3e 5de2 e43d b278 8ebe
00000120: 0c21 6e3d bf95 b7be bef7 303e 81d9 a9bc
00000130: 4ac6 2ebc 1db0 5d3d 8481 9b3e 23ff 2f3f
00000140: 948f 833e 3648 3ebe c5f3 c33c e28b a1be
00000150: 0e19 2ebd b32b edbd abdf c2be f67b 573e
00000160: 61f9 133e 3a1e 9fbe 14b0 f5be 1bd4 a03e
00000170: 572a c7bc 01e3 ac3d b6d9 d83e 5675 9bbd
00000180: a45f 60be 83e0 2c3e e416 443e 83fd 16be
00000190: b179 0a3e 41a1 08be 075d 91be cc09 39be
000001a0: b996 be3c 544e e43d 0045 38bd b916 083c
000001b0: 9dcc 9bbe 7b68 21be a33a 2abd c10f 45be
000001c0: 8f85 63bd c7a9 1bbe a6e0 edbd 354a 203d
000001d0: 751b 53be 6dcb 32be da59 66bc 08d8 193e
000001e0: ec4c 443e a497 e53d 2ac3 993d 8a3f b03d
000001f0: 852f 233e 5b21 a73d a325 82be a64f 4abe
00000200: be58 ce3c 8a09 ba3d 5c71 f03d c3ee 93bc
00000210: f4f4 c4bd 4bea 9abd dac5 823e 6c3a ca3d
00000220: 6f06 05bc 9617 b03b d869 35bc 1382 0fbe
00000230: d35d 843c aaf5 f9bc 5176 1bbd 7866 e6ba
00000240: 9811 9d3b 6baa 11bd 5636 adbd d33d c53d
00000250: cc34 313b de66 033d 940e c8bd ed97 e8bd
00000260: 3ffc e33d 9296 203e e258 01be ce89 3c3e
00000270: 152a 7cbe d475 403d c7e8 f93d c328 1bbe
00000280: 33ba 78bd 6e51 a03d a8b0 693d a05d db3d
00000290: 6047 3fbe c065 d8bc 0c3b 123e 93cf b83c
000002a0: 5d55 373d 502d 0a3e d999 0f3e 3134 c0bc
000002b0: 66ae b5bb c13c 923c 2396 afbe 1fa3 e4be
000002c0: df0e 54be 66d7 45bd 770d 223d e013 293e
000002d0: 5e4c ab3d cc10 54bd e94a 593e 0c25 3dbe
000002e0: dee5 b03d 1246 78be ed94 df3c 533a adbe
000002f0: 34e4 fc3c 0ec4 1ebd 5081 74be f954 ba3d
00000300: 02db 113d 7359 93be 614e 783d e6b2 543b
00000310: e310 73be 5b95 89be 90a3 0b3e cb82 283e
00000320: ad16 73be a7d4 e3bd c85a 16bd 3ab8 9dbd
00000330: 560d 103e ab88 2e3e f974 8d3e 7e19 afbd
00000340: 7beb 473c 548e 063e db39 b13e dd61 3d3e
00000350: 916e bcbd f0a5 62be dec7 253d 06b1 1d3e
00000360: 03b9 353e 0145 c1bd 7edd ccbd b83b 69bd
00000370: 37e5 1e3e 66a7 103d 5356 53bd a04e 9cbd
00000380: 477c c1bc c533 1b3e 6bd2 b43e 2acb 853e
00000390: 2890 693e dc8e 413e 277a e03e 1637 6d3d
000003a0: ca85 39be e1a0 153e b0b4 24bd 0846 123e
000003b0: 7314 8cbd 6822 dbbd 16cf bebe c710 b53c
000003c0: b2bc cd3e 9cd6 b9be d08d 883e 6363 3b3f
000003d0: 518b 643d d450 75be 1d37 ea3e faf9 e33d
000003e0: 09a4 79bd f60f f4bd 0c58 29bd 4129 463e
000003f0: 6485 65be 6890 023e 639e e03d 437b 063e
0.35913345 0.13130392 0.49966654 0.6863835 0.7305769 0.32656077 0.056747213 -0.82139915
-0.31976497 0.06699276 -0.022857498 0.058246393 -0.008756977 0.08205837 -0.041367326 -0.1604424
0.100893065 0.47151488 -0.0038290196 -0.10653686 0.35605332 0.2779941 0.07524421 -0.3201939
-0.021355031 0.02606362 -0.22038393 -0.12931897 -0.031154925 0.24491277 0.1498815 0.6073611
0.07816167 0.03341547 -0.16896649 -0.060593963 -0.11569042 -0.10936874 -0.17327559 0.026625691
-0.12414608 -0.3007671 0.13796176 0.1947206 0.023897326 0.31179702 0.21764898 -0.2563004
-0.044046614 0.29109016 0.46424416 0.08335409 0.7308339 0.029928844 -0.13231742 -0.2883504
-0.69920075 -0.27301687 0.22106503 -0.41599593 -0.11558187 -0.0765951 -0.1409048 -0.22447304
0.073489904 0.08254836 -0.11072296 0.0046685943 0.039126985 0.2026184 0.11175988 -0.27826458
0.058136985 -0.35856435 0.17282006 -0.020733597 -0.010667393 0.054123033 0.3037225 0.6874868
0.2569548 -0.18582234 0.02391995 -0.31552035 -0.042504363 -0.115806006 -0.3806127 0.21043381
0.14450599 -0.3107775 -0.479859 0.31411824 -0.024312181 0.08441735 0.423536 -0.075907394
-0.21911484 0.1688252 0.19149357 -0.14745145 0.13522984 -0.13342763 -0.28391287 -0.18070143
0.02326523 0.111477524 -0.04498768 0.008306199 -0.30429545 -0.15762512 -0.041559827 -0.19244291
-0.055547293 -0.15201484 -0.11615114 0.03913327 -0.20615943 -0.17460413 -0.014059508 0.15023816
0.19169968 0.11210564 0.07507928 0.08605869 0.15936096 0.08160659 -0.2541934 -0.19756946
0.0251888 0.09083851 0.117403716 -0.018058186 -0.096170336 -0.07564219 0.25541574 0.09874424
-0.00811921 0.0053739054 -0.011072598 -0.14014463 0.01615802 -0.03051265 -0.037954632 -0.0017578145
0.004793357 -0.035562914 -0.084576294 0.09630933 0.0027039526 0.032080524 -0.097684056 -0.113571025
0.111320965 0.15682438 -0.12631562 0.18411943 -0.24625428 0.04698737 0.12202602 -0.15152268
-0.06072445 0.078280315 0.05705324 0.10711217 -0.18679571 -0.026415706 0.14280337 0.022559917
0.044759143 0.13493848 0.14023532 -0.023462387 -0.0055444716 0.017851235 -0.34294233 -0.44655702
-0.20708798 -0.048301123 0.039563622 0.16511488 0.08364175 -0.05177383 0.21219982 -0.18471164
0.08637594 -0.2424548 0.027292693 -0.3383356 0.030870534 -0.03876119 -0.23877454 0.090982385
0.035609253 -0.28779182 0.060621623 0.0032455265 -0.2373691 -0.26871762 0.13636613 0.16456144
-0.23739119 -0.111245446 -0.03670767 -0.07701154 0.14067587 0.17044322 0.27628306 -0.08549784
0.012202139 0.13140231 0.34614453 0.18494363 -0.09200776 -0.22133613 0.04047381 0.1539956
0.17746358 -0.094369896 -0.10003184 -0.056941718 0.15517126 0.035315894 -0.051595997 -0.07632184
-0.02361883 0.15156467 0.35316786 0.26131564 0.22808897 0.18902153 0.43843195 0.057913862
-0.18117443 0.14612152 -0.04021138 0.14284527 -0.06839838 -0.10699922 -0.3726737 0.022102727
0.40183026 -0.36296546 0.26670694 0.7319853 0.055796925 -0.23956615 0.45745173 0.111316636
-0.06094745 -0.11917107 -0.041343734 0.19351675 -0.22414166 0.12750399 0.1096771 0.13132958

sequential.2.bias f4 [20]
00000000: f38a 18bd d20d 5bbe 3fef 11be 87d3 56bd
00000010: 3d4a 05be d596 72be 2fd1 f3bd 3bbb cbbe
00000020: 851f b6bd 8897 133e 79e7 35be b489 0fbe
00000030: a4b6 9abe 6595 94be a74b 8a3e 1413 be3a
00000040: 3304 a03d 02f0 d9bd 6da9 65be 70ca 9fbd
-0.037241887 -0.21391991 -0.14251421 -0.052447822 -0.13016601 -0.2369035 -0.11905133 -0.39791283
-0.088927306 0.14413273 -0.17764081 -0.14017373 -0.3021747 -0.2902023 0.27010843 0.0014501535
0.07813301 -0.10641481 -0.22427912 -0.07802284

final_convolution.weight f4 [1, 21, 1, 1]
00000000: 0028 d2bc f249 553e 3b14 d53d 66bb d1bd
00000010: 9e1a 673e 4219 f53d ffc2 c93e 802a c2bc
00000020: 060d 6ebd e762 1f3d bb28 61be d1ba 68be
00000030: 75f0 d43e f046 313e e572 4c3e 7f69 c7bc
00000040: 9934 ef3d cf59 8ebe 4c56 ea3d b1eb 263e
00000050: 2c75 b13e
-0.02565384 0.20828989 0.10404249 -0.102408215 0.22568747 0.11967708 0.39406583 -0.023701906
-0.05811789 0.03891268 -0.21988194 -0.22727515 0.41589704 0.17312217 0.19965704 -0.024342297
0.11679954 -0.27802894 0.11442241 0.16300847 0.34659708
