from_finrl-tutorials_git/data_1993_to_2024/train/v2_result/eiie_20241209_161055/policy_EIIE.pt (torch, 10800 bytes, 5 tensors)

sequential.0.weight f4 [2, 4, 1, 3]
0.018619368 -0.24153394 -0.11123555 -0.1901129 -0.001241636 -0.020517787 0.098051935 -0.2828119
-0.035871904 -0.08756639 -0.14471039 -0.3287489 0.3159317 0.1733398 0.12666549 0.58842623
0.16053118 -0.01687297 0.22915633 0.45185128 0.045420624 0.20063189 0.13097036 0.08400893
00000000: a587 983c ac54 77be 77cf e3bd f5ac 42be
00000010: 64be a2ba eb14 a8bc 74cf c83d b9cc 90be
00000020: 6bee 12bd 0256 b3bd f62e 14be c751 a8be
00000030: cdc1 a13e fd7f 313e 99b4 013e 1aa3 163f
00000040: 4962 243e 2f39 8abc f5a7 6a3e 0d59 e73e
00000050: fa0a 3a3d 7272 4d3e 181d 063e e00c ac3d

sequential.0.bias f4 [2]
0.00073588535 -0.3245229
00000000: 6ee8 403a de27 a6be

sequential.2.weight f4 [20, 2, 1, 48]
-0.011051719 -0.057814967 0.027203893 0.0073785577 -0.0018463868 0.03422505 -0.05163892 0.0011018933
0.03486741 -0.0722354 -0.046398275 0.018082356 -0.08865897 0.016801149 -0.087972775 -0.027801739
-0.00952445 -0.04303551 -0.099062786 0.02053617 -0.08956318 -0.022799904 0.0030126115 0.009198776
-0.08747016 0.019026821 -0.07513743 -0.016722202 -0.08663677 -0.06583945 -0.028908638 -0.06555841
-0.09286657 0.03166295 0.017261934 -0.06014034 -0.11721386 -0.066793524 -0.06129616 -0.03459533
0.024251219 -0.05073185 -0.069697894 -0.10111996 -0.10362028 -0.0017421126 -0.09276362 -0.00031665424
0.012941989 0.009047972 -0.000706875 -0.11471253 -0.044315536 0.025270998 -0.07320249 -0.063660376
-0.09943807 0.011373672 -0.11013481 -0.065252304 -0.02073034 -0.058504015 -0.00522864 -0.08155091
-0.11123523 -0.039364345 -0.057925392 -0.067386284 -0.049983326 0.027753683 -0.08861285 -0.022175947
-0.016142039 -0.096193105 -0.07113315 -0.07751169 -0.006936501 -0.014739389 -0.10299135 -0.03687547
-0.06752691 -0.048522446 -0.03162564 0.017876396 -0.042950694 -0.06290956 -0.03676075 -0.016524643
-0.066802196 -0.06127009 -0.026706686 0.011421082 -0.06559568 -0.09453434 -0.03621687 -0.08895451
-0.022528788 -0.0948285 -0.05386181 -0.018264083 -0.04564559 -0.07568824 -0.11716453 -0.045744315
-0.017912671 -0.08058716 -0.05744812 -0.07105961 -0.08158096 -0.047722016 -0.034463063 -0.036427468
0.03307778 0.0111365095 -0.072842926 -0.09115602 0.022750875 0.024935689 -0.020971406 -0.064452276
-0.03954273 -0.02696999 -0.033345833 -0.08927252 -0.11390405 -0.11584524 -0.009665633 -0.011773845
-0.0894249 0.012347133 0.009318977 -0.038982075 -0.032737717 -0.02991826 -0.04453616 -0.07464923
-0.09449683 -0.11724708 0.02102005 -0.05446163 -0.033206616 0.0036097798 0.010395419 -0.09353379
-0.082550466 -0.015019792 0.021187263 0.018979616 -0.0057131913 -0.0009525117 0.027447555 -0.08876999
-0.05546705 -0.11418972 0.018439647 0.022347631 -0.105604164 0.0025532122 -0.023534471 0.013783454
-0.040008944 0.01535522 0.026363514 -0.11104508 -0.04786249 -0.06280374 0.0038474584 -0.069829814
-0.0043275645 -0.0634779 0.019751268 -0.08934145 -0.054985046 -0.06538041 -0.0402749 -0.0346534
-0.09506666 -0.06350959 -0.08082713 -0.07256493 -0.09862647 -0.08823851 0.020644983 0.011786222
-0.1112215 0.032551628 -0.0707437 -0.06454673 -0.051289055 -0.06285921 0.011985243 -0.08730983
-0.063961856 0.009097647 0.013932672 -0.029870454 0.06549104 -0.021740025 0.056043588 0.044073027
-0.053948775 -0.008380698 0.06226854 0.052049268 -0.06144729 0.00860895 0.008789384 0.023725078
0.0012323597 -0.060203303 0.024347454 -0.045945477 -0.0016330943 -0.0066436287 0.024155445 0.033264033
0.035911597 0.03101215 0.011847894 -0.013440644 0.0511558 -0.026112191 0.031692527 -0.0780322
-0.06654261 -0.071959525 -0.0128106335 -0.0099265305 0.0026419242 -8.683403e-05 0.033311132 -0.015574443
-0.06324661 -0.04895108 -0.068610035 0.050538313 -0.023883142 -0.048735023 0.0030749491 -0.06391391
-0.010747346 -0.011713166 -0.04654197 0.037522037 -0.026093863 0.05155296 -0.05429564 -0.016052349
0.038835667 -0.060634382 0.05564888 -0.07890822 -0.049439687 0.06712591 -0.0139080975 -0.0069085527
00000000: 4512 35bc 63cf 6cbd b3da de3c d4c7 f13b
00000010: 7602 f2ba 912f 0c3d 5583 53bd 676d 903a
00000020: 21d1 0e3d 27f0 93bd 1e0c 3ebd 7321 943c
00000030: d692 b5bd 90a2 893c 122b b4bd 79c0 e3bc
00000040: 700c 1cbc 0146 30bd 6ee1 cabd 783b a83c
00000050: e76c b7bd ddc6 babc 3c6f 453b 77b6 163c
00000060: 8e23 b3bd 23de 9b3c a7e1 99bd 00fd 88bc
00000070: 9e6e b1bd d5d6 86bd cfd1 ecbc 7d43 86bd
00000080: d430 bebd 02b1 013d e668 8d3c b855 76bd
00000090: d20d f0bd 0bcb 88bd af11 7bbd d5b3 0dbd
000000a0: 7eaa c63c 33cc 4fbd c5bd 8ebd fb17 cfbd
000000b0: df36 d4bd 9957 e4ba dafa bdbd 9d04 a6b9
000000c0: a30a 543c f23d 143c 944d 39ba 67ee eabd
000000d0: 3584 35bd 2005 cf3c 30eb 95bd 5f60 82bd
000000e0: 30a6 cbbd a358 3a3c 5c8e e1bd 00a3 85bd
000000f0: add2 a9bc e8a1 6fbd 0355 abbb 2a04 a7bd
00000100: 4ccf e3bd 823c 21bd 2d43 6dbd d201 8abd
00000110: 51bb 4cbd b15b e33c a77a b5bd 55aa b5bc
00000120: 4f3c 84bc e400 c5bd 42ae 91bd 73be 9ebd
00000130: 964b e3bb 7a7d 71bc 21ed d2bd bc0a 17bd
00000140: 8c4b 8abd 79bf 46bd e389 01bd 8571 923c
00000150: 11ed 2fbd bad6 80bd 7192 16bd b05e 87bc
00000160: 97cf 88bd 59f6 7abd fbc7 dabc 7d1f 3b3c
00000170: 0757 86bd 389b c1bd 2458 14bd c82d b6bd
00000180: 4b8e b8bc 7235 c2bd 349e 5cbd 8f9e 95bc
00000190: dff6 3abd 7002 9bbd f5f3 efbd 645e 3bbd
000001a0: 98bd 92bc e20a a5bd b84e 6bbd b387 91bd
000001b0: eb13 a7bd 2978 43bd 2429 0dbd f834 15bd
000001c0: 917c 073d e875 363c ac2e 95bd 02b0 babd
000001d0: 0b60 ba3c ee45 cc3c 3acc abbc 8eff 83bd
000001e0: 8ff7 21bd 2bf0 dcbc a495 08bd 83d4 b6bd
000001f0: 8746 e9bd 4540 edbd 9a5c 1ebc 16e7 40bc
00000200: 6724 b7bd a14b 4a3c 9fae 183c abab 1fbd
00000210: fc17 06bd 2417 f5bc 8c6b 36bd b2e1 98bd
00000220: 8e87 c1bd 3d1f f0bd 3d32 ac3c 2813 5fbd
00000230: a903 08bd 0e92 6c3b 8c51 2a3c a58e bfbd
00000240: 3810 a9bd 9315 76bc e990 ad3c 247b 9b3c
00000250: b935 bbbb fab1 79ba b2d9 e03c 0acd b5bd
00000260: 6b31 63bd 4ddc e9bd be0e 973c 6112 b73c
00000270: ff46 d8bd cb53 273b 5dcb c0bc ffd3 613c
00000280: 6be0 23bd 7694 7b3c 4cf8 d73c 9a6b e3bd
00000290: 750b 44bd 3f9f 80bd a425 7c3b ef02 8fbd
000002a0: 3ece 8dbb b400 82bd 69cd a13c a6f8 b6bd
000002b0: 0038 61bd 2ae6 85bd 4bf7 24bd b9f0 0dbd
000002c0: 4fb2 c2bd 5111 82bd b288 a5bd ec9c 94bd
000002d0: adfc c9bd 64b6 b4bd ab1f a93c 001b 413c
000002e0: 19c8 e3bd db54 053d 13e2 90bd 1331 84bd
000002f0: 7914 52bd 54bc 80bd c15d 443c 7fcf b2bd
00000300: 6ffe 82bd 4c0e 153c dd45 643c e2b2 f4bc
00000310: 2b20 863d 2318 b2bc f68d 653d eb85 343d
00000320: 64f9 5cbd 324f 09bc 4c0d 7f3d 9d31 553d
00000330: 27b0 7bbd 8e0c 0d3c 5901 103c 185b c23c
00000340: 2187 a13a bd97 76bd 5074 c73c 5331 3cbd
00000350: 8d0d d6ba ccb2 d9bb a4e1 c53c de3f 083d
00000360: 0a18 133d 310d fe3c ab1d 423c 2636 5cbc
00000370: bf88 513d 3ce9 d5bc 06d0 013d 59cf 9fbd
00000380: 7e47 88bd 845f 93bd b1e3 51bc e3a2 22bc
00000390: 2224 2d3b aa1a b6b8 4171 083d f32b 7fbc
000003a0: 7087 81bd ed80 48bd 6b83 8cbd 4301 4f3d
000003b0: 94a6 c3bc 609e 47bd 1685 493b 4ce5 82bd
000003c0: a315 30bc 94e8 3fbc cba2 3ebd b5b0 193d
000003d0: ccc2 d5bc 3229 533d 1b65 5ebd 3780 83bc
000003e0: 2612 1f3d c25b 78bd 14f0 633d a29a a1bd
000003f0: 4581 4abd 4f79 893d cade 63bc 2461 e2bb

sequential.2.bias f4 [20]
-0.025165016 -0.031605206 -0.04875593 0.020044038 0.07185322 -0.033651598 -0.00037442552 -0.02026585
-0.0021581347 0.12819123 -0.0706688 -0.0868773 0.037652444 0.058785733 0.025721133 0.060136627
-0.054457936 0.027331157 -0.09742174 0.2090658
00000000: dd26 cebc 7674 01bd 4cb4 47bd 6533 a43c
00000010: c827 933d 42d6 09bd 8b4e c4b9 9104 a6bc
00000020: 7e6f 0dbb 9044 033e ceba 90bd baec b1bd
00000030: 7339 1a3d 4fc9 703d 20b5 d23c d351 763d
00000040: 490f 5fbd 97e5 df3c 0d85 c7bd 5815 563e

final_convolution.weight f4 [1, 21, 1, 1]
0.25355488 0.02573975 0.05498466 -0.023613585 0.0495115 0.08101329 0.013771686 0.057198122
0.028487887 -0.012603951 0.025495784 -0.104046345 -0.087792404 0.10100645 0.034891974 0.10002644
0.009111222 -0.0985719 -0.200739 -0.12504634 0.35925993
00000000: f2d1 813e 2bdc d23c 9837 613d 4771 c1bc
00000010: 92cc 4a3d 4cea a53d a3a2 613c 9448 6a3d
00000020: 6e5f e93c cd80 4ebc 89dc d03c 4016 d5bd
00000030: 81cc b3bd 78dc ce3d e3ea 0e3d aada cc3d
00000040: 3c47 153c 10e0 c9bd 868e 4dbe 260c 00be
00000050: ebf0 b73e
