from_finrl-tutorials_git/data_1993_to_2024/train/v2_result/eiie_20250103_092835_turbulence_ep100_deficit/checkpoint-54/policy_EIIE_54.pt (torch, 10958 bytes, 5 tensors)

sequential.0.weight f4 [2, 9, 1, 3]
0	0x3dcc2f0c	0.09969911
1	0x3cb8049c	0.022463135
2	0xbbb1034c	-0.0054020043
3	0xbb822407	-0.00397158
4	0x3bc08f64	0.0058764685
5	0x3b18b966	0.0023303865
6	0x3dcffbb4	0.101554304
7	0xbbe31269	-0.006929685
8	0x3d6b09d3	0.057382416
9	0x3dee9d34	0.11651078
10	0xbe01b741	-0.12667562
11	0xbd361065	-0.04444923
12	0xbcf4f506	-0.029901993
13	0x3dc757d7	0.09733551
14	0xbbafe95b	-0.0053683943
15	0xbe19c9d0	-0.15018392
16	0x3dc39a64	0.09550932
17	0xbdac0749	-0.08399827
18	0xbde65260	-0.112461805
19	0xbd7744d1	-0.060368363
20	0x3dd69930	0.10478437
21	0x3d4491af	0.047990497
22	0x3d9d4d07	0.076807074
23	0xbe12590b	-0.1429178
24	0xbc041b00	-0.008063078
25	0x3da143fc	0.07874295
26	0xbddc522a	-0.10757859
27	0x3d93539a	0.0719368
28	0x3e411858	0.18856943
29	0x3e0298e7	0.1275364
30	0x3db3e10c	0.08783159
31	0x3d6cfa0f	0.057855662
32	0xbded15ff	-0.11576461
33	0x3e1d7993	0.15378408
34	0x3dae314f	0.085054986
35	0x3e3ce547	0.18446837
36	0x3e47bce3	0.19505648
37	0xbe14604c	-0.1448986
38	0x3eac6402	0.3367005
39	0xbdf2d7ea	-0.118575886
40	0xbdd1ba71	-0.10240639
41	0xbe0bd809	-0.1365663
42	0x3dfd26d5	0.12360922
43	0xbdc71d16	-0.097223446
44	0xbdd97988	-0.10618883
45	0x3e0aa09d	0.13537832
46	0x3d019b15	0.03164204
47	0x3ccd482b	0.025058826
48	0x3d8c63d0	0.06854975
49	0xbd1effbb	-0.038818102
50	0x3e384c0a	0.17997757
51	0x3e07b6da	0.13253346
52	0x3e14e488	0.14540303
53	0x3b74d780	0.0037359893

sequential.0.bias f4 [2]
0	0xbe19b17f	-0.15009116
1	0x3e2622de	0.16224238

sequential.2.weight f4 [20, 2, 1, 48]
0	0xbd088950	-0.033334076
1	0x3e6b6f5a	0.22991696
2	0x3d85ec91	0.06539262
3	0xbc96ead6	-0.018422525
4	0x3e42ccf9	0.19023503
5	0x3d9b506b	0.07583698
6	0x3c238f20	0.009982854
7	0xbd52ba16	-0.051446997
8	0xbc9f4d42	-0.01944602
9	0xbc9ac7d8	-0.018894121
10	0xbe89885a	-0.2686184
11	0x3c8bb87c	0.017055742
12	0xbd981708	-0.07426268
13	0xbe692886	-0.22769365
14	0x3d77e1df	0.06051814
15	0x3e2db709	0.16964354
16	0x3c9da40c	0.019243263
17	0x3e82c742	0.25542647
18	0x3d14067d	0.036139
19	0xbe24cec8	-0.16094506
20	0xbd9a1f8d	-0.07525549
21	0x3a95a279	0.0011416218
22	0x3ce56ad2	0.028005037
23	0x3c2b0d30	0.010440156
24	0xbdb0ceb9	-0.08633179
25	0xbd16e450	-0.03683883
26	0x3e6432ec	0.2228505
27	0xbd930089	-0.071778364
28	0xbcbd1472	-0.023081038
29	0xbd92757f	-0.07151317
30	0x3acabda2	0.0015467892
31	0x3d94727e	0.072484
32	0x3e8dbd79	0.2768362
33	0xbdabeb53	-0.08394494
34	0x3d9c9db9	0.07647271
35	0x3e0c0543	0.13673882
36	0xbc9f0587	-0.019411815
37	0xbd99ff63	-0.07519414
38	0xbd3af6a3	-0.045645367
39	0x3e8c1e3c	0.27366817
40	0xbc88c051	-0.016693266
41	0x3e6aebef	0.22941564
42	0x3d86802b	0.06567415
43	0x3d000d57	0.031262722
44	0x3e3eaa2e	0.18619606
45	0xbd487d0d	-0.048947383
46	0xbd3f3410	-0.04668051
47	0x3cf43027	0.029808117
48	0xbda0c94d	-0.07850895
49	0x3e2f1c8e	0.17100736
50	0x3e4c99cf	0.19980548
51	0x3a0a3682	0.00052724045
52	0x3e91ca26	0.2847454
53	0x3e68016e	0.22656795
54	0x3d043838	0.032280177
55	0x3d625c70	0.055263937
56	0xbaa625f2	-0.0012676104
57	0xbbe24108	-0.006904725
58	0xbe30cc5c	-0.17265457
59	0xbe8313dc	-0.2560109
60	0xbdab8882	-0.08375646
61	0xbe48d929	-0.1961409
62	0xbe987864	-0.2977935
63	0x3e6035f8	0.21895587
64	0x3e422afe	0.18961713
65	0x3e7638ee	0.24045154
66	0x3e596a06	0.21231851
67	0xbe6da2d5	-0.23206647
68	0xbe17fc17	-0.14842258
69	0xbd3083a2	-0.043094285
70	0xbcf4b9d8	-0.029873773
71	0xbd877e7b	-0.06615921
72	0xbd104b78	-0.035228223
73	0x3dc3517f	0.095370285
74	0x3e305833	0.17221145
75	0x3e8272f7	0.25478336
76	0xbcde83ad	-0.027162397
77	0xbc9467ee	-0.018115964
78	0xbcfd6f4b	-0.030936858
79	0x3dbbb5d7	0.091655426
80	0x3e1c60b1	0.1527126
81	0x3e315af8	0.17319858
82	0xbd50e0ba	-0.050995566
83	0x3e37b809	0.17941298
84	0x3e8f7c68	0.28024602
85	0xbd5d7901	-0.054070476
86	0xbd6705a7	-0.056401875
87	0x3e5e2921	0.21695377
88	0x3e46e802	0.19424441
89	0x3e643ff6	0.22290024
90	0x3e89f009	0.26940945
91	0xbdc1012b	-0.09424051
92	0x3e3e9769	0.18612446
93	0x3e7a0de0	0.24419355
94	0xbce20b94	-0.027593412
95	0x3de2a3a8	0.11066371
96	0xbda9c30d	-0.08289156
97	0x3e02ca25	0.12772425
98	0xbd78badb	-0.060725074
99	0xbdae2b02	-0.08504297
100	0x3dd7dbac	0.10539946
101	0x3cf1468e	0.029452588
102	0xbd4fd9bc	-0.050744757
103	0xbc990f64	-0.018684097
104	0xbd6150d9	-0.055008743
105	0x3be25a73	0.006907755
106	0x3e76457e	0.24049947
107	0xbd1803d0	-0.03711301
108	0xbd9d4273	-0.0767869
109	0xbd456a78	-0.04819724
110	0xbbeaaf49	-0.007162009
111	0x3e8587f8	0.26080298
112	0xbd81f941	-0.063463695
113	0x3e378a95	0.17923959
114	0xbd8f30d5	-0.06991736
115	0x3bbebc2c	0.0058207717
116	0xbc9b91ee	-0.018990483
117	0xbcbe581f	-0.023235379
118	0x3da69e60	0.081356764
119	0xbcd0c0a1	-0.025482478
120	0xbc94bd12	-0.018156562
121	0xbd1b6e80	-0.037947178
122	0x3e784718	0.2424587
123	0x3c8a8441	0.016908767
124	0x3d736496	0.059422098
125	0xbd2db204	-0.042406097
126	0x3d677145	0.056504507
127	0x3d2579f9	0.040399525
128	0x3e122ac5	0.14274128
129	0xbc3d6758	-0.011560284
130	0xbd4dc14c	-0.05023317
131	0x3e89f11e	0.2694177
132	0x3b741146	0.003724174
133	0xbd48bafb	-0.049006443
134	0xbcec43bf	-0.028840898
135	0x3db450ab	0.08804449
136	0xbd86585e	-0.065598235
137	0x3e030e6c	0.1279847
138	0xbd06bf84	-0.032897487
139	0x3c7808bd	0.015138802
140	0x3e200a5c	0.15628952
141	0x3d37a41e	0.04483425
142	0x3d8c3182	0.0684538
143	0xbd2ce2b4	-0.04220839
144	0x3d604ca0	0.054760575
145	0x3d8b66a0	0.068066835
146	0x3d7cf4de	0.06175696
147	0xbc6a7511	-0.014310137
148	0x3e18a4fb	0.14906685
149	0x3ddb0c33	0.10695686
150	0xbcf31563	-0.029673284
151	0x3d808c70	0.06276786
152	0xbd9fc4d7	-0.07801216
153	0x3d9463cd	0.07245598
154	0x3e6c7707	0.2309228
155	0x3e1f8a3a	0.15580073
156	0x3d097887	0.03356221
157	0x3e0c2bfe	0.13688657
158	0xbd9c861f	-0.07642769
159	0x3e43ec7c	0.1913318
160	0x3e5e3bab	0.21702449
161	0x3e803903	0.25043496
162	0x3e846c69	0.2586396
163	0x3c454a29	0.012041607
164	0xbd8b1cad	-0.06792579
165	0xbd5af977	-0.053460564
166	0xbc805a58	-0.01566808
167	0xbd02b686	-0.03191235
168	0x3d824713	0.063612126
169	0x3c2dd0cc	0.010608863
170	0x3e219819	0.15780677
171	0x3df49ebe	0.1194434
172	0x3db8dfd0	0.09027064
173	0x3d58de2e	0.052946262
174	0x3912b34d	0.0001399044
175	0xbd9a92f7	-0.075475626
176	0x3e770f11	0.24126841
177	0x3e7514c2	0.239337
178	0xbd8b7f78	-0.06811422
179	0x3e8add4e	0.27121967
180	0x3e833cef	0.25632426
181	0x3d98ac5c	0.0745475
182	0x3d9f3c6c	0.077751964
183	0x3e211963	0.1573234
184	0x3e14f64e	0.14547083
185	0x3e87f226	0.26551932
186	0x3e2f83da	0.17140141
187	0x3d04ca2a	0.03241936
188	0x3e1e2d04	0.1544686
189	0x3e347370	0.17622161
190	0xbd331aa1	-0.043726567
191	0x3e3d927a	0.18512908
192	0xbd84f1bb	-0.06491419
193	0x3d619734	0.05507584
194	0x3d820393	0.06348338
195	0xbcf17595	-0.029475013
196	0x3d9df0a2	0.07711913
197	0xbc011ba3	-0.007880124
198	0xbd6bd4ee	-0.057576112
199	0x3d52b4ef	0.051442083
200	0xbc4d32b2	-0.012524294
201	0x3bea544a	0.0071511613
202	0x3d9128f1	0.07087887
203	0xbd9fb47d	-0.07798097
204	0x3d584f96	0.052810274
205	0xbb1a303a	-0.002352728
206	0xbd92c9f5	-0.071674265
207	0xbd6e1414	-0.058124617
208	0x3d2be9b4	0.041970924
209	0xbc7ce9c4	-0.015436593
210	0x3dae3dae	0.08507858
211	0xbd448776	-0.047980748
212	0xbc2c7e09	-0.010528096
213	0xbd8bcdf6	-0.06826393
214	0xbc0346f7	-0.008012525
215	0xbc003adf	-0.007826536
216	0x3ccbd2f2	0.02488086
217	0x3d52a04c	0.051422402
218	0x3daf320d	0.08554468
219	0x3dae4937	0.085100584
220	0xbd885c1e	-0.06658195
221	0x3da5b349	0.080908366
222	0x3d3e2c7e	0.04642915
223	0x3d9209aa	0.071307495
224	0xbd6b6cf0	-0.057476938
225	0x3d57d631	0.052694503
226	0xbdae325a	-0.085056975
227	0xbd5a6e7f	-0.053328034
228	0xbd8895d4	-0.066692024
229	0x3cecae16	0.028891604
230	0x3db06829	0.08613617
231	0xbcdc7513	-0.026911294
232	0xbd1dd5de	-0.038534038
233	0x3d878fb7	0.06619208
234	0x3cde35c7	0.027125252
235	0x3d8510ca	0.06497343
236	0xbd05fdd2	-0.032712765
237	0xbc452805	-0.012033467
238	0xbd16b760	-0.036795974
239	0x3b25140d	0.0025188953
240	0x3d9ced0e	0.07662402
241	0xbcbc988a	-0.023021955
242	0xbd8e1341	-0.06937266
243	0x3d4a22c0	0.049349546
244	0xbc689830	-0.014196441
245	0x3c97f6ec	0.018550359
246	0x3d30da23	0.04317678
247	0x3cee491c	0.029087596
248	0x3d307049	0.043075833
249	0xbd3c24cd	-0.045933533
250	0xbd85974f	-0.065230004
251	0x3d50311c	0.050828084
252	0x3c0662e6	0.00820229
253	0xbc991f5b	-0.01869171
254	0x3ccc43d0	0.02493468
255	0x3ca55d7d	0.02018618

sequential.2.bias f4 [20]
0	0x3c40af8b	0.011760603
1	0x3d1f5df2	0.038907953
2	0x3d593a0c	0.053033873
3	0xbddce5b9	-0.107860036
4	0xbda8815a	-0.08227797
5	0x3b28023c	0.0025636097
6	0xbd176ee0	-0.036970973
7	0xbd4ae0cb	-0.049530786
8	0xbd365214	-0.04451187
9	0xbc22a98c	-0.009928118
10	0x3ca40f76	0.020026904
11	0x3d1fad73	0.038983773
12	0xbce9372f	-0.028468696
13	0x3c999997	0.018749995
14	0x3d10c64a	0.035345353
15	0xbc14f2b9	-0.009091073
16	0x3bf34e1f	0.0074250842
17	0xbcccf3f3	-0.025018668
18	0xbd824455	-0.063606896
19	0xbd9b7729	-0.07591087

final_convolution.weight f4 [1, 21, 1, 1]
0	0xbe8e975c	-0.27849853
1	0x3eb86673	0.36015663
2	0x3e656fa0	0.22405863
3	0x3c423165	0.011852597
4	0x3d99e393	0.075141095
5	0xbe0297c7	-0.12753211
6	0xbd6ee067	-0.058319476
7	0x3debcbbe	0.1151347
8	0x3e845a99	0.2585037
9	0x3e99c6d4	0.30034506
10	0x3e9d0028	0.30664182
11	0x3dabe416	0.08393113
12	0x3e672833	0.22573929
13	0xbe3b00bd	-0.18262
14	0xbdbe336c	-0.09287152
15	0x3ea48022	0.32129008
16	0xbe6a519a	-0.22882691
17	0x3ebea255	0.37233225
18	0x3e97d015	0.29650941
19	0xbd8cedbd	-0.068812825
20	0x3ddce23b	0.107853375
