from_finrl-tutorials_git/data_1993_to_2024/train/v2_result/eiie_20250103_092835_turbulence_ep100_deficit/checkpoint-3/policy_EIIE_3.pt (torch, 10948 bytes, 5 tensors)

sequential.0.weight f4 [2, 9, 1, 3]
000000 93 9c ec 3d b5 06 da 3c cb 09 9e bb 70 13 99 bb
       0.11553302 0.026614526 -0.0048229448 -0.0046715066
000010 cb a1 f2 3b 1e a9 8d 3b 38 9a f1 3d e6 54 f2 bb
       0.007404541 0.004323139 0.11796993 -0.0073953746
000020 9f d5 89 3d da ef e9 bd 19 e4 0f be 7c f3 39 3e
       0.06730198 -0.11422701 -0.14051856 0.18159288
000030 92 72 90 bc 54 d9 f0 3d 2e b4 fe 3a af 76 31 be
       -0.017632756 0.11760202 0.001943236 -0.1733043
000040 e6 17 e4 3d 71 cf c5 bd 7a b8 04 be 6a bc 8d bd
       0.11137371 -0.09658707 -0.12960997 -0.06920703
000050 48 34 fa 3d 5e ae 5c 3d a0 52 b7 3d 12 c2 24 be
       0.12217003 0.053877227 0.08951306 -0.16089657
000060 d7 7e 0b bc ec 8e bc 3d 6c df fd bd 51 36 40 3d
       -0.008514128 0.09206948 -0.1239613 0.0469268
000070 5b a9 3b 3e 38 cc e7 3d 0e d8 84 3d 90 a6 01 3d
       0.18326323 0.113182485 0.06486522 0.031652987
000080 cf cc 2c be 4f 39 12 3e c2 44 7d 3d 52 8c 37 3e
       -0.16875003 0.14279674 0.06183315 0.17924622
000090 cc ad a6 bc fe 93 b5 3d 50 7e 1b 3e 91 f6 39 be
       -0.020346545 0.08866118 0.15184903 -0.18160464
0000a0 c5 4b 09 be 44 97 0d be 4f 91 dd 3d d7 68 17 be
       -0.1340781 -0.13827235 0.10818731 -0.14786087
0000b0 17 1f 22 be 7f c4 fa 3d a4 dd 0e 3b 10 c2 b5 bb
       -0.15832172 0.1224451 0.0021799589 -0.0055468157
0000c0 18 3e 37 3d d4 c6 a4 bd f7 2a 32 3e bc 6f f3 3d
       0.04473695 -0.08045736 0.17399202 0.11886546
0000d0 2a f1 08 3e e5 d5 f9 bc
       0.13373247 -0.0304975

sequential.0.bias f4 [2]
000000 66 7e 31 be 5b 7e 1d 3e
       -0.17333373 0.15380232

sequential.2.weight f4 [20, 2, 1, 48]
000000 f2 9f 1d bd f7 83 e7 3c 92 45 9b 3d ff fb ae bc
       -0.038482614 0.028261168 0.07581629 -0.021360395
000010 fd 09 b9 bc 3d 9e b6 3d 8e a3 3d 3c ec 52 74 bd
       -0.02258777 0.089169 0.011574639 -0.059649393
000020 78 91 b8 bc 37 75 b3 bc 82 ad 86 bd 16 19 a2 3c
       -0.022530302 -0.021906478 -0.06576063 0.019787353
000030 9b 56 b0 bd 77 0e 96 bc a8 b0 8f 3d b4 7a 48 bd
       -0.08610269 -0.018317444 0.070161164 -0.048945144
000040 6f c8 b6 3c d0 f2 4e 3d 57 87 56 3d 31 86 72 3d
       0.022312371 0.050524533 0.052375164 0.059210006
000050 55 91 b2 bd fa 2f 0d 3a 62 54 05 3d c5 52 46 3c
       -0.08719126 0.0005385872 0.032551177 0.012104695
000060 8a ff cc bd 47 0e 2e bd 47 61 54 3c e2 4a ac bd
       -0.10009678 -0.042494085 0.012962646 -0.0841272
000070 e8 53 da bc 60 d0 a9 bd 66 bb cc bb 6b cb ab 3d
       -0.026651338 -0.082916975 -0.0062479256 0.08388408
000080 07 3f 9a 3d 39 54 c7 bd 9f f3 b5 3d 92 73 b2 bd
       0.07531553 -0.09732861 0.08884358 -0.087134495
000090 99 d8 e0 bc f6 45 b2 bd 98 c5 58 bd 18 c8 a1 3d
       -0.027447032 -0.0870475 -0.052922815 0.07899493
0000a0 05 6a 06 bc 47 57 ac 3c 1e 40 9c 3d 5a 84 b2 3d
       -0.008203988 0.02103771 0.07629417 0.0871665
0000b0 3a fa f3 bc cd 76 3e bd 52 b0 5d bd 9b 13 b1 3d
       -0.029782403 -0.046500016 -0.05412323 0.086463176
0000c0 33 fc b9 bd 13 89 18 bd 55 a5 80 3b 27 9d 93 3d
       -0.09081306 -0.0372401 0.003925959 0.07207709
0000d0 00 e9 b3 3d 67 b9 bd 3c 01 01 86 3d ab 28 b7 3d
       0.087846756 0.023159696 0.0654316 0.08943304
0000e0 d2 c8 9c 3c d3 56 96 3b 8e 7e 3a 3d 6f 56 51 bd
       0.019138727 0.004587987 0.04553085 -0.05110782
0000f0 1d bf c6 bd 2b d4 95 3c 64 ed cb bd 90 58 07 3c
       -0.09704421 0.018289646 -0.09957388 0.008260861
000100 ee bf d2 bc 9d ee 07 3d 5f 14 0f 3a 23 6b be bc
       -0.025726285 0.033186544 0.00054580526 -0.023244446
000110 4a 11 97 3d 01 18 a8 bd ac 9e 13 bc 2e 2d bd bd
       0.073763445 -0.082077034 -0.009009998 -0.09237133
000120 96 b5 53 bd eb 17 ca 3d 6a a0 3a bd 2e 78 4e 3d
       -0.051686846 0.09867843 -0.04556314 0.05040758
000130 cb 9a 2d bc 79 e4 3f 3c 03 07 35 bd 83 39 cc 3d
       -0.010595988 0.011712187 -0.04419614 0.09971907
000140 10 82 8c bd c8 8e 37 bd 2d dd 2d bd aa d6 19 bd
       -0.06860745 -0.0448139 -0.042447258 -0.037558235
000150 67 30 9d 3d ca f6 0e bd a8 f9 81 bd 80 35 80 3c
       0.07675248 -0.034903325 -0.06346446 0.01565051
000160 a6 d7 34 bb 37 9d 5b 3c fe 99 89 3d 23 df 39 bd
       -0.0027594357 0.013404182 0.06718825 -0.045378815
000170 4b 4c f4 bc d0 d5 18 3d a9 43 33 3c 0f c2 a3 bd
       -0.029821536 0.037313282 0.010941424 -0.07995998
000180 ef d3 c4 bd c2 f7 f8 bc 6d 31 90 bd b8 ef c9 bd
       -0.096107356 -0.030391578 -0.07040677 -0.09860176
000190 6f c2 c4 bd 6f 8d 0b 3d 32 fd 70 bd 98 76 b1 bc
       -0.09607398 0.03407043 -0.058835216 -0.021662995
0001a0 e7 9e 82 bd b2 07 03 3c d4 fd 10 3d 59 40 30 bd
       -0.063779645 0.00799744 0.03539832 -0.043030117
0001b0 67 55 b6 bd 19 46 66 bd 40 0e 08 bc 75 9b 69 3d
       -0.08903008 -0.056219194 -0.008304179 0.05703302
0001c0 21 b2 96 bd 8c f9 1a bd 3f 05 a6 bd 76 17 dd 3b
       -0.07358194 -0.037835643 -0.08106469 0.0067471815
0001d0 43 6a b4 bc cf 28 dd bc f4 2e c1 3d fa 08 f2 bc
       -0.022023326 -0.026996998 0.09432784 -0.029545296
0001e0 cb 74 ac bc dd 36 34 bd 93 09 1e 3d 27 ec 9b 3c
       -0.021051785 -0.043997634 0.03858335 0.019033505
0001f0 56 19 8d 3d 9a 63 49 bd f2 35 82 3d 05 d0 3f 3d
       0.06889598 -0.049167253 0.063579455 0.046829242
000200 23 0a a4 bd d4 99 5b bc 38 8f 6e bd d1 b8 88 3d
       -0.08009746 -0.013403375 -0.058242053 0.06675876
000210 28 85 81 3b 5f bc 68 bd 19 f7 08 bd 1f 76 9c bd
       0.003952641 -0.05682027 -0.033438776 -0.07639717
000220 af c3 9b bd 4f 7c c6 bd 4c 3b 1c bd d0 c7 8f 3c
       -0.07605683 -0.09691679 -0.038142487 0.017551333
000230 1d a9 83 bd 81 ca 54 3d 69 8b a2 3d 00 73 48 bd
       -0.0642874 0.051950935 0.079367466 -0.048937798
000240 2a 07 82 3d fa 54 ad bd 08 bb 64 bd 44 c4 89 bc
       0.06349023 -0.084634736 -0.05584243 -0.01681722
000250 cd 99 19 bd 79 2b 82 bd 23 ee 0c bd 40 4a 94 3d
       -0.03750019 -0.06355948 -0.034406792 0.072407246
000260 fc 15 bb bd 09 93 a8 3d b5 2c cd 3c 1c ef 73 bd
       -0.091350526 0.0823117 0.025045732 -0.059554204
000270 9d 62 1f 3d 70 8b ac 3d d6 7a b5 bd 30 b6 bf bc
       0.038912404 0.08425033 -0.0886132 -0.023402303
000280 aa b0 dd 3b e9 2a 37 3d f2 40 5e 3d e0 ae 64 3c
       0.0067654448 0.044718657 0.054261155 0.013957709
000290 2b 76 a7 bd 0f 11 85 bd 8e 1b ad bc b3 90 23 bd
       -0.081768356 -0.06497394 -0.021131303 -0.039932918
0002a0 49 0a 91 3d 08 90 fd 3b c3 a7 6f bd cf d2 cb bd
       0.0708204 0.007738117 -0.0585096 -0.09952318
0002b0 c9 da cd 3d f1 70 7b 3d fe 78 a3 bb e5 5d b9 bd
       0.100514956 0.061387006 -0.0049887886 -0.09051112
0002c0 82 ee 0b 3d 81 26 03 3d 26 bd a1 bd d7 0b 8d 3d
       0.034163006 0.032019142 -0.07897405 0.06887024
0002d0 8e e8 52 3d 6e a5 b0 3d 7a 00 b4 3d 6e d9 9a 3c
       0.051491313 0.08625303 0.087891534 0.018902507
0002e0 3c 1c 2a 3d 2d 5a 80 3d b1 81 3c bd 81 f4 19 3d
       0.041530833 0.062672 -0.04602212 0.037586693
0002f0 13 db 87 bd d3 98 27 bd 02 ba 4f bd 1b c2 3f 3d
       -0.06633582 -0.04091723 -0.0507145 0.046815973
000300 1f 32 9a bd 58 c7 82 3d 04 cd 96 3d 63 fa 0b bd
       -0.07529091 0.06385678 0.073633224 -0.034174334
000310 81 1e b7 3d 01 c0 15 bc 91 6b 88 bd f2 4c 74 3d
       0.08941365 -0.009140016 -0.06661142 0.059643693
000320 93 ea 6d bc 36 d8 07 3c dc 11 a9 3d fc 2a b9 bd
       -0.014521259 0.008291295 0.082553595 -0.09041402
000330 d7 bb 7a 3d 6c e3 31 bb 99 2f aa bd 5c 05 8a bd
       0.061214294 -0.002714361 -0.0830986 -0.067393035
000340 55 52 47 3d d4 9e 92 bc 11 05 ca 3d 40 e3 63 bd
       0.048662502 -0.017898 0.098642476 -0.055636644
000350 4e fe 47 bc 2f 90 a1 bd 07 42 18 bc b9 ac 14 bc
       -0.012206627 -0.07888829 -0.009293086 -0.009074383
000360 42 07 ed 3c a0 2e 74 3d 6a 23 cd 3d 1b 05 ca 3d
       0.028934125 0.059614778 0.1001652 0.09864255
000370 ee 1d 9e bd 6d 28 c0 3d 1b 39 5c 3d 2e 53 a9 3d
       -0.077205524 0.093827106 0.053765398 0.082678184
000380 04 7b 88 bd 87 3f 7a 3d 31 f8 c9 bd 1c 8e 7d bd
       -0.06664088 0.06109574 -0.09861792 -0.061903104
000390 95 5c 9e bd 15 35 09 3d c8 89 cc 3d 88 9a ff bc
       -0.07732502 0.03349789 0.09987217 -0.031201616
0003a0 f0 ff 36 bd 39 16 9d 3d a6 d1 00 3d e4 47 9a 3d
       -0.044677675 0.07670254 0.031449936 0.07533243
0003b0 7b 5a 1b bd e6 2c 63 bc dd be 2e bd 38 65 3f 3b
       -0.037928086 -0.013865685 -0.04266249 0.0029204618
0003c0 0b e6 b5 3d 31 c5 da bc d8 ac a4 bd 24 64 6a 3d
       0.08881768 -0.026705356 -0.0804078 0.057224408
0003d0 63 d8 86 bc c1 24 b0 3c f7 8a 4d 3d 4d 6e 0a 3d
       -0.016460603 0.0215019 0.050181355 0.033796597
0003e0 72 91 4c 3d 43 22 5a bd 27 3f 9a bd 50 f4 71 3d
       0.049943395 -0.05325533 -0.075315766 0.059070885
0003f0 f8 97 1b 3c 45 9b b1 bc a9 fa ec 3c 4e b9 bf 3c
       0.009496681 -0.021680484 0.028928118 0.02340379

sequential.2.bias f4 [20]
000000 09 c2 61 3c 1f 4a 2a 3d e6 dd 7b 3d a4 2f b9 bd
       0.013779172 0.041574594 0.061490916 -0.0904229
000010 e3 31 c3 bd 78 00 29 3d ac c3 2f bd c6 33 90 bd
       -0.095309995 0.041260213 -0.042911217 -0.07041125
000020 92 0a 9a bd f8 b7 15 bd 34 ef bd 3c 89 b0 28 3d
       -0.075215474 -0.0365524 0.02318535 0.041183982
000030 b4 fc c9 bc ac 16 b2 3c 5c b4 4b 3c 53 14 7d bc
       -0.024656631 0.021739326 0.012433138 -0.01544674
000040 fe 61 fe bc f7 ae 53 bd a6 bf 96 bd 48 25 b4 bd
       -0.031052586 -0.05168053 -0.07360773 -0.08796173

final_convolution.weight f4 [1, 21, 1, 1]
000000 4a 41 4b be 02 74 34 3e 7a 7b 51 3c 64 c8 9c bb
       -0.19849125 0.17622378 0.012785787 -0.0047846306
000010 a2 a7 22 be 8e 57 d7 3d ff dc 2c 3e 30 38 03 3e
       -0.1588426 0.105147466 0.16881178 0.12814403
000020 be 03 ab 3d 33 4e c7 3d 76 d3 e6 3d f2 37 c7 3d
       0.08350323 0.09731712 0.11270802 0.097274676
000030 60 f9 3e 3c 6f 79 0b 3d fa d9 d8 bd 46 3e ef 3d
       0.011656135 0.034051355 -0.10588451 0.116817996
000040 48 a0 70 bc 3f 96 39 3e 50 ff 9c 3d 66 22 2c 3e
       -0.0146866515 0.1812372 0.076658845 0.16809997
000050 24 c5 10 3e
       0.14137703
